artifacts/model_cnn_fold_1.pth (torch, 141777 bytes, 17 tensors)

features.0.weight f4 [32, 8, 5]
0.044977125 0.032512322 -0.15154602 -0.09654557 -0.05406835 -0.19729 -0.09689344 0.15692422
0.004391185 -0.0800168 0.18191382 -0.06291095 0.008038914 -0.0018138102 -0.007797435 -0.07131558
0.16197053 0.16505972 0.06290352 0.11390781 -0.2738273 -0.032674156 -0.17707308 -0.17563073
-0.114744455 0.0836387 0.15059255 -0.12415917 -0.045213375 0.26788 0.06193171 0.025712002
-0.043945204 0.037880033 0.2046398 0.14721134 0.13623756 0.09519594 0.0961819 -0.047787745
-0.15463041 -0.014202377 0.034505203 0.15549551 -0.12828046 0.14437835 0.20086698 0.2372602
-0.10574679 -0.104846746 0.05373446 -0.0020123534 -0.23832949 0.14938648 0.036763757 -0.10414743
-0.10566898 -0.05546195 -0.03576923 0.11153248 0.032237 -0.048084434 0.12078859 -0.068791434
-0.047642834 0.11726212 -0.016180245 0.12855896 0.013784657 0.07839428 0.21537799 -0.10028983
0.13259824 -0.3834501 0.09678253 -0.10543346 0.027241515 -0.031312782 0.14202733 -0.048131745
-0.176405 -0.029277546 0.11792033 0.1230448 -0.08751875 0.03635369 -0.02800254 0.0013411859
0.04714155 0.040793866 -0.10920844 -0.08118941 0.020543333 0.04524545 -0.09554229 0.0030387526
0.079667926 0.1232528 -0.036279317 -0.025832066 0.07127532 0.03032754 -0.11574621 0.038481694
0.048037775 -0.14884795 0.013071443 0.25989816 0.15273385 -0.0308103 0.2262689 -0.0052550687
-0.20037611 -0.098270446 0.066242866 0.18816772 0.03382821 -0.17257214 -0.23288482 0.1477235
-0.08363573 0.16033395 -0.15160142 -0.05998062 0.16356264 -0.1673988 -0.0062485076 0.1338437
-0.15434435 0.061233837 0.26803654 -0.18088481 0.029014133 0.17224568 -0.117256895 -0.021071455
-0.124491826 0.21729848 -0.0005231621 -0.001645074 -0.03046555 0.14089607 -0.22534324 -0.029360523
0.023380626 -0.011799518 0.032935504 0.017196724 0.006902435 -0.025924586 -0.18148616 0.12054613
0.13221577 -0.16389686 0.094950855 0.08750431 -0.029126866 -0.013274635 0.011066733 -0.141304
0.1553778 -0.087099165 0.09540372 0.011585195 -0.10801573 0.06049289 0.022070568 -0.106740884
0.03169802 0.06048738 0.31599084 0.023123583 -0.06600148 0.13721368 -0.09248368 0.09606256
-0.14272158 0.25858665 -0.07540273 -0.08679283 -0.01864998 0.09481367 0.039326668 -0.12508112
-0.14737658 -0.04309883 0.012511276 0.041233547 -0.06968185 0.07884876 0.16221006 -0.085706115
-0.08091174 0.20290053 0.048651446 0.11413338 -0.14975421 -0.18630432 0.031598575 -0.002389944
-0.06250347 0.13131838 0.010114312 0.02729126 -0.13369924 0.014858738 -0.025112096 -0.2119601
0.3341085 -0.21344578 -0.007588145 0.14527638 -0.20689142 0.13900559 0.010783208 0.08413762
-0.09078628 0.035077285 0.069437824 -0.028728316 -0.10498858 0.00088490115 0.01693778 -0.12428587
0.06603043 -0.030036606 -0.023668496 -0.0035464691 -0.073949955 -0.031252276 -0.014797456 0.16033748
-0.039612565 0.101358294 -0.014117224 0.050908536 0.06554506 -0.2977894 0.09220804 0.1935452
-0.122302435 0.064885154 0.19758716 -0.15047096 0.36249954 -0.028640943 -0.011989294 0.07246247
-0.16651846 0.079900846 -0.03544342 -0.018869165 0.069430284 0.042309638 0.024087073 0.04373661
00000000: ef39 383d a42b 053d e12e 1bbe afb9 c5bd
00000010: c676 5dbd 6406 4abe 1170 c6bd beb0 203e
00000020: eee3 8f3b d9df a3bd 9e47 3a3e 75d7 80bd
00000030: a6b5 033c 5fbd edba a081 ffbb e70d 92bd
00000040: 9adb 253e 6a05 293e 90d3 803d 7f48 e93d
00000050: 1833 8cbe 56d5 05bd a552 35be 8bd8 33be
00000060: 24ff eabd c44a ab3d ef34 1a3e 2a47 febd
00000070: a931 39bd 9127 893e 1bac 7d3d faa1 d23c
00000080: e3ff 33bd 1828 1b3d 198d 513e 92be 163e
00000090: dc81 0b3e 17f6 c23d 04fb c43d 15bd 43bd
000000a0: 6f57 1ebe 16b1 68bc 5455 0d3d 373a 1f3e
000000b0: f45b 03be ebd7 133e 13b0 4d3e 56f4 723e
000000c0: c691 d8bd e4b9 d6bd aa18 5c3d b0e1 03bb
000000d0: a50c 74be c5f8 183e 9895 163d 3f4b d5bd
000000e0: fa68 d8bd 122c 63bd c282 12bd 246b e43d
000000f0: f20a 043d 2ff4 44bd 0260 f73d 86e2 8cbd
00000100: 2225 43bd 1f27 f03d 6f8c 84bc f6a4 033e
00000110: 0bd9 613c 2e8d a03d 0c8c 5c3e c164 cdbd
00000120: d5c7 073e 9253 c4be eb35 c63d 7fed d7bd
00000130: 9929 df3c d541 00bd 9d6f 113e cb25 45bd
00000140: 83a3 34be 77d7 efbc 3780 f13d e9fe fb3d
00000150: 083d b3bd 9be7 143d 9565 e5bc bbca af3a
00000160: 7f17 413d 7817 273d ada8 dfbd a246 a6bd
00000170: 7e4a a83c 4b53 393d adab c3bd cf25 473b
00000180: f028 a33d f76b fc3d 9f99 14bd c59d d3bc
00000190: ccf8 913d 7671 f83c 590c edbd fb9e 1d3d
000001a0: 42c3 443d 996b 18be 9b29 563c 5f11 853e
000001b0: 4366 1c3e e265 fcbc 09b3 673e b632 acbb
000001c0: 652f 4dbe 0442 c9bd 57aa 873d 0aaf 403e
000001d0: 738f 0a3d c0b6 30be 5c79 6ebe d444 173e
000001e0: 3649 abbd 952e 243e 673d 1bbe 3dae 75bd
000001f0: f77c 273e 976a 2bbe 48c0 ccbb 530e 093e
00000200: 720c 1ebe 55d0 7a3d 163c 893e de39 39be
00000210: 0caf ed3c 2c61 303e 6224 f0bd 0b9e acbc
00000220: 92f5 febd 7e83 5e3e d024 09ba 869f d7ba
00000230: e492 f9bc 0f47 103e 61c0 66be 7b85 f0bc
00000240: ba88 bf3c c452 41bc 61e7 063d 25e0 8c3c
00000250: d22d e23b cc5f d4bc 82d7 39be e4e0 f63d
00000260: 9263 073e 94d4 27be 9875 c23d 7635 b33d
00000270: 779b eebc db7d 59bc 3e51 353c ffb1 10be
00000280: 5c1b 1f3e 0c61 b2bd 0763 c33d d4cf 3d3c
00000290: 5a37 ddbd 65c7 773d 56cd b43c f79a dabd
000002a0: c8d5 013d 9dc1 773d 8dc9 a13e ab6d bd3c
000002b0: c92b 87bd be81 0c3e 1568 bdbd 73bc c43d
000002c0: 9b25 12be 7865 843e bf6c 9abd 70c0 b1bd
000002d0: d8c7 98bc ab2d c23d 0015 213d 4415 00be
000002e0: e3e9 16be 6688 30bd 18fc 4c3c 82e4 283d
000002f0: 5cb5 8ebd 757b a13d 651a 263e b086 afbd
00000300: 0eb5 a5bd 28c5 4f3e bd46 473d c3be e93d
00000310: 2b59 19be 8fc6 3ebe 826d 013d 9ba0 1cbb
00000320: d201 80bd 5378 063e 80b6 253c ec91 df3c
00000330: 74e8 08be 1072 733c e2b7 cdbc 120c 59be
00000340: 4510 ab3e 8891 5abe f9a5 f8bb 55c3 143e
00000350: 58db 53be 7b57 0e3e 0dac 303c 5850 ac3d
00000360: 28ee b9bd 33ad 0f3d 6b35 8e3d a557 ebbc
00000370: 4104 d7bd b6f8 673a 19c1 8a3c 9789 febd
00000380: f63a 873d 540f f6bc 6fe4 c1bc e16b 68bb
00000390: 1373 97bd 6302 00bd 0771 72bc 822f 243e
000003a0: c940 22bd f094 cf3d ee4b 67bc 7885 503d
000003b0: 7d3c 863d da77 98be 92d7 bc3d b730 463e
000003c0: b379 fabd 82e2 843d 4a54 4a3e 0f15 1abe
000003d0: 8a99 b93e 69a0 eabc be6e 44bc 3467 943d
000003e0: d183 2abe 0ea3 a33d 1f2d 11bd 8293 9abc
000003f0: 7731 8e3d df4c 2d3d 4152 c53c 2925 333d

features.1.weight f4 [32]
0.93319386 0.90476644 0.9921389 0.9484943 0.90137583 0.99966806 0.9815249 0.9558187
1.0491769 0.89789146 1.0008758 0.9725188 1.0104856 0.9657864 0.8990776 0.97608924
0.9258534 1.1289183 0.9756448 0.93699634 0.9598857 0.9890479 1.0167807 0.93550754
0.93974125 0.9824331 1.067756 1.0571833 1.0069815 1.0069054 1.0359882 0.96060765
00000000: cbe5 6e3f c69e 673f d1fc 7d3f 86d0 723f
00000010: 91c0 663f 3fea 7f3f 3745 7b3f 89b0 743f
00000020: 6e4b 863f 37dc 653f b31c 803f fef6 783f
00000030: 9857 813f c73d 773f f329 663f fce0 793f
00000040: ba04 6d3f 6580 903f dcc3 793f fede 6f3f
00000050: 12bb 753f 3e32 7d3f df25 823f 6c7d 6f3f
00000060: e292 703f bc80 7b3f 3bac 883f c851 873f
00000070: c5e4 803f 47e2 803f 439b 843f 62ea 753f

features.1.bias f4 [32]
-0.18382743 -0.16907655 -0.21728635 -0.20645586 -0.23776628 -0.27203473 -0.12973565 -0.22503212
-0.113672286 -0.12013021 -0.13752286 -0.2599398 -0.14068642 -0.14924218 -0.22363037 -0.05608481
-0.17351681 -0.06212527 -0.20729221 -0.124876104 -0.0824912 -0.06543969 -0.057441488 -0.11785329
-0.15429185 -0.34778106 -0.15384386 -0.073371425 -0.25252715 -0.18522479 -0.15827768 -0.11589099
00000000: 423d 3cbe 6722 2dbe 5080 5ebe 2a69 53be
00000010: 0179 73be 2348 8bbe 6cd9 04be d26e 66be
00000020: 04cd e8bd d406 f6bd cbd2 0cbe d416 85be
00000030: 1a10 10be f1d2 18be 5cff 64be 30b9 65bd
00000040: 64ae 31be 1177 7ebd 6944 54be 0bbf ffbd
00000050: 25f1 a8bd 3f05 86bd c447 6bbd 115d f1bd
00000060: affe 1dbe 5c10 b2be 3f89 1dbe c243 96bd
00000070: 3d4b 81be 91ab 3dbe 8b13 22be 4158 edbd

features.1.running_mean f4 [32]
-0.016531283 -0.009507828 -0.008464018 0.00043580047 -0.01332241 -0.0021456943 0.0047596125 0.007425392
0.004027163 0.005793177 0.0023182076 0.039817356 0.0017625748 -0.00075338694 -0.011995953 0.00029591055
-0.017050544 -0.0021306577 0.00857873 -0.0005124942 -0.003957786 0.0015533401 -0.007026224 -0.040453482
-0.004239674 -0.004504621 -0.007037899 -0.0020284608 -0.0011777619 0.01283592 0.001520817 0.018596232
00000000: 9d6c 87bc b9c6 1bbc aaac 0abc 267c e439
00000010: 3d46 5abc c79e 0cbb 86f6 9b3b b450 f33b
00000020: 4bf6 833b b1d4 bd3b 12ed 173b 8617 233d
00000030: 3206 e73a f17e 45ba ac8a 44bc 7124 9b39
00000040: 95ad 8bbc 81a2 0bbb cd8d 0c3c e758 06ba
00000050: 51b0 81bb 7299 cb3a 3d3c e6bb 8db2 25bd
00000060: f7ec 8abb 809b 93bb 2d9e e6bb edef 04bb
00000070: 225f 9aba c04d 523c 2756 c73a 2057 983c

features.1.running_var f4 [32]
0.28703806 0.20832081 0.15636191 0.14389184 0.76022553 0.30364403 0.13675691 0.25192493
0.15997365 0.2869749 0.09596173 0.83943766 0.12386452 0.13949713 0.30299205 0.3215677
0.25064865 0.23128085 0.40591463 0.1393765 0.26024908 0.24717924 0.31261572 1.2877536
0.36976805 0.21361291 0.14980195 0.2833457 0.11707835 0.35127115 0.10760119 0.35440487
00000000: a7f6 923e 0d52 553e 561d 203e 6258 133e
00000010: 249e 423f 3b77 9b3e 010a 0c3e 4efc 803e
00000020: 22d0 233e 60ee 923e 9587 c43d 63e5 563f
00000030: aeac fd3d 56d8 0e3e c621 9b3e 86a4 a43e
00000040: 0555 803e e3d4 6c3e 0bd4 cf3e b7b8 0e3e
00000050: 5e3f 853e 8e1c 7d3e 2b0f a03e 1cd5 a43f
00000060: 3d52 bd3e 58bd 5a3e af65 193e b012 913e
00000070: c6c6 ef3d d0d9 b33e 035e dc3d 8e74 b53e

features.5.weight f4 [64, 32, 3]
-0.14657377 -0.06620384 -0.1328642 -0.14979643 -0.043507587 0.06963595 0.04544625 -0.120249175
-0.040172663 -0.11196159 -0.1529081 0.0030763908 0.06667213 0.11772446 -0.06716401 0.02901744
0.07878964 -0.065197855 0.03400693 0.1216577 -0.009640348 -0.121276155 -0.10769301 -0.035528414
-0.084053874 -0.050316215 0.0776909 0.00079956447 0.06353896 0.10817198 -0.08617564 0.0009774764
0.14782503 0.082269 0.03161207 0.14785492 -0.20259517 -0.23379585 -0.15796545 -0.19999121
-0.025719306 0.02123125 -0.06626231 0.016814455 0.03802429 -0.070779845 -0.044155292 -0.06768019
0.07089275 -0.039991427 -0.107892364 0.010147309 0.023208475 -0.007115378 -0.08403212 -0.11058515
-0.22588512 -0.051039137 0.03595091 0.024600862 0.055404827 0.024118517 -0.04811453 -0.09871975
-0.13596179 0.00092158426 0.049348447 -0.06671158 -0.25463474 0.070725575 -0.018919716 -0.044980846
-0.09028748 0.031988624 0.111111484 0.032355692 -0.016648613 -0.002183462 -0.06308116 0.051393047
-0.13728468 -0.007681365 -0.034205183 -0.011913931 -0.014652228 -0.032026343 -0.039689425 0.013665663
-0.07041475 -0.16594967 0.017531976 0.029634148 0.044841245 0.044477526 -0.09325755 -0.06230634
-0.07506329 0.04758021 -0.010263968 -0.09380267 -0.121481456 -0.10394296 -0.04301882 -0.083225474
0.03794671 -0.03491422 -0.07035287 -0.11913585 -0.08254042 0.038088195 0.085686594 -0.07136139
-0.0052843858 -0.040323526 -0.0017835494 0.06259563 0.06969656 -0.17478746 -0.111332774 0.017702667
-0.029112678 -0.0836752 0.015827069 -0.044777848 0.06401139 0.09375204 0.02480662 0.06293961
-0.0004967396 -0.12428442 -0.115647174 -0.02636532 -0.015487195 -0.059915014 -0.1053656 -0.046168424
-0.1103926 -0.076148026 -0.021294324 -0.011108704 -0.10733236 0.08245532 0.13596386 0.114294246
-0.062750354 0.012771165 -0.020215156 0.09634177 0.05642117 0.032248545 -0.039647646 -0.026713816
0.005732907 -0.21110485 -0.055029813 -0.010520441 -0.09765509 -0.08233093 -0.116003916 0.07490319
0.05237835 0.14172392 0.13409212 0.09271742 0.087056406 -0.19210216 -0.12824571 -0.13184153
0.045769937 -0.10657811 -0.13345405 0.093035065 0.09686828 -0.09926303 -0.047260866 -0.09442156
-0.11757388 0.06815732 0.15079486 0.02156758 0.051736034 -0.0032263973 -0.039447777 0.009760196
0.069345355 -0.009258801 -0.05054025 -0.078138866 0.19814713 -0.047931086 -0.06969176 0.09064818
-0.01112668 0.0461637 -0.09733518 0.09303613 0.086239666 -0.089916945 0.080387086 -0.09242289
0.06596014 -0.17597215 0.015223364 -0.013539766 0.07038825 0.043864682 -0.094494864 0.05651875
-0.11993138 -0.0849365 -0.155393 -0.14833367 -0.12007292 -0.1363591 0.015717076 0.08732205
0.050203618 -0.034876157 0.05361731 0.01934928 0.08917085 0.047181644 -0.13114165 -0.09400728
-0.09694932 -0.07508157 0.081866585 0.22348423 -0.010084503 0.0048654266 0.004912914 0.045627818
-0.0143119395 -0.033781882 -0.018807353 0.03452039 -0.02034798 0.111417785 0.005635709 -0.07239926
-0.11963828 -0.12725176 -0.14252906 -0.0433615 0.039670214 -0.07821132 0.10102948 0.087119706
0.16263826 0.15479252 0.033880524 0.05763025 0.072643735 -0.034513123 0.06164447 -0.1008829
00000000: 6f17 16be e195 87bd 8e0d 08be 3c64 19be
00000010: 0335 32bd 4b9d 8e3d d925 3a3d 3345 f6bd
00000020: 178c 24bd 1e4c e5bd f193 1cbe 469d 493b
00000030: 668b 883d 8619 f13d 498d 89bd fbb5 ed3c
00000040: 765c a13d 7486 85bd da4a 0b3d ac27 f93d
00000050: 8df2 1dbc a25f f8bd 278e dcbd 3e86 11bd
00000060: 7024 acbd 6018 4ebd 681c 9f3d dd99 513a
00000070: b720 823d 4589 dd3d db7c b0bd aa1e 803a
00000080: 725f 173e a67c a83d a87b 013d 4867 173e
00000090: 1c75 4fbe 2e68 6fbe b2c1 21be 7fca 4cbe
000000a0: 4bb1 d2bc 29ed ad3c 89b4 87bd 78be 893c
000000b0: 5cbf 1b3d 06f5 90bd 2edc 34bd e99b 8abd
000000c0: 3830 913d 0dce 23bd acf6 dcbd e640 263c
000000d0: b31f be3c 1e28 e9bb 0819 acbd 787a e2bd
000000e0: 6e4e 67be 6a0e 51bd 4341 133d bf87 c93c
000000f0: 2cf0 623d 3294 c53c be13 45bd 952d cabd
00000100: 9139 0bbe 7996 713a 9921 4a3d 15a0 88bd
00000110: 7c5f 82be 92d8 903d 85fd 9abc d63d 38bd
00000120: a4e8 b8bd 8106 033d 6b8e e33d 6787 043d
00000130: ac62 88bc 6a18 0fbb b230 81bd 8481 523d
00000140: 5b94 0cbe f6b3 fbbb bc1a 0cbd a632 43bc
00000150: e60f 70bc 0e2e 03bd 6191 22bd f2e5 5f3c
00000160: 9c35 90bd b6ee 29be 389f 8f3c 50c3 f23c
00000170: 74ab 373d 112e 363d d0fd bebd ef34 7fbd
00000180: c8ba 99bd 77e3 423d 342a 28bc 9d1b c0bd
00000190: 45cb f8bd 0ce0 d4bd 8134 30bd 1e72 aabd
000001a0: 026e 1b3d 3702 0fbd 2a15 90bd 7ffd f3bd
000001b0: f40a a9bd 5e02 1c3d 747c af3d ec25 92bd
000001c0: a428 adbb 482a 25bd fdc5 e9ba 2332 803d
000001d0: 12bd 8e3d 7cfb 32be 7002 e4bd 2f05 913c
000001e0: b67d eebc e75d abbd c5a7 813c fa68 37bd
000001f0: 6718 833d 1201 c03d 4137 cb3c 7be6 803d
00000200: a137 02ba d488 febd 6dd8 ecbd 15fc d7bc
00000210: 01be 7dbc 7269 75bd ebc9 d7bd 1a1b 3dbd
00000220: 8415 e2bd 7ff3 9bbd 6f71 aebc 4801 36bc
00000230: 12d1 dbbd 56de a83d 1c3a 0b3e 1a13 ea3d
00000240: 4283 80bd 263e 513c 419a a5bc d54e c53d
00000250: e219 673d 0d17 043d 9265 22bd efd6 dabc
00000260: 1cdb bb3b df2b 58be f166 61bd ee5d 2cbc
00000270: 64ff c7bd 1e9d a8bd 7693 edbd d866 993d
00000280: ae8a 563d 1320 113e 724f 093e a1e2 bd3d
00000290: a14a b23d 6eb6 44be d852 03be 7701 07be
000002a0: 4279 3b3d a045 dabd 2ea8 08be 2b89 be3d
000002b0: e062 c63d 6a4a cbbd 9c94 41bd 1760 c1bd
000002c0: 93ca f0bd 1196 8b3d f869 1a3e 7eae b03c
000002d0: 2ae9 533d f771 53bb fe93 21bd 3be9 1f3c
000002e0: f004 8e3d 3ab2 17bc 4b03 4fbd 4507 a0bd
000002f0: 15e7 4a3e 6353 44bd 8eba 8ebd c1a5 b93d
00000300: ae4c 36bc 2616 3d3d ab57 c7bd ba89 be3d
00000310: 6c9e b03d 6026 b8bd fca1 a43d 3648 bdbd
00000320: 1c16 873d 0b32 34be 6b6b 793c e5d5 5dbc
00000330: b727 903d 74ab 333d 8686 c1bd 3480 673d
00000340: 959e f5bd 30f3 adbd 581f 1fbe c8e4 17be
00000350: cbe8 f5bd b8a1 0bbe 19c1 803c e7d5 b23d
00000360: 4fa2 4d3d 4dda 0ebd d39d 5b3d 6282 9e3c
00000370: 359f b63d 8a41 413d ff49 06be e486 c0bd
00000380: 5d8d c6bd 5ec4 99bd aba9 a73d 0dd9 643e
00000390: 7939 25bc 286e 9f3b 82fc a03b 3ce4 3a3d
000003a0: a07c 6abc df5e 0abd e111 9abc 4165 0d3d
000003b0: cfb0 a6bc 022f e43d c1ab b83b 1046 94bd
000003c0: ea04 f5bd 494e 02be 23f3 11be d49b 31bd
000003d0: 3c7d 223d 422d a0bd 8be8 ce3d d16b b23d
000003e0: a58a 263e ee81 1e3e 4ec6 0a3d b20d 6c3d
000003f0: 3dc6 943d a25d 0dbd e97e 7c3d b29b cebd

features.6.weight f4 [64]
0.9429194 0.9889014 0.95868963 0.9027461 0.99192786 1.0266689 0.9363873 1.0583148
0.9417385 0.9620225 1.005526 0.8889353 0.92961025 0.85316426 0.9979684 0.9489908
0.96646494 0.9621235 0.95242953 0.9142395 1.0005877 0.9996679 0.98678046 1.0731133
0.9671321 1.0495287 0.9488401 0.94410455 1.0528558 0.92217237 1.0027727 1.0360682
1.0303239 1.0112851 1.0401688 0.9862445 0.9863167 0.9802348 0.99693936 0.939327
0.85300326 0.99753606 0.9928225 1.0305283 0.8449935 0.91520226 0.92547303 0.8872546
0.91126066 0.99964476 1.0370506 0.9999135 1.0363014 0.9775921 0.9982151 1.0395306
0.9986844 0.9523942 0.90952855 0.93545735 0.88507444 0.9918703 0.8729985 0.9076225
00000000: 2a63 713f a428 7d3f af6c 753f 5e1a 673f
00000010: fcee 7d3f e369 833f 14b7 6f3f dc76 873f
00000020: c615 713f 1b47 763f 13b5 803f 4491 633f
00000030: f0fa 6d3f f968 5a3f db7a 7f3f 10f1 723f
00000040: 3f6a 773f ba4d 763f 6cd2 733f 9a0b 6a3f
00000050: 4213 803f 3cea 7f3f a59d 7c3f c75b 893f
00000060: f895 773f f556 863f 2fe7 723f d6b0 713f
00000070: fbc3 863f 7d13 6c3f db5a 803f e29d 843f
00000080: a7e1 833f ca71 813f 4024 853f 857a 7c3f
00000090: 407f 7c3f abf0 7a3f 6b37 7f3f bc77 703f
000000a0: 6c5e 5a3f 865e 7f3f 9e29 7e3f 5ae8 833f
000000b0: 7e51 583f b24a 6a3f cdeb 6c3f 1e23 633f
000000c0: 6148 693f b8e8 7f3f 13be 843f 55fa 7f3f
000000d0: 86a5 843f 7a43 7a3f 068b 7f3f 570f 853f
000000e0: c8a9 7f3f 1bd0 733f ddd6 683f 227a 6f3f
000000f0: 3d94 623f 36eb 7d3f d47c 5f3f f359 683f

features.6.bias f4 [64]
-0.27442122 -0.17299536 -0.059256595 -0.14291142 -0.19574927 -0.11135776 -0.18571487 -0.1313887
-0.094703674 -0.10883557 -0.06858408 -0.32558286 -0.18131585 -0.18316098 -0.16456991 -0.20726927
-0.1699193 -0.17072715 -0.07229289 -0.13151178 -0.031762455 -0.22084324 -0.16789302 0.056752935
-0.21420811 -0.2654099 -0.12554312 -0.18320155 -0.08399832 -0.2724911 -0.20606498 0.0022786593
-0.15984194 -0.21201438 -0.337821 -0.27128065 -0.18442073 -0.1870696 -0.153232 -0.28050762
-0.12880316 -0.2033867 -0.09924904 -0.0524686 -0.079392105 -0.16142389 -0.17363751 -0.26613364
-0.15720387 -0.035186835 -0.19914068 -0.14933029 -0.250855 -0.17127936 -0.18469778 0.029822262
-0.11096875 -0.2015649 -0.19987895 -0.22013587 -0.3235232 -0.15735002 -0.23568206 -0.1579788
00000000: f080 8cbe b225 31be 0bb7 72bd 5f57 12be
00000010: 7f72 48be 8a0f e4bd 0a2c 3ebe c28a 06be
00000020: 00f4 c1bd 2fe5 debd cf75 8cbd ccb2 a6be
00000030: ddaa 39be 8d8e 3bbe 0485 28be 653e 54be
00000040: 53ff 2dbe 19d3 2ebe 4b0e 94bd 06ab 06be
00000050: 5919 02bd bb24 62be 26ec 2bbe c475 683d
00000060: 5f59 5bbe cee3 87be 608e 00be 3099 3bbe
00000070: 5007 acbd f483 8bbe b302 53be 8f55 153b
00000080: 9bad 23be 4c1a 59be e0f6 acbe 4ce5 8abe
00000090: cad8 3cbe 2c8f 3fbe d9e8 1cbe b29e 8fbe
000000a0: fae4 03be 9a44 50be 1543 cbbd 51e9 56bd
000000b0: 5498 a2bd 4e4c 25be 08ce 31be ab42 88be
000000c0: 0dfa 20be 1220 10bd 89eb 4bbe 0aea 18be
000000d0: 1170 80be db63 2fbe 6a21 3dbe d14d f43c
000000e0: 9643 e3bd 0767 4ebe 11ad 4cbe 4c6b 61be
000000f0: d5a4 a5be 5d20 21be a356 71be 32c5 21be

features.6.running_mean f4 [64]
-1.2025943 -0.61745834 -0.6285374 -0.81615776 -0.50062066 -0.54948753 -0.6594996 -0.4589305
-0.82783294 -0.65322405 -1.1473584 -0.6408627 -0.6409261 0.07209443 0.31878594 0.027224084
-0.5663464 -0.7370717 1.101186 -0.54167795 -0.5217638 -0.6290997 -0.6779159 -0.5861104
-0.6737577 -0.43966278 -1.102136 -0.91509175 -0.7383422 -0.8438835 -0.56111705 -0.81788945
-0.5524236 -0.7360529 -1.4173242 -0.94590974 -0.286494 -0.6121008 -0.9339353 -0.8841885
-0.8348013 -0.59377986 -0.8778921 -0.4787141 -0.655566 -0.5331373 -0.6925755 -0.79320145
-1.1662583 -1.1492897 -0.59542054 -0.7056166 -0.9654608 -0.9096226 -0.88498884 -0.71709573
0.40960795 -0.67244834 -0.70035774 -0.8671361 -0.989453 -0.5586105 -0.7613884 -0.8279176
00000000: 9cee 99bf c011 1ebf d4e7 20bf b7ef 50bf
00000010: ad28 00bf 37ab 0cbf f7d4 28bf f0f8 eabe
00000020: dcec 53bf b139 27bf a4dc 92bf 940f 24bf
00000030: bc13 24bf 3fa6 933d e937 a33e 0b05 df3c
00000040: 14fc 10bf bbb0 3cbf aaf3 8c3f 68ab 0abf
00000050: 5092 05bf ae0c 21bf e58b 2dbf 550b 16bf
00000060: 627b 2cbf 7b1b e1be cb12 8dbf 7443 6abf
00000070: ff03 3dbf c008 58bf 5ea5 0fbf 3461 51bf
00000080: a26b 0dbf f66d 3cbf e16a b5bf 2427 72bf
00000090: 57af 92be a3b2 1cbf 6216 6fbf 2d5a 62bf
000000a0: 8ab5 55bf f501 18bf 89bd 60bf 041a f5be
000000b0: 2cd3 27bf b07b 08bf a14c 31bf 400f 4bbf
000000c0: f447 95bf ed1b 93bf 7b6d 18bf 4aa3 34bf
000000d0: 7028 77bf 07dd 68bf a18e 62bf 9693 37bf
000000e0: 22b8 d13e 9325 2cbf a54a 33bf a2fc 5dbf
000000f0: cb4c 7dbf 1901 0fbf 5aea 42bf 68f2 53bf

features.6.running_var f4 [64]
1.3850793 0.8457916 1.1929468 1.1673279 0.7438936 0.7688347 0.95677996 0.90609324
0.9948875 0.87066776 1.0440495 0.70226055 0.70192474 0.82556975 1.0433064 0.98996526
1.0101113 0.721765 1.2419548 0.7083051 0.6987812 0.71191365 0.8362354 1.0275424
0.88598174 0.7320405 1.4691762 1.257486 1.095773 0.9304879 0.75710666 1.2985506
0.99629825 0.8973242 1.9775392 0.9751999 0.8839069 0.6021757 1.3130497 0.931501
1.0322366 0.60921127 1.1870135 1.1029088 0.73621804 0.81435186 1.0841801 1.223292
1.4882817 1.084249 0.76580554 0.83886653 1.246634 1.2927736 1.02475 1.1891325
0.5657436 0.9649335 0.7906444 1.1416798 1.1519573 0.8379022 0.8752414 0.99423146
00000000: 474a b13f cc85 583f 7bb2 983f 006b 953f
00000010: d06f 3e3f 5ad2 443f 88ef 743f baf5 673f
00000020: f2b0 7e3f 15e4 5e3f 6aa3 853f 59c7 333f
00000030: 57b1 333f 8a58 533f 108b 853f 5d6e 7d3f
00000040: 544b 813f 97c5 383f 60f8 9e3f 7c53 353f
00000050: 53e3 323f f93f 363f 8613 563f 8286 833f
00000060: b3cf 623f 0267 3b3f f70d bc3f 4df5 a03f
00000070: 4a42 8c3f 7434 6e3f bed1 413f e836 a63f
00000080: 670d 7f3f 0ab7 653f 0120 fd3f b3a6 793f
00000090: b947 623f 3028 1a3f 0312 a83f d976 6e3f
000000a0: 5420 843f 45f5 1b3f 0ff0 973f 1e2c 8d3f
000000b0: c978 3c3f 5d79 503f 6ac6 8a3f d594 9c3f
000000c0: 0480 be3f acc8 8a3f d50b 443f f5bf 563f
000000d0: b491 9f3f 9b79 a53f 022b 833f 7e35 983f
000000e0: 93d4 103f e205 773f ac67 4a3f 9022 923f
000000f0: 5673 933f c280 563f d20f 603f f485 7e3f

features.10.weight f4 [128, 64, 3]
0.041522957 -0.0027258757 -0.030554513 0.03036409 0.030420259 -0.051291462 -0.031917706 0.017847566
0.021819506 -0.021206187 -0.084215716 0.031133138 0.025448387 -0.0021904614 -0.03440984 0.052323554
0.048223935 -0.011763554 0.023362627 0.05475123 0.030614292 0.14588316 0.11952184 0.1583551
-0.035062093 0.039216124 -0.08273212 -0.017500212 0.0044944254 -0.086728804 0.14783867 0.09882665
0.15097871 0.039361868 0.033371177 0.01930354 0.07137972 0.12496946 0.00458544 0.0052693295
-0.0762016 -0.14927085 -0.10105411 -0.1353219 -0.114727885 -0.094357364 -0.00529667 0.017474094
-0.041098952 0.015042832 -0.03550587 -0.026426882 -0.033628117 -0.013261533 -0.1233303 -0.12047131
-0.1377961 -0.035288118 -0.001020633 0.03723635 -0.011216454 -0.06702858 -0.041869156 0.11376997
0.15012011 0.16118827 0.048348613 0.11769541 0.11842208 -0.012557842 -0.013640975 -0.031463325
0.024714991 -0.039016 -0.06968564 0.09913057 0.04578668 0.16122727 0.06482461 0.0067578545
0.032624707 -0.09123203 -0.040700085 -0.12240604 0.014908961 0.019139875 0.025510365 0.045801215
0.10650747 0.10285718 0.0582318 0.047932006 0.03272392 -0.01726994 0.0025724338 -0.03387069
-0.0578274 -0.04219399 0.053171642 0.027861942 -0.029086335 -0.02995369 -0.032507658 -0.045492873
-0.09909962 0.12307056 0.07102972 0.06979505 -0.013922602 -0.0011391933 0.0035225067 -0.044235453
-0.041575268 0.004195405 0.06995568 0.028287131 0.058729246 0.020900708 0.0709184 -0.01453773
0.047885206 0.09090773 0.102911025 0.13885789 0.13692112 0.17339501 -0.027323045 -0.03773252
-0.007815633 -0.06680116 -0.0981295 -0.069394805 0.013002579 -0.009079594 0.020334927 -0.037506834
-0.009248328 -0.03237367 0.041577842 0.04176883 0.035669073 -0.029000161 -0.09989157 0.082864136
0.07935817 0.090781555 0.053674754 0.08283763 0.13084382 0.07039065 0.107719995 0.09603729
0.03740521 -0.06813616 -0.05970853 -0.117813945 0.02213355 0.0021611024 -0.06322233 0.110527314
0.09648043 0.14110337 -0.13122003 -0.08526123 0.017778017 0.0003952279 0.031662818 -0.038771696
0.03255868 0.13475475 0.033366285 -0.05374416 -0.09004098 -0.03199238 -0.09577139 -0.07070114
0.044439014 -0.058357183 -0.020422623 -0.012306953 0.031539824 0.11775841 0.0733204 -0.027359873
0.053256348 -0.03443135 -0.0057990863 0.016434766 0.0740195 0.008310648 0.015325713 0.06684982
0.07338843 0.0655461 0.09908978 -0.026559945 0.025922023 -0.11455341 -0.051511496 -0.03265752
-0.16010484 -0.016369678 0.028416993 0.09300991 0.0470181 -0.011783632 -0.07392571 0.016043264
-0.18020229 -0.1251757 -0.1434633 -0.18045865 -0.12588786 0.009810562 -0.031420346 -0.048600506
0.042074792 0.022622706 0.04397824 -0.1098957 -0.044516224 0.031457167 -0.11819285 -0.1158908
-0.087559894 -0.07128556 -0.100988954 -0.13495633 0.04424076 -0.060027555 -0.09499017 0.009865785
-0.029830825 -0.015793458 -0.14121214 -0.17057858 -0.18925285 -0.029527163 -0.06826699 -0.05457802
-0.11521324 -0.1458263 -0.13834397 -0.16567825 -0.117513716 -0.0019509243 -0.07080047 -0.08099888
-0.077413835 -0.025286734 -0.050642326 0.06391064 -0.07332293 -0.09143369 -0.053040046 0.060047634
00000000: fa13 2a3d 9ba4 32bb 754d fabc 1dbe f83c
00000010: e833 f93c ff16 52bd 24bc 02bd 0f35 923c
00000020: d2be b23c 99b8 adbc 4a79 acbd ec0a ff3c
00000030: 2379 d03c d88d 0fbb 55f1 0cbd 3951 563d
00000040: 7686 453d ecbb 40bc fb62 bf3c d342 603d
00000050: d3ca fa3c 6562 153e dec7 f43d d727 223e
00000060: 459d 0fbd 16a1 203d 756f a9bd 9b5c 8fbc
00000070: f945 933b df9e b1bd 0563 173e a065 ca3d
00000080: 2a9a 1a3e e939 213d 37b0 083d 7522 9e3c
00000090: 882f 923d fdef ff3d 7541 963b 57aa ac3b
000000a0: 960f 9cbd 75da 18be 75f5 cebd d391 0abe
000000b0: 74f6 eabd 6f3e c1bd b08f adbb d525 8f3c
000000c0: 6057 28bd 3676 763c 9a6e 11bd 307d d8bc
000000d0: a3bd 09bd e746 59bc 9994 fcbd aab9 f6bd
000000e0: 6c1a 0dbe 468a 10bd c3c6 85ba 2585 183d
000000f0: 38c5 37bc 4846 89bd fe7e 2bbd 3b00 e93d
00000100: 16b9 193e 8a0e 253e 3209 463d 4b0a f13d
00000110: 4787 f23d 68bf 4dbc 657e 5fbc b0df 00bd
00000120: 1877 ca3c 3ecf 1fbd 58b7 8ebd f804 cb3d
00000130: d08a 3b3d c318 253e c4c2 843d fe70 dd3b
00000140: 7ca1 053d dcd7 babd 22b5 26bd 05b0 fabd
00000150: b744 743c 3acb 9c3c 1dfb d03c 0e9a 3b3d
00000160: 9720 da3d c9a6 d23d 7884 6e3d 5a54 443d
00000170: 8409 063d b079 8dbc 4796 283b febb 0abd
00000180: 6cdc 6cbd 9bd3 2cbd 82ca 593d ba3e e43c
00000190: 7746 eebc 7161 f5bc c026 05bd bc56 3abd
000001a0: bef4 cabd 6b0c fc3d 0878 913d b5f0 8e3d
000001b0: a01b 64bc fc50 95ba dbd9 663b 3c30 35bd
000001c0: d44a 2abd 9c79 893b ec44 8f3d 6aba e73c
000001d0: 148e 703d f637 ab3c ab3d 913d a92f 6ebc
000001e0: 4723 443d d52d ba3d 04c3 d23d c330 0e3e
000001f0: 0d35 0c3e 768e 313e 94d4 dfbc 6a8d 1abd
00000200: 240d 00bc 0ccf 88bd 1ff8 c8bd dd1e 8ebd
00000210: c508 553c 94c2 14bc 6f95 a63c c4a0 19bd
00000220: 4d86 17bc 419a 04bd 874d 2a3d cb15 2b3d
00000230: bc19 123d bf91 edbc f493 ccbd acb4 a93d
00000240: 8986 a23d aeeb b93d 0fda 5b3d c6a6 a93d
00000250: ecfb 053e f928 903d 4d9c dc3d 33af c43d
00000260: 3536 193d f98a 8bbd ee90 74bd 7048 f1bd
00000270: 6b51 b53c 48a1 0d3b b57a 81bd 255c e23d
00000280: 8897 c53d 677d 103e 8b5e 06be 719d aebd
00000290: 34a3 913c 9736 cf39 dfb0 013d 12cf 1ebd
000002a0: 405c 053d 26fd 093e 16ab 083d d622 5cbd
000002b0: 6867 b8bd 710a 03bd ca23 c4bd c2cb 90bd
000002c0: af05 363d f107 6fbd 584d a7bc 1aa3 49bc
000002d0: e72f 013d 522b f13d 0229 963d d021 e0bc
000002e0: 5423 5a3d e307 0dbd 4306 bebb 34a2 863c
000002f0: 8997 973d 6229 083c b318 7b3c 8fe8 883d
00000300: ac4c 963d 093d 863d 95ef ca3d 3e94 d9bc
00000310: 6c5a d43c fa9a eabd b8fd 52bd e4c3 05bd
00000320: 86f2 23be b419 86bc c1ca e83c fb7b be3d
00000330: 0d96 403d 2310 41bc 5d66 97bd 2a6d 833c
00000340: f386 38be 0f2e 00be 0be8 12be 27ca 38be
00000350: bfe8 00be 7bbc 203c 9fb2 00bd 5311 47bd
00000360: 9e56 2c3d 4153 b93c 8722 343d ff10 e1bd
00000370: a556 36bd 3bd9 003d 180f f2bd 2858 edbd
00000380: 9a52 b3bd 2afe 91bd 4cd3 cebd fe31 0abe
00000390: cd35 353d 74df 75bd 358a c2bd 1aa4 213c
000003a0: c65f f4bc 4861 81bc ea99 10be 27ac 2ebe
000003b0: 80cb 41be f3e2 f1bc 90cf 8bbd 348d 5fbd
000003c0: ebf4 ebbd 7d53 15be 0baa 0dbe 8fa7 29be
000003d0: 08ab f0bd 28b6 ffba d6ff 90bd bee2 a5bd
000003e0: 258b 9ebd 2026 cfbc 546e 4fbd 95e3 823d
000003f0: 552a 96bd 9641 bbbd 8540 59bd 82f4 753d

features.11.weight f4 [128]
1.0070096 1.0538881 1.0747015 1.0764514 1.0939597 1.026362 1.0492128 1.0516632
1.0423119 1.0939894 1.001522 1.0219126 1.0843366 1.0392299 1.0369949 1.0487238
1.03383 1.0680653 1.0708936 0.961579 1.0709839 1.0337453 1.1675708 1.004607
1.0886544 1.0052797 1.0658469 1.0492121 1.0403417 1.0505059 1.0767075 1.0330614
1.0332954 1.0491942 1.0565425 1.0839186 1.0597752 1.0375549 1.0531346 1.0434352
1.0722826 1.1130178 1.0272723 1.0535711 1.0493871 1.0462661 1.0778356 1.0752916
1.0031551 1.1013716 1.0330269 1.0683353 1.0429262 1.0390693 1.0101455 1.0781876
1.0752746 1.0745777 1.0357392 1.0962954 1.0354924 1.0297604 1.06646 1.0760804
1.0425566 1.00725 1.016366 1.0174402 1.0427998 1.0509531 1.0474622 1.0397788
1.0377342 1.0405067 1.0004916 1.0335717 1.0945393 1.0273502 1.0378271 1.0469394
1.0778744 1.063488 1.0398895 1.1056684 1.0955095 1.0299642 1.066867 1.0462567
1.0609857 1.0382773 1.0288416 1.0726799 1.0157036 0.99954176 1.0578686 1.0320221
1.055964 1.0317804 1.0344722 1.0516543 1.0760255 1.0313511 1.0479033 0.9939583
1.0652543 1.0574524 1.0526123 0.99009293 1.0705214 1.0930346 1.0494118 1.0083607
1.0360734 1.018231 1.0578521 1.0252031 1.0588765 1.0968072 1.0688494 1.0736673
1.0477512 1.0347779 1.0012556 1.101783 1.103721 1.0153302 1.0243407 0.9723311
00000000: b1e5 803f cee5 863f d28f 893f 29c9 893f
00000010: df06 8c3f d45f 833f 9b4c 863f e69c 863f
00000020: 7a6a 853f d807 8c3f df31 803f 08ce 823f
00000030: 8bcb 8a3f 7c05 853f 40bc 843f 953c 863f
00000040: 8b54 843f 5db6 883f 0b13 893f 0b2a 763f
00000050: 0016 893f c451 843f f672 953f f696 803f
00000060: 0759 8b3f 01ad 803f ac6d 883f 954c 863f
00000070: eb29 853f fa76 863f 8dd1 893f 5b3b 843f
00000080: 0643 843f ff4b 863f c93c 873f d8bd 8a3f
00000090: b7a6 873f 99ce 843f 1dcd 863f 498f 853f
000000a0: 8e40 893f 5e77 8e3f a97d 833f 6bdb 863f
000000b0: 5152 863f 0cec 853f 84f6 893f 28a3 893f
000000c0: 6367 803f bff9 8c3f 3a3a 843f 36bf 883f
000000d0: 9b7e 853f 3900 853f 734c 813f 0d02 8a3f
000000e0: 99a2 893f c38b 893f 1a93 843f 6853 8c3f
000000f0: 048b 843f 30cf 833f c381 883f 01bd 893f
00000100: 7f72 853f 91ed 803f 4818 823f 7b3b 823f
00000110: 777a 853f a285 863f 3e13 863f 7917 853f
00000120: 79d4 843f 532f 853f 1c10 803f 144c 843f
00000130: dd19 8c3f 3680 833f 85d7 843f 1c02 863f
00000140: caf7 893f 6020 883f 191b 853f 8b86 8d3f
00000150: a839 8c3f ded5 833f 198f 883f bdeb 853f
00000160: 61ce 873f 45e6 843f 15b1 833f 934d 893f
00000170: 9302 823f f8e1 7f3f 3d68 873f 4d19 843f
00000180: d429 873f 6111 843f 9669 843f 9c9c 863f
00000190: 34bb 893f 5003 843f b221 863f 0d74 7e3f
000001a0: 415a 883f 9a5a 873f 00bc 863f bb76 7d3f
000001b0: d806 893f 8fe8 8b3f 2053 863f f711 813f
000001c0: 0e9e 843f 6555 823f b367 873f db39 833f
000001d0: 4489 873f 2e64 8c3f 0fd0 883f ee6d 893f
000001e0: b61c 863f 9a73 843f 2529 803f 3a07 8d3f
000001f0: bb46 8d3f 57f6 813f 991d 833f b1ea 783f

features.11.bias f4 [128]
-0.119811386 -0.05689419 -0.0033785657 0.037867133 -0.038867373 0.0047752378 -0.025512414 -0.07445383
-0.018855264 0.031140955 -0.07233705 -0.055054333 -0.04148434 -0.06440624 -0.026434476 -0.051936287
-0.023254128 0.029694924 -0.04284197 -0.09056758 -0.014261642 -0.055363115 -0.08603237 -0.017299365
-0.06015519 -0.06791462 -0.062054664 0.009020181 -0.0927807 -0.120911 -0.055100903 -0.00768006
-0.08537347 0.0126097975 -0.023400418 0.017385256 -0.046456214 -0.020348225 0.01792383 -0.073553205
0.019722303 0.018506669 -0.058159545 -0.031156937 -0.019511182 -0.059884764 0.025254523 -0.058011778
-0.05411635 -0.01686979 -0.08433553 -0.012618912 -0.040750433 -0.039297186 -0.06859468 0.019216688
0.05338072 -0.04811648 -0.05942049 0.032461114 -0.06241222 -0.0756702 -0.04211819 -0.016756305
-0.022141078 -0.006466132 -0.027826184 0.013710254 0.00286605 -0.02719262 -0.021623956 -0.0140611045
-0.062055893 -0.0076951147 0.03153729 -0.0838586 -0.058816385 -0.010772217 -0.030344037 -0.020014476
-0.042010054 -0.0108733 -0.10093892 -0.008902403 0.042593565 -0.02298542 0.027210971 -0.059770234
0.010099456 -0.103782974 -0.049001735 0.011293298 -0.091008246 -0.05969096 0.04885515 -0.03147279
-0.027730828 -0.0073272805 0.0047656023 -0.022080269 0.006359508 -0.038660664 -0.06344165 -0.114043996
-0.023174608 -0.08155732 -0.004731176 -0.07436667 -0.0009413768 0.04306575 0.01976315 -0.07252889
-0.030561997 -0.101550534 -0.046082377 0.010906312 0.0036382014 0.022309713 0.009911072 -0.074553736
0.013406325 -0.04058663 -0.014955951 -0.015348951 0.0017096646 -0.03006203 -0.05302697 -0.14920372
00000000: ac5f f5bd e209 69bd ed6a 5dbb 911a 1b3d
00000010: 6533 1fbd 9979 9c3b 69ff d0bc 407b 98bd
00000020: 5b76 9abc 511b ff3c 7325 94bd a780 61bd
00000030: 7ceb 29bd 6be7 83bd 1d8d d8bc 25bb 54bd
00000040: 717f bebc c542 f33c 107b 2fbd 7f7b b9bd
00000050: a9a9 69bc 6fc4 62bd bd31 b0bd 66b7 8dbc
00000060: 4a65 76bd d216 8bbd 082d 7ebd 62c9 133c
00000070: cf03 bebd 30a0 f7bd 7cb1 61bd 03a9 fbbb
00000080: 49d8 aebd 5399 4e3c 3cb2 bfbc 866b 8e3c
00000090: df48 3ebd 52b1 a6bc ffd4 923c 10a3 96bd
000000a0: ab90 a13c 4c9b 973c b438 6ebd d53c ffbc
000000b0: ead5 9fbc ba49 75bd 93e2 ce3c c29d 6dbd
000000c0: 1ba9 5dbd 8432 8abc 1bb8 acbd 8ebf 4ebc
000000d0: ede9 26bd 16f6 20bd 5e7b 8cbd 516c 9d3c
000000e0: bea5 5a3d c915 45bd e662 73bd f2f5 043d
000000f0: f5a3 7fbd faf8 9abd 2084 2cbd 8544 89bc
00000100: 3561 b5bc d9e1 d3bb bdf3 e3bc f9a0 603c
00000110: 57d4 3b3b 0fc3 debc b924 b1bc 8c60 66bc
00000120: 522e 7ebd 4d27 fcbb 3f2d 013d 0fbe abbd
00000130: 73e9 70bd f47d 30bc 0f94 f8bc 66f5 a3bc
00000140: bc12 2cbd ed25 32bc 11b9 cebd 62db 11bc
00000150: 9776 2e3d eb4b bcbc 8be9 de3c a2d1 74bd
00000160: 3078 253c 2b8c d4bd 0bb6 48bd 8607 393c
00000170: 8862 babd 827e 74bd 561c 483d 9de9 00bd
00000180: c32b e3bc af19 f0bb c528 9c3b aee1 b4bc
00000190: 6b63 d03b a55a 1ebd b2ed 81bd e68f e9bd
000001a0: add8 bdbc 8607 a7bd fb07 9bbb 8d4d 98bd
000001b0: bac6 76ba b665 303d 54e6 a13c 078a 94bd
000001c0: 275d fabc baf9 cfbd e0c0 3cbd 63b0 323c
000001d0: e46e 6e3b dcc2 b63c 0d62 223c a1af 98bd
000001e0: 34a6 5b3c 2b3e 26bd ce09 75bc 2b7a 7bbc
000001f0: d316 e03a a544 f6bc cf32 59bd dcc8 18be

features.11.running_mean f4 [128]
0.82966554 -1.8914614 -2.4640994 -2.0705492 -2.6574252 -2.3056905 -2.1410491 -2.3582578
-1.4066935 -1.3177589 -1.8704928 -0.6043758 -2.7226722 -2.4400735 -1.2128168 -2.2531383
-0.729718 -0.71291566 -2.1078167 -1.5347184 -2.7197528 -0.26297918 1.1448554 -0.857855
-2.7662067 -1.6114838 -0.5045159 -1.4202961 -0.010687463 0.11690833 0.2306814 -1.263339
-2.4633157 -1.7488092 -1.4631861 -2.2821302 -2.2264802 0.6082393 -2.9356542 -1.5500375
-2.6958802 -1.5280244 0.8729738 -0.62324476 -0.9862878 -2.5360587 0.81045955 -1.8359135
-1.9609201 -2.0177176 -1.6376408 -1.7959756 -1.7611924 -2.661792 -2.0903354 -2.2691064
-1.745401 -1.8214312 -1.5945398 -2.1261475 -2.3403988 -0.79871136 -1.5901593 -2.58743
-1.3367742 -1.6772841 -2.0261552 -2.217623 -2.7159636 -2.0695636 -1.857963 -2.0414653
0.717628 0.72261053 -1.3597571 1.0568671 -1.1752162 -2.544432 -2.6800425 -0.6606411
-0.6235888 -2.5171285 -2.1002896 -2.2622125 -2.9060898 -1.6038476 -1.8775591 -2.3703356
-2.4927676 -2.2574916 -1.9279953 -2.5372105 -1.8803388 -0.39819047 -2.9794724 -1.9204956
-1.146065 -0.5176311 -1.0682012 -2.2933228 -1.944708 -0.38898194 -2.0378478 0.22841612
-2.3367336 -1.9087694 -0.7172787 -2.1367047 -1.264485 -1.3099759 -0.7352155 -0.14760347
0.0014565267 -0.93717027 -2.3731985 -2.2564306 -2.5929573 -1.8540859 -2.8713892 0.6045144
-1.4781704 -1.851091 -0.5224482 -2.6127381 0.07773408 -2.287476 0.0033323392 -1.3881766
00000000: f664 543f 681b f2bf ceb3 1dc0 e183 04c0
00000010: 4113 2ac0 6f90 13c0 f306 09c0 b2ed 16c0
00000020: 880e b4bf 53ac a8bf 4f6c efbf 5fb8 1abf
00000030: 4340 2ec0 2a2a 1cc0 953d 9bbf 6b33 10c0
00000040: cdce 3abf a481 36bf 78e6 06c0 a771 c4bf
00000050: 6e10 2ec0 35a5 86be 9f8a 923f 639c 5bbf
00000060: 8809 31c0 1a45 cebf f427 01bf 43cc b5bf
00000070: 781a 2fbc a26d ef3d bf37 6c3e 18b5 a1bf
00000080: f7a6 1dc0 fbd8 dfbf af49 bbbf 6c0e 12c0
00000090: a77e 0ec0 92b5 1b3f c2e1 3bc0 a167 c6bf
000000a0: 4d89 2cc0 4e96 c3bf 367b 5f3f f88c 1fbf
000000b0: 5b7d 7cbf c94e 22c0 477a 4f3f 37ff eabf
000000c0: 6eff fabf 4922 01c0 379e d1bf 87e2 e5bf
000000d0: c16e e1bf cd5a 2ac0 0ec8 05c0 0a39 11c0
000000e0: 4d69 dfbf a824 e9bf e119 ccbf cd12 08c0
000000f0: 18c9 15c0 5978 4cbf 578a cbbf 7498 25c0
00000100: 6b1b abbf 3fb1 d6bf 87ac 01c0 89ed 0dc0
00000110: 59d2 2dc0 bb73 04c0 bbd1 edbf 5ea7 02c0
00000120: 78b6 373f 01fd 383f 850c aebf 6c47 873f
00000130: 7c6d 96bf f9d7 22c0 d185 2bc0 c61f 29bf
00000140: 84a3 1fbf a218 21c0 256b 06c0 17c8 10c0
00000150: 60fd 39c0 e14a cdbf db53 f0bf 94b3 17c0
00000160: 8189 1fc0 be7a 10c0 8dc8 f6bf a861 22c0
00000170: f1ae f0bf 9fdf cbbe adaf 3ec0 cdd2 f5bf
00000180: 42b2 92bf 7983 04bf d1ba 88bf cdc5 12c0
00000190: 31ec f8bf a428 c7be 196c 02c0 eae5 693e
000001a0: 0b8d 15c0 8e52 f4bf 949f 37bf c5bf 08c0
000001b0: a5da a1bf 4aad a7bf 1537 3cbf 5d25 17be
000001c0: ede8 be3a 64ea 6fbf 7ce2 17c0 5c69 10c0
000001d0: 03f3 25c0 b052 edbf d7c4 37c0 75c1 1a3f
000001e0: b034 bdbf 8df0 ecbf 2abf 05bf 1a37 27c0
000001f0: 0c33 9f3d 0266 12c0 6063 5a3b c5af b1bf

features.11.running_var f4 [128]
1.2164993 1.809784 1.6172688 1.7449218 1.2846237 2.14975 1.4306135 1.5867748
1.7140865 1.6162255 1.0607054 2.0445924 1.3401877 1.3461521 2.1048958 1.9582791
1.5905809 1.5881566 1.3281015 0.89035296 1.7199383 1.7224069 2.2337565 1.4941744
1.3845643 1.0793436 1.4871986 1.5247569 1.2189637 1.4282225 1.6674911 1.703333
1.3939288 2.6831985 1.4450797 1.7614323 1.4363528 1.7712917 1.5720581 1.3532064
1.5851611 1.5663232 1.1094432 1.4484302 1.9279842 1.275704 1.0445287 1.2510562
1.1478152 1.1015418 1.4682256 1.0339965 2.1997516 1.4348669 1.1370176 1.2132046
2.8164399 1.3059434 1.3537055 2.2245593 1.3248916 1.2239397 2.3065808 1.4235389
1.3455747 1.3306485 1.7112508 1.5823677 1.4528589 2.2352479 0.9802768 1.2512419
1.1118183 1.2447137 1.7264555 1.9790702 1.293652 1.64463 1.7360752 1.4565132
1.3958969 2.0648167 1.5291618 1.6377966 1.6661661 1.680765 0.88612545 1.4705207
1.4661323 1.4738127 1.369579 1.2699363 1.379684 1.3226409 2.757959 1.1971893
1.6422309 1.5649968 1.7893077 1.3347658 1.2402823 1.2865263 1.4684623 1.1160994
1.566275 1.3746784 2.0534654 0.9649255 1.4690518 1.9365438 1.830455 1.0582318
1.5993439 1.6554674 1.0960839 2.3484445 1.5212567 1.1593959 1.8289579 1.6164715
2.1238666 1.7967836 1.9166486 1.1651577 1.074203 1.5742477 1.6855899 0.90189517
00000000: 40b6 9b3f 01a7 e73f aa02 cf3f 9959 df3f
00000010: 8d6e a43f 8195 0940 581e b73f 701b cb3f
00000020: 3067 db3f 7ae0 ce3f 32c5 873f 9ada 0240
00000030: 458b ab3f b64e ac3f 9db6 0640 e4a8 fa3f
00000040: 2898 cb3f b748 cb3f 3bff a93f 2cee 633f
00000050: f026 dc3f d477 dc3f def5 0e40 1b41 bf3f
00000060: 6739 b13f ee27 8a3f 865c be3f 3c2b c33f
00000070: 0107 9c3f ffcf b63f 5970 d53f d106 da3f
00000080: 426c b23f 86b9 2b40 5ff8 b83f 9d76 e13f
00000090: 69da b73f b0b9 e23f 3339 c93f de35 ad3f
000000a0: 8fe6 ca3f 477d c83f 3c02 8e3f 2966 b93f
000000b0: 30c8 f63f 454a a33f 1eb3 853f 9c22 a03f
000000c0: 9ceb 923f 52ff 8c3f d1ee bb3f ff59 843f
000000d0: bbc8 0c40 b8a9 b73f cb89 913f 4a4a 9b3f
000000e0: 8d40 3440 2729 a73f 3946 ad3f 2e5f 0e40
000000f0: 0c96 a93f 0eaa 9c3f 059f 1340 8636 b63f
00000100: cb3b ac3f b152 aa3f 440a db3f 068b ca3f
00000110: 48f7 b93f 4d0e 0f40 6cf3 7a3f b228 a03f
00000120: 1050 8e3f c752 9f3f 7efc dc3f 2c52 fd3f
00000130: 6496 a53f 3c83 d23f b637 de3f 066f ba3f
00000140: c0ac b23f f525 0440 93bb c33f 52a3 d13f
00000150: ee44 d53f 4f23 d73f 1ed9 623f 063a bc3f
00000160: 39aa bb3f e5a5 bc3f 5d4e af3f 468d a23f
00000170: 7c99 b03f 4c4c a93f 6682 3040 803d 993f
00000180: 9f34 d23f d151 c83f 0908 e53f 9bd9 aa3f
00000190: 92c1 9e3f e5ac a43f 93f6 bb3f 58dc 8e3f
000001a0: b37b c83f 76f5 af3f fa6b 0340 5c05 773f
000001b0: e409 bc3f abe0 f73f 594c ea3f 2474 873f
000001c0: 4db7 cc3f 5be6 d33f 7a4c 8c3f ea4c 1640
000001d0: 8ab8 c23f 1667 943f 4b1b ea3f 8ae8 ce3f
000001e0: 6eed 0740 01fd e53f be54 f53f e323 953f
000001f0: 7c7f 893f f380 c93f 69c1 d73f 9ae2 663f

fc.weight f4 [5, 128]
0.09890356 -0.046605255 -0.12693678 0.124309994 -0.16913867 0.120847695 -0.14784466 0.14299728
0.13670762 -0.10193578 0.076836236 0.096386924 -0.15139093 0.09961561 0.026398247 -0.050810102
0.0009532804 -0.083520114 -0.19657376 -0.0062331194 0.14859357 0.08053282 0.048769653 -0.12519026
0.037481476 -0.09344712 0.0071748104 0.06833563 0.11737101 0.09876579 0.08578296 -0.17561015
0.09070961 0.0057662097 -0.15625466 -0.002141444 0.122603096 -0.057247866 0.04100198 -0.09604545
0.038000602 0.05645756 0.103775464 -0.032566696 0.095090866 0.06008153 -0.12120199 -0.035818078
0.06606901 -0.0089802295 0.077507615 -0.20837852 0.02171845 0.08617036 0.093863845 -0.18401384
-0.0837102 -0.037626177 -0.18447834 0.013901005 0.11732568 0.10092027 -0.07439856 -0.20389928
-0.04485074 0.07076342 -0.09902371 0.104582414 0.05313783 -0.037326526 -0.17501816 0.006129988
-0.036571346 -0.1345661 0.08634867 -0.07007724 -0.074602455 0.008074893 -0.06710667 -0.09268362
0.08451889 0.078427635 0.08099482 -0.021075116 0.08574614 -0.09493647 -0.1315298 0.07391474
0.107161544 0.10194191 -0.0844106 0.12786905 0.10581801 -0.15416808 0.10250616 -0.15188746
0.041301165 -0.048018813 -0.035254233 -0.14705156 0.1216106 -0.14435196 0.06408225 -0.0044495757
0.0902477 0.065452494 -0.16753672 -0.08094706 -0.0057507628 -0.062386405 -0.06569001 -0.13421544
-0.029071823 0.09378838 -0.12076609 0.038110238 -0.16526113 -0.05658658 0.08415327 0.11102031
0.01504565 -0.079524465 -0.03124037 -0.12619196 0.031096311 0.11329627 -0.13718984 0.046754386
-0.07849221 0.020966241 0.15711343 -0.07394881 -0.097131364 0.07229209 0.12835047 0.048747413
0.07770886 0.11245469 0.08023426 0.08517064 -0.057970252 -0.063040644 -0.093627244 -0.05050968
-0.12336803 0.13249408 0.13602972 0.08690653 -0.021274146 -0.088709265 -0.18889861 -0.013271865
-0.033846095 -0.10076804 0.068884775 -0.16443251 -0.13683379 0.1229775 0.11334316 -0.030185828
-0.0576392 -0.056078833 -0.015190567 -0.14475596 -0.063090034 -0.05606043 0.12422819 -0.049663045
-0.012532031 0.15175234 -0.09487463 -0.12027103 -0.080972396 -0.033863988 0.07997701 0.11625046
-0.10815942 -0.20331931 -0.030003166 0.07939157 -0.04550931 0.05983967 0.0058075124 0.09527918
0.13730411 -0.10670387 0.022791477 0.15016787 -0.0877376 -0.02946138 0.032479648 -0.009499978
-0.14627664 -0.023647461 -0.01811003 -0.07444612 -0.027672693 -0.10496014 0.091619745 -0.049122874
0.050722945 -0.038656764 -0.035982937 0.037587766 -0.1986695 -0.12148389 0.11394292 -0.08792846
0.07227935 -0.009944585 0.040373653 -0.0057240743 0.072132684 -0.08943064 0.10435231 -0.05908549
0.030850286 -0.056213573 0.13585123 -0.057683114 -0.016699476 -0.0036677967 -0.037168115 0.041366592
-0.09600983 -0.0748185 -0.10730326 -0.07882954 -0.15286422 0.11400541 0.0838371 0.054989178
0.0384875 0.04755183 -0.04350359 0.05934708 0.09815133 0.16384546 -0.13828008 -0.07169018
0.14621548 0.007965085 -0.057533547 -0.07928268 -0.09448331 0.1024916 -0.10503244 -0.019309767
0.14292008 0.024087057 -0.103824235 -0.19136372 0.0619601 -0.0472045 -0.08975824 0.03566916
00000000: f38d ca3d 27e5 3ebd b7fb 01be 3d96 fe3d
00000010: b032 2dbe ff7e f73d 9764 17be e16d 123e
00000020: 15fd 0b3e b5c3 d0bd 515c 9d3d 8266 c53d
00000030: 3906 1bbe 4503 cc3d 2341 d83c 411e 50bd
00000040: 91e5 793a 980c abbd a24a 49be 323f ccbb
00000050: ea28 183e 64ee a43d b0c2 473d e031 00be
00000060: 2d86 193d 3461 bfbd ac1a eb3b 8df3 8b3d
00000070: 3660 f03d b845 ca3d faae af3d 26d3 33be
00000080: f6c5 b93d 79f2 bc3b 3901 20be 7857 0cbb
00000090: 5517 fb3d bd7c 6abd b1f1 273d 7ab3 c4bd
000000a0: 85a6 1b3d 0b40 673d 3b88 d43d a864 05bd
000000b0: 00bf c23d 0d18 763d c038 f8bd fab5 12bd
000000c0: 304f 873d d021 13bc 50bc 9e3d 2e61 55be
000000d0: e4ea b13c 167a b03d b03b c03d 206e 3cbe
000000e0: 4170 abbd e81d 1abd e4e7 3cbe 0ac1 633c
000000f0: 7248 f03d 49af ce3d 465e 98bd f9ca 50be
00000100: 69b5 37bd 69ec 903d f1cc cabd 4e2f d63d
00000110: 0ea7 593d b3e3 18bd f637 33be 11de c83b
00000120: d6cb 15bd b2cb 09be 92d7 b03d a884 8fbd
00000130: 2cc9 98bd 8e4c 043c 396f 89bd e9d0 bdbd
00000140: 3d18 ad3d ab9e a03d 9de0 a53d b9a5 acbc
00000150: ac9b af3d 0d6e c2bd bfaf 06be 9c60 973d
00000160: 8377 db3d ecc6 d03d 77df acbd 1bf0 023e
00000170: 1db7 d83d 3dde 1dbe c0ee d13d 6388 1bbe
00000180: 692b 293d 60af 44bd be66 10bd af94 16be
00000190: fa0e f93d 00d1 13be 8e3d 833d bfcd 91bb
000001a0: c9d3 b83d f50b 863d bf8e 2bbe 92c7 a5bd
000001b0: e570 bcbb e388 7fbd 7c88 86bd c66f 09be
000001c0: 0828 eebc 1f14 c03d 3654 f7bd 7b19 1c3d
000001d0: 373a 29be 54c7 67bd 8d58 ac3d 9e5e e33d
000001e0: 0882 763c b9dd a2bd ceeb ffbc 7738 01be
000001f0: b1bd fe3c e007 e83d 7e7b 0cbe 8781 3f3d
00000200: 86c0 a0bd 65c1 ab3c 58e2 203e 7972 97bd
00000210: cfec c6bd e00d 943d 4e6e 033e 5eab 473d
00000220: d325 9f3d a54e e63d dc51 a43d f26d ae3d
00000230: 3772 6dbd 741b 81bd a4bf bfbd 3de3 4ebd
00000240: 61a8 fcbd 87ac 073e 604b 0b3e 0dfc b13d
00000250: 1e47 aebc 34ad b5bd a36e 41be 3d72 59bc
00000260: 34a2 0abd 795f cebd 7613 8d3d ff60 28be
00000270: 281e 0cbe a1db fb3d 7520 e83d 4548 f7bc
00000280: 1517 6cbd ebb2 65bd dbe1 78bc e83a 14be
00000290: 5935 81bd 9f9f 65bd 596b fe3d 7a6b 4bbd
000002a0: 2653 4dbc f764 1b3e a14d c2bd a850 f6bd
000002b0: dbd4 a5bd f7b4 0abd fdca a33d b914 ee3d
000002c0: b082 ddbd f032 50be 33c9 f5bc 0c98 a23d
000002d0: f867 3abd 711a 753d f24c be3b bb21 c33d
000002e0: 7399 0c3e 8f87 dabd 31b5 ba3c 9bc5 193e
000002f0: c5af b3bd fe58 f1bc 6109 053d cca5 1bbc
00000300: 8bc9 15be 52b8 c1bc 7c5b 94bc 3577 98bd
00000310: d8b1 e2bc 58f5 d6bd 22a3 bb3d 1135 49bd
00000320: ddc2 4f3d 8e56 1ebd d862 13bd a1f5 193d
00000330: 0470 4bbe 8ccc f8bd e85a e93d d613 b4bd
00000340: 3207 943d 9dee 22bc d85e 253d 0491 bbbb
00000350: 4dba 933d 6927 b7bd aab6 d53d a003 72bd
00000360: bdb9 fc3c 3440 66bd 961c 0b3e 2145 6cbd
00000370: 57cd 88bc 6b5f 70bb 983d 18bd 0470 293d
00000380: cda0 c4bd 713a 99bd d0c1 dbbd 6271 a1bd
00000390: 7088 1cbe ab7b e93d c9b2 ab3d 553c 613d
000003a0: 12a5 1d3d b5c5 423d d230 32bd ec15 733d
000003b0: 9103 c93d 1bc7 273e 4b99 0dbe 4dd2 92bd
000003c0: 83b9 153e fd7f 023c 4ca8 6bbd f55e a2bd
000003d0: 7780 c1bd 1ee7 d13d 3f1b d7bd 842f 9ebc
000003e0: a459 123e 3852 c53c cda1 d4bd daf4 43be
000003f0: e0c9 7d3d 8159 41bd 2bd3 b7bd d319 123d

fc.bias f4 [5]
-0.03416735 0.04016625 -0.02510606 -0.036816128 -0.039985213
00000000: 10f3 0bbd 5e85 243d 39ab cdbc 82cc 16bd
00000010: 89c7 23bd
