artifacts/model_resnet_fold_1.pth (torch, 472227 bytes, 47 tensors)

stem.0.weight f4 [32, 8, 5]
000000 a5 98 cf 3d e2 90 d8 bd 60 6f ca bd 49 62 15 3d
       0.101365365 -0.10574509 -0.09884524 0.036470685
000010 32 2c 5f 3d 49 83 89 3d df 4f f8 3d af d6 1f bd
       0.054485507 0.06714494 0.12124609 -0.039023098
000020 f6 0c 09 be cc 28 06 3d 78 27 2f bc 74 d7 f8 bd
       -0.1338385 0.03275375 -0.010690562 -0.121504694
000030 ef c0 e3 bd 1d 47 30 3e 4b 97 4d 3c fb 20 9c bd
       -0.111207835 0.17214628 0.012548278 -0.07623478
000040 38 e4 b9 3d dc 0d a6 bc 5d 46 e8 bd d3 f5 92 bd
       0.090767324 -0.02027028 -0.11341546 -0.071757935
000050 7f 9f 34 3e a1 60 6a 3d bf f7 6e bd 2e 4a ce bc
       0.17638968 0.05722106 -0.058341738 -0.025181856
000060 92 cb c9 3c 34 10 d2 bd 1b a3 8d bd 3e d7 97 bc
       0.024633203 -0.10256997 -0.069158755 -0.018535253
000070 f1 fd c7 3d f1 58 84 3d cd 4d 82 be 9f 7c 28 3e
       0.09765232 0.06462277 -0.25449982 0.16453789
000080 c6 27 10 3e 4d 23 e2 bd 45 d9 d0 bd 60 be 3d bb
       0.14077672 -0.11041889 -0.10197691 -0.0028952584
000090 e9 e4 33 3e 8b 72 24 3e 1b 7d 56 bb d5 d8 35 be
       0.17567791 0.1605932 -0.0032728377 -0.17758496
0000a0 15 f3 47 be c1 4a af 3d ee f2 3a be 2e 21 70 3e
       -0.19526322 0.0855918 -0.18256733 0.23450157
0000b0 10 5a 12 3e 5c f1 0c 3d f2 3b b8 3c 3b f0 0b bc
       0.14292169 0.034409866 0.022489522 -0.008541162
0000c0 e7 cf aa 3d f5 82 17 bd 1b db 1d 3e bc ad 61 bd
       0.083404355 -0.036990125 0.15415613 -0.055097327
0000d0 a4 d0 3a be e5 d2 6a 3e 4e b8 e5 bd e4 c8 22 bd
       -0.18243653 0.22932012 -0.11216794 -0.039742365
0000e0 bc 4f 04 be 2f 72 45 3e 1b 7a ae bc d7 99 15 be
       -0.12921041 0.19281839 -0.021298459 -0.14609466
0000f0 b8 f4 14 bd a4 67 53 bc cf f2 e7 bd 89 1c 47 3e
       -0.036366194 -0.012903128 -0.11325609 0.19444479
000100 88 89 b0 bd c2 52 00 bd 41 e4 a9 3c 8f b1 ca bd
       -0.08619982 -0.031328924 0.020738723 -0.09897148
000110 0b 51 02 bc ca 05 cf 3d 37 09 86 bd 30 0a 82 3d
       -0.007953892 0.10108526 -0.06544726 0.06349599
000120 71 9b 3d bd 62 60 0d be 27 3e ea 3d 25 9e 83 3e
       -0.04629082 -0.13806298 0.11437636 0.25706592
000130 a8 95 8f 3e c8 f0 af bd 6f 90 8c bd 64 82 cb bd
       0.28043866 -0.08590847 -0.06863486 -0.099369794
000140 03 11 a3 bd 30 8b 13 3d f2 4c c1 3c 21 99 53 3d
       -0.07962229 0.03602141 0.02359626 0.051659707
000150 97 21 2f be c3 8b ab 3d 34 31 0d be c2 24 23 bd
       -0.17102657 0.08376267 -0.13788301 -0.039829977
000160 e0 40 85 3d 6e c3 95 3d 8d 4d 8b bd b4 ef 5c bd
       0.065065145 0.07312666 -0.06801901 -0.053939536
000170 37 08 29 3e 45 30 9e bc 52 8a a7 bd 6e 1c 2c 3e
       0.1650704 -0.019310126 -0.081806794 0.1680772
000180 7f 49 cf 3d a1 a6 4f 3e 59 e5 56 3e 00 c3 48 bd
       0.1012144 0.20278408 0.20985927 -0.04901409
000190 fd eb 36 3e c8 43 e8 bd e8 e7 02 3e 5d c5 11 3d
       0.1786346 -0.11341053 0.12783778 0.03558861
0001a0 dd de 07 3e 8d 42 ce bd 9f ea 20 bd 3e fb c0 bd
       0.1326861 -0.10071287 -0.039286252 -0.09422921
0001b0 7e 5d e5 bd 82 a1 86 bd ec ec 97 bd 65 0c c9 3c
       -0.11199473 -0.06573774 -0.07418236 0.024542043
0001c0 76 d4 60 be bf ba 34 be b1 59 ab bd 93 a1 6f bd
       -0.21956047 -0.17649363 -0.08366717 -0.0585037
0001d0 ba ce 89 3d 7c 3c 11 bd 7d 6c 1d bd be f1 e1 3c
       0.06728883 -0.035458073 -0.03843354 0.027581092
0001e0 43 01 4c 3e b3 88 0a be d7 55 18 bd ed 43 b8 bd
       0.19922356 -0.13528709 -0.03719124 -0.08997331
0001f0 98 ee b6 3c 4d 08 29 be f6 9e 62 3e aa 23 95 3d
       0.022330567 -0.16507073 0.22130951 0.07282193
000200 2a 56 d2 bd a7 fa 7e bd ed 82 90 bd 21 9a 4d bd
       -0.10270341 -0.06225076 -0.07056222 -0.050195817
000210 14 34 87 3e f1 d9 65 3d d7 14 94 3e 00 22 57 3d
       0.2640692 0.05611605 0.2892215 0.05252266
000220 31 cb b1 bd 75 6b 50 be c0 a7 56 3d cc c4 32 be
       -0.08681334 -0.20353492 0.052406073 -0.17457885
000230 e6 b3 f5 bc 61 9d 14 3d f1 9c a5 bd a2 74 4f 3b
       -0.029993009 0.0362829 -0.08086575 0.0031655212
000240 65 8b 75 bd f5 bb 19 3d c6 ba 72 3d 9b 62 a8 bc
       -0.05994739 0.037532765 0.059260152 -0.020554831
000250 ae 01 03 3e 8d 4c 93 bc c2 0e 61 bd 85 8b c9 bc
       0.1279361 -0.017980838 -0.054945715 -0.02460266
000260 a4 8b 9e bd 91 b4 15 3d 87 95 93 bd b9 ca 77 3c
       -0.07741478 0.036549155 -0.072062545 0.015124016
000270 15 67 07 3d a0 1b e6 3c d8 ce 18 3d 09 8b b8 3c
       0.03305729 0.028089345 0.037306637 0.022527235
000280 d2 b4 c5 3d 54 81 16 3e 4a 2b 6d 3e d6 fa c6 bd
       0.09653629 0.14697772 0.23161045 -0.09715812
000290 4c 52 62 3d 49 d2 3f 39 ff d4 44 bd fb ab 8f 3d
       0.055254266 0.00018293517 -0.04805469 0.070152245
0002a0 4f e6 38 3c 00 16 e7 bd c2 0a ce bd 71 77 82 3d
       0.011285379 -0.11283493 -0.10060646 0.06370438
0002b0 7f ec 12 be 1d bf c7 bd 3e 8d ac 3c 93 d5 16 be
       -0.14348029 -0.09753249 0.021063443 -0.1472991
0002c0 71 d5 b0 3d ad fb 7a bc f2 1d 02 3e ed 50 03 be
       0.08634461 -0.015318793 0.12706736 -0.1282384
0002d0 41 99 96 3b b2 87 a7 bd ba 11 dd bd e8 31 9a 3d
       0.004595906 -0.08180179 -0.10794397 0.0752905
0002e0 2a d9 75 3d 86 a1 4b 3e 86 f5 02 3e 64 22 ee bd
       0.060021557 0.19885835 0.12788972 -0.11627653
0002f0 67 02 48 3d 72 4e b3 bc 39 20 8e 3d 22 e2 62 be
       0.048830416 -0.021887992 0.0693974 -0.22156575
000300 49 ff 03 be b6 b0 3a 3d 93 d1 a0 3d 4c 2c b9 bd
       -0.12890352 0.04557868 0.07852473 -0.09041652
000310 5a 54 33 bc 54 b4 49 3d 50 da 49 bd cc 93 bb bc
       -0.010945404 0.04924424 -0.049280465 -0.022897623
000320 00 59 5a be ca b3 0c be c8 16 b5 3c a5 92 05 bd
       -0.21323013 -0.13740459 0.02210559 -0.032610554
000330 47 2f 76 3d b5 dc 66 bd d5 88 4d 3d bb 08 ac bc
       0.06010368 -0.056362826 0.05017932 -0.021000257
000340 8b 9c 9b 3c 98 9a a6 bd a9 f6 af 3d 83 f3 22 be
       0.018995544 -0.08134955 0.085919686 -0.15913205
000350 46 44 d7 3b d4 ea 11 3e 92 41 4e 3d 15 f1 cc 3d
       0.006569418 0.14249736 0.0503555 0.1000692
000360 d5 25 31 3e 11 d9 06 3e d0 6e 76 bd f8 94 bb bd
       0.17299588 0.13168742 -0.060164273 -0.09159273
000370 64 a1 01 be 51 a4 19 bd 96 59 a1 bc 5a e4 a1 bd
       -0.12659222 -0.03751022 -0.019696038 -0.07904883
000380 76 71 b4 bd c0 0f 91 b9 f0 b9 87 3e 4e f4 36 be
       -0.088107035 -0.0002766829 0.26509047 -0.17866632
000390 21 6a 8b bd da a3 89 3e 86 7d 20 3c 56 73 e5 3d
       -0.06807352 0.2688282 0.009795552 0.11203639
0003a0 dd 29 20 3c 6f 83 9e bb 0d b2 50 3d b9 7a cd 3d
       0.009775606 -0.0048374454 0.050951052 0.10033173
0003b0 a2 2b b7 bd cb 06 12 3d f3 b6 02 bd a7 9c ab bd
       -0.08943869 0.03565101 -0.031912755 -0.083794884
0003c0 86 2d 9b 3c 6f 44 56 3d 52 b6 26 be 6f bf 8a bd
       0.018942606 0.052311357 -0.16280487 -0.06774794
0003d0 bd 99 a8 3d d8 6d 6f 3d 77 41 1f bd 78 31 75 3d
       0.08232448 0.058454365 -0.03888079 0.05986163
0003e0 73 c0 dd bd c5 b0 cc 3c 8a a8 81 3d c6 da 16 3d
       -0.108277224 0.024986634 0.063309744 0.036829732
0003f0 c3 53 03 3d 14 24 8f bc cc 8c 08 3d f6 ad ad bc
       0.032062303 -0.017473258 0.0333374 -0.021201115

stem.1.weight f4 [32]
000000 2d 69 80 3f f9 ee 7e 3f 11 fd 82 3f f1 1c 86 3f
       1.0032097 0.99583393 1.023348 1.0477582
000010 e4 77 7b 3f 57 f5 84 3f 78 ee 84 3f 81 d4 78 3f
       0.98229814 1.0387372 1.0385275 0.97199255
000020 49 17 86 3f 44 b4 7e 3f 03 31 81 3f dc 71 85 3f
       1.0475856 0.99493814 1.0093082 1.0425372
000030 af 8b 83 3f e7 1e 73 3f ac 68 7f 3f c1 43 86 3f
       1.0277003 0.9496903 0.9976909 1.0489427
000040 ba 54 7c 3f f9 d2 8a 3f b3 39 84 3f bb 62 81 3f
       0.9856678 1.0845634 1.0330108 1.0108255
000050 d2 55 86 3f 86 87 83 3f e2 5b 74 3f ea d7 8b 3f
       1.049494 1.0275733 0.954527 1.0925267
000060 44 d0 83 3f f3 e8 7b 3f 9e 6a 78 3f fa 3a 75 3f
       1.0297933 0.9840233 0.97037685 0.95793116
000070 20 31 77 3f 80 d3 84 3f 34 20 78 3f 56 51 8b 3f
       0.96559334 1.0377045 0.9692414 1.0884197

stem.1.bias f4 [32]
000000 21 ad 7b 3c 22 27 be bd 7f fc 86 3d 1c 7e 73 3d
       0.015361101 -0.09284808 0.065911286 0.05944644
000010 4e f9 94 3d 03 1c 17 3e ba c3 a2 bd cb 7e d4 bb
       0.072741136 0.1475678 -0.07947488 -0.0064848415
000020 bb d6 2f 3e 79 f9 b2 3d 6e de dc bc 22 c2 ab 3d
       0.17171757 0.087389894 -0.026961531 0.08386637
000030 fd 93 f1 3d 52 9b 96 bb 97 20 28 3e 03 1d 62 3e
       0.11795805 -0.0045961523 0.16418682 0.2208138
000040 21 9b 62 bc 7d 97 86 3e 94 e1 db bc 74 4d 49 bd
       -0.013830931 0.2628745 -0.026840962 -0.04914613
000050 9e f4 a0 3a b5 5d 19 3e df c7 a8 bd 25 6a 04 ba
       0.0012279933 0.14977153 -0.082412474 -0.0005051217
000060 d0 d5 b6 3c 31 ba 13 3d e9 c8 b2 3d 9a 28 48 bc
       0.02231875 0.036066238 0.08729727 -0.012216711
000070 f9 7f ac 3d 7a bd 92 3d 6c 3f 2a 3d ba ea 85 ba
       0.08422846 0.07165046 0.04156439 -0.0010217049

stem.1.running_mean f4 [32]
000000 01 94 1f 3b c2 00 ac bb 0b a4 27 3c 80 6e 06 bb
       0.0024349692 -0.005249114 0.010231982 -0.002051264
000010 47 1f d0 3a 85 5f 4a bb 9d 0f 8e 3b 94 98 89 bc
       0.0015878462 -0.0030879688 0.0043353573 -0.016796388
000020 01 9c 1c 3c 35 4b 57 bb 29 96 13 3c f5 9b af ba
       0.009558679 -0.0032851223 0.009007969 -0.0013397919
000030 8a 59 1a 3b 6a 01 08 bc ff d5 07 3b a0 90 7a 3a
       0.0023551905 -0.008301118 0.0020726917 0.0009558294
000040 a1 3e 22 bb ee 8c b5 3a 3b ac 9a ba ec ec 91 bb
       -0.0024756568 0.0013851204 -0.0011800596 -0.004453292
000050 18 f8 8d ba 3b 4f 26 3b 09 c0 17 bc d3 70 1f ba
       -0.0010831384 0.0025376815 -0.009262093 -0.0006082181
000060 b8 31 b2 bb 90 ad d6 bc ce 15 0a bc 72 46 99 bc
       -0.005438056 -0.026205808 -0.00842805 -0.018710349
000070 32 c9 b4 3c 68 aa 44 3c c6 da 42 3c e3 91 02 bb
       0.022068594 0.012003519 0.01189298 -0.001992338

stem.1.running_var f4 [32]
000000 ff 38 87 3e e0 c3 a2 3e 69 cd b4 3e b1 24 eb 3d
       0.26410672 0.31790066 0.35312966 0.11481608
000010 16 36 14 3e ee d2 31 3e ec d4 d0 3d 8c 22 af 3e
       0.14473757 0.1736562 0.101968616 0.34206045
000020 a7 84 68 3e 8e 44 fe 3e bf 6c 98 3e 90 80 04 3e
       0.22706853 0.49661678 0.29770467 0.12939668
000030 15 3e 3b 3e b3 36 9a 3e e0 09 dd 3e 39 75 02 3e
       0.18285401 0.30119857 0.43171597 0.1274003
000040 c8 a3 7b 3e 12 8a c2 3d 80 b6 12 3f 6d 12 2c 3f
       0.24574196 0.09498991 0.5730972 0.67215616
000050 6c 01 47 3e be 73 9b 3e 98 bb 2d 40 08 fd 57 3e
       0.19434136 0.30361742 2.7145748 0.21092618
000060 bb 72 f0 3d e1 e3 e4 3e c3 01 22 3e ee 55 ea 3e
       0.11740633 0.44705108 0.15820985 0.45768684
000070 3b d8 17 3f 3a 4d 54 3e c7 19 7e 3e 71 aa 03 3e
       0.59314317 0.20732585 0.24814521 0.12857987

layer1.conv1.weight f4 [32, 32, 3]
000000 02 1b ea bd f4 2b ee bc 52 9c 97 bd c1 f6 22 be
       -0.114309326 -0.029073693 -0.074028626 -0.15914442
000010 6f 84 aa bd 3b 74 87 bd aa 69 89 bd 90 8c 13 3e
       -0.08326041 -0.06613966 -0.06709607 0.14409089
000020 d2 c4 ca 3d 13 1d be 3d 11 fb f5 3d 51 3d 39 bd
       0.09900822 0.09282889 0.12010778 -0.04522449
000030 0f bc 1e bd 1f 29 9e 3d 7d 83 d7 3d de 2e 1b 3d
       -0.038753565 0.07722687 0.10523126 0.037886493
000040 ed 0d 32 3d fd f7 d4 b9 c8 14 4a 3d 99 71 20 3c
       0.043470312 -0.00040620557 0.049336225 0.009792709
000050 64 98 17 be aa 09 63 bc 8e 39 70 3d 7d f5 f0 3d
       -0.14804226 -0.013857285 0.05864864 0.11765573
000060 97 86 f3 3d 5c a8 07 bc 7d d5 2f 3c b3 b3 8f bd
       0.11890905 -0.008279886 0.010732052 -0.07016697
000070 25 b8 12 3d bb d2 3e 3d 66 95 e6 3d 2b 3f 1a 3d
       0.035820145 0.046587687 0.11258964 0.037657898
000080 99 d4 87 bc 8a 91 ee bd 87 04 21 bc 28 96 fa bd
       -0.016580867 -0.11648853 -0.00982774 -0.12235671
000090 5e 48 9b 3d 1e 11 42 3d 77 b4 d7 3d eb a9 1f 3b
       0.07582162 0.047379605 0.10532468 0.0024362754
0000a0 5a 5c 07 be 30 32 e6 bd 96 be 9e bd cd 02 f7 bd
       -0.13218823 -0.11240041 -0.07751195 -0.12061081
0000b0 ce 5b a8 3c 4c 19 ba bd 2a f8 47 3d 1e 97 09 3c
       0.020551588 -0.09086856 0.048820652 0.008397846
0000c0 b5 24 a6 bd 73 c3 65 bd 5f 4f 83 3d a5 44 2d 3d
       -0.0811247 -0.056094598 0.06411623 0.042301793
0000d0 8d 13 03 3d c8 53 0b bd 66 fe 06 3d 6c a3 a5 3d
       0.032001067 -0.034015447 0.032957457 0.08087811
0000e0 cf 2e 8b bd 56 93 03 3d 7c 6a 1a be c7 66 f8 bc
       -0.067960374 0.032122932 -0.15079683 -0.030322446
0000f0 bf 66 aa 3c b2 ef 2d bd 67 72 10 bd 49 72 2b 3d
       0.020800946 -0.04246492 -0.035265353 0.041857038
000100 b1 81 07 be a9 83 23 be 0b a4 18 bd 74 c6 fc bd
       -0.13233067 -0.15968193 -0.03726582 -0.123425394
000110 38 b4 88 3c cc 5b cb 3d af 89 f0 3d 71 02 ce 3d
       0.016687497 0.09929618 0.11745011 0.100590594
000120 03 b5 de bd 68 9f fd bd 09 6d aa bc a8 d4 93 3d
       -0.10874369 -0.1238392 -0.020803945 0.07218295
000130 1e 85 6d 3c 65 0b 2f bc db ad 0f 3d 91 68 d8 bb
       0.01449707 -0.010683869 0.03507791 -0.006604262
000140 67 49 45 3c 18 74 ba 3c 5c a2 0a be 36 b7 96 3d
       0.012041426 0.022760436 -0.13538498 0.073591635
000150 db f5 57 3d 92 de 8a bd 3b 09 35 be 31 f9 03 3e
       0.0527247 -0.06780733 -0.17679302 0.12888028
000160 c0 9c b3 3c c8 f7 cf bb ae 01 96 3c 90 43 4e 3c
       0.02192533 -0.0063466765 0.018311348 0.01258935
000170 d8 ae 55 bd 6a f8 27 3c 15 23 fb bd 52 81 1e 3e
       -0.052168697 0.010252098 -0.12262551 0.1547902
000180 b6 d6 c1 3d 4d bf 0a 3e ac a2 3f bc 01 69 94 3d
       0.09464781 0.13549538 -0.011696499 0.072465904
000190 95 58 2d be 39 fd 40 be 7f 8d 46 bd 60 da c2 3c
       -0.16928323 -0.18846597 -0.048474785 0.02378577
0001a0 73 31 94 bd c2 33 70 bc 99 b6 84 3d 6c 68 26 bc
       -0.07235994 -0.0146607775 0.0648014 -0.010156732
0001b0 72 24 ef 3d 82 19 9c 3d f5 c9 88 3c d1 21 16 bd
       0.11676873 0.07622053 0.016697863 -0.036653344
0001c0 e5 bc 98 3d ca 21 aa 3b 88 f2 68 3c 71 d6 5c 3d
       0.07457904 0.0051920163 0.01421798 0.053915445
0001d0 40 cd b6 bd 10 dd 32 3d 3f a0 83 bc 44 91 e8 3c
       -0.08925867 0.043667853 -0.016067622 0.02838958
0001e0 7d b3 38 3d 0c f7 86 3c 1e 77 c3 bc f9 c8 a7 bc
       0.04509305 0.016475223 -0.02386051 -0.020481573
0001f0 44 a9 f0 bd 32 f4 bc 3b ed 32 89 bd de 58 16 bb
       -0.11751035 0.005766415 -0.066991664 -0.0022941153
000200 df 1b be bb e9 0d 00 be d2 19 0c be 3d e8 3e be
       -0.0058016623 -0.12505306 -0.13681725 -0.1864328
000210 40 60 5f bd 59 de 08 3b 9e 3c dd 3d 42 fe 81 bb
       -0.05453515 0.0020884483 0.108025774 -0.0039670775
000220 d2 12 d0 3c 91 42 43 3d 0e 9c 02 3d 95 21 86 bd
       0.0253996 0.047670905 0.031887107 -0.06549374
000230 cc 23 0e be 08 af 80 bd fd de cf 3c 6e 9f c6 bc
       -0.13880843 -0.062833846 0.025374884 -0.024245944
000240 6e b6 05 be 5a 8a 4a bd 3c 26 41 bd e2 28 1c 3e
       -0.13057873 -0.04944835 -0.047155604 0.1524997
000250 de 5c 26 3e 27 0b 3f 3d 56 60 a8 bd 3b af e4 3d
       0.16246364 0.046641495 -0.082214996 0.11166235
000260 b7 c8 2b 3d 4c 97 20 bb 59 7e 86 bc a1 71 4e bd
       0.041939463 -0.0024504242 -0.01641767 -0.050401334
000270 45 72 d3 3c fe b5 09 bc b8 ad e4 3c 35 7f 45 3e
       0.025811324 -0.008405207 0.027914867 0.19286807
000280 0b 78 52 bb c3 88 6c bd 28 20 53 bd 32 70 34 3c
       -0.0032115008 -0.057747614 -0.05154434 0.011013078
000290 94 42 70 bd f0 5a 98 3b a0 7c c8 bc 9d b1 81 bc
       -0.058657244 0.0046495125 -0.024473488 -0.015831763
0002a0 24 31 6b 3d 8c cd d6 bd 5c ee c8 bd bb 9f e1 3d
       0.05741991 -0.10488424 -0.098110884 0.11016794
0002b0 dd 32 b6 bd 82 6c 9c bb 1c 36 1c 3d 88 60 0f 3d
       -0.0889642 -0.0047736773 0.03813754 0.03500417
0002c0 b6 1b 48 3c 4b e9 0e bc ef a9 cf 3d 4b 7d 0f 3d
       0.012213638 -0.008722614 0.10139834 0.035031598
0002d0 fb 99 09 3d c0 3b b7 bd 6b d9 a7 3c 1c 8b 22 bd
       0.033594113 -0.08946943 0.020489415 -0.039683446
0002e0 fe 8d 00 bd 28 f3 3e 3d 71 d9 2f 3d 0d 38 0b be
       -0.031385414 0.04661861 0.042931978 -0.135956
0002f0 fa 73 b4 3d 44 a0 03 3d d5 5b 3c 3e 9d 4b a1 3d
       0.08811183 0.032135263 0.18394406 0.0787575
000300 35 e7 d2 3c 52 88 50 bd 49 4c b0 3d 7a dd da 3b
       0.025745014 -0.050911255 0.086083 0.006679234
000310 32 88 eb 3d ae 85 e1 3c 6b 81 9e bd 6d e0 5d bd
       0.115005866 0.027529564 -0.07739528 -0.054169107
000320 e9 14 9b 3d 7b 1c bb bd d3 3d 45 be f5 11 74 bd
       0.07572348 -0.091362916 -0.19261865 -0.059587438
000330 e8 6a 14 bd 1a c2 6b bc 21 8b 50 bd 4a 95 9a bd
       -0.036234766 -0.014389539 -0.050913934 -0.07548006
000340 98 a8 17 be 3f 94 5e bd 41 53 06 3e 06 20 12 3e
       -0.14810407 -0.054340597 0.13117696 0.14270028
000350 9b a2 33 3e b1 2b f4 bd 40 21 68 bd af ff 84 bc
       0.17542498 -0.11922396 -0.056672335 -0.0162352
000360 96 e0 e7 3d 0a af 38 3c eb c1 d1 bd 51 20 75 bd
       0.11322133 0.011272201 -0.10242065 -0.059845272
000370 09 7f 8d 3d 65 19 64 3c 97 5e 6f bd 3e 0b 02 3d
       0.06908996 0.01392207 -0.058439817 0.031749003
000380 73 c8 97 bd 41 99 be 3c 47 ca 4a bc f9 de 85 3c
       -0.074112795 0.023266437 -0.012377328 0.016341673
000390 b0 a4 ae bc 59 f0 fe bd db 85 ec bc 23 8c d5 bc
       -0.021318763 -0.124481864 -0.028872421 -0.026067799
0003a0 e1 12 20 be 05 0b 0f be 22 b7 1e 3c 37 69 58 bd
       -0.15632202 -0.13969047 0.009687217 -0.052834716
0003b0 84 d8 cb bd ff f5 6e bc 0b d6 97 3d 40 89 ce 3c
       -0.099534065 -0.014585017 0.07413872 0.02521193
0003c0 e3 5c cf bc 3f eb 8c bd f8 c0 2e bd 3b 55 5e 3c
       -0.025312847 -0.06880807 -0.042664498 0.013570125
0003d0 73 fd 13 3d 78 5e b1 bd f1 b1 51 3d bc 63 81 3c
       0.03613038 -0.086605966 0.05119509 0.015794627
0003e0 51 c0 47 ba cf d7 83 bd da 10 dd 3d dc e8 07 3e
       -0.0007619905 -0.064376466 0.1079423 0.13272423
0003f0 34 4c f1 3c 2d d8 0f 3e ce d7 91 3d 45 c4 48 3d
       0.029455282 0.14047308 0.071212396 0.049015302

layer1.bn1.weight f4 [32]
000000 08 b8 7e 3f 33 78 72 3f af b7 72 3f 7c 67 76 3f
       0.9949956 0.9471466 0.9481153 0.96251655
000010 9a d6 78 3f 25 98 74 3f fc 73 75 3f c4 a7 73 3f
       0.97202456 0.95544654 0.95880103 0.95177865
000020 d6 a5 7b 3f 1c f4 79 3f 32 48 8c 3f d0 f7 83 3f
       0.9829992 0.97638106 1.0959532 1.0310001
000030 64 2b 7d 3f 96 5b 83 3f 73 f7 82 3f 16 ea 7b 3f
       0.98894334 1.0262325 1.0231766 0.9840406
000040 bf 89 79 3f b7 79 6f 3f 84 f6 84 3f 46 5c 6c 3f
       0.9747581 0.935451 1.0387731 0.923283
000050 1c d3 6b 3f b1 88 72 3f 87 af 82 3f 93 9e 66 3f
       0.92119 0.94739825 1.0209817 0.90085715
000060 45 b0 7e 3f f9 eb 75 3f a2 44 85 3f 74 99 81 3f
       0.99487716 0.9606319 1.041157 1.0124955
000070 e6 cf 7e 3f 24 c5 89 3f d0 8a 7d 3f 8b e5 83 3f
       0.9953598 1.0763288 0.99039936 1.0304426

layer1.bn1.bias f4 [32]
000000 ce 9d d9 bd db c8 1b be a9 70 0e be 2b 8c 29 be
       -0.10625802 -0.15213339 -0.13910164 -0.16557376
000010 fc 1e 05 bd 90 f1 5b bd cf 1f c6 bd f3 19 8f bd
       -0.032500252 -0.05369717 -0.09674036 -0.06987371
000020 33 ac 16 be bd 04 93 bd 4b 3f 6d 3c 35 4e 06 bd
       -0.14714126 -0.07178638 0.014480422 -0.032789428
000030 d3 3c 06 be d7 f8 a8 bd 71 c5 74 39 99 cf 8d bd
       -0.1310914 -0.082505874 0.00023343206 -0.06924362
000040 9e 04 e8 bd c4 2e ba bd d0 d4 35 bd ca 70 9e bd
       -0.11329006 -0.09090951 -0.044392407 -0.077363566
000050 8e b9 19 be 04 0e e1 bd 5e b6 e9 bd c7 7b 88 be
       -0.1501219 -0.109890014 -0.11411737 -0.26656935
000060 6a c4 dc bd b9 88 b1 bd d4 ba 42 bc 2e b1 ab bd
       -0.107796505 -0.08668656 -0.011885364 -0.08383404
000070 97 93 4a be 92 f0 4f 3c fd d4 c2 bd 2e 1c 34 bc
       -0.19782864 0.012691634 -0.095132805 -0.010993047

layer1.bn1.running_mean f4 [32]
000000 53 2c 8a be 20 6a 24 3d 64 1a 18 bf da c8 6d bf
       -0.26986942 0.04014027 -0.5941527 -0.928846
000010 34 5b 43 bd 40 78 99 be b3 68 62 be 48 36 fd be
       -0.0476944 -0.29974556 -0.22110252 -0.49455476
000020 91 14 2e bf 02 18 07 bf 28 24 6d 3f ca bb 80 3e
       -0.6800013 -0.5277101 0.92633295 0.25143272
000030 53 6e 21 be 6b d6 a4 be 77 ff b8 be a4 d0 ef be
       -0.15764742 -0.32194838 -0.36132404 -0.46838868
000040 ba f1 a4 be b6 d6 e5 be e0 cb b8 3f 98 aa 9f be
       -0.32215673 -0.44890374 1.4437218 -0.3118484
000050 e2 65 15 bf 04 66 92 3e 49 c9 de bd 6e 50 26 bf
       -0.58358586 0.28593457 -0.10878236 -0.64966476
000060 0d e2 d9 be 44 28 0e be e3 19 2c bc cb 00 9f 3d
       -0.42555276 -0.13882548 -0.010504219 0.07763823
000070 e7 0c 28 bf 08 05 ed 3e bf d8 10 bf f9 dd 82 3f
       -0.6564469 0.462929 -0.5658073 1.0223991

layer1.bn1.running_var f4 [32]
000000 8a 19 09 3f ad 7c 9e 3e 79 ba d2 3e ea d6 0c 3f
       0.53554595 0.30954495 0.41157892 0.5501543
000010 48 20 a9 3e a7 ec ba 3e 30 b7 d1 3e be cd 07 3f
       0.3303244 0.36508676 0.40960073 0.5304831
000020 23 cb dc 3e 64 c3 be 3e 5c c1 21 3f 1f 4b d2 3e
       0.4312373 0.37258446 0.6318567 0.41072938
000030 86 a1 93 3e c6 49 a0 3e fd 70 c9 3e d4 f4 da 3e
       0.2883417 0.31306285 0.39344016 0.42764914
000040 b4 e6 b0 3e cf f2 c5 3e 88 5a 60 3f 73 63 8c 3e
       0.34551013 0.3866181 0.8763814 0.27419624
000050 d9 ab b8 3e 01 5f 85 3e c1 cf 61 3e 3c 8a eb 3e
       0.3606861 0.26049045 0.22051908 0.46003902
000060 ab 82 cb 3e f2 5d 94 3e 49 bd f0 3e d3 bf a8 3e
       0.3974813 0.28977925 0.47019413 0.3295885
000070 9a 58 14 3f ba 14 f1 3e 34 05 df 3e 04 42 0e 3f
       0.57947695 0.47086126 0.43558657 0.5556948

layer1.conv2.weight f4 [32, 32, 3]
000000 f2 a8 cd 3c 71 19 d0 bd d2 50 2a bd 95 89 7e 3d
       0.025104973 -0.101611026 -0.041580983 0.062142927
000010 b1 05 95 3d 49 59 59 bd b5 45 eb 3d 90 79 be 3c
       0.07276476 -0.053063665 0.11487905 0.023251325
000020 58 b9 47 bd 18 45 89 3d 93 45 c0 bd 11 d4 c3 bd
       -0.048760742 0.06702632 -0.0938827 -0.09561933
000030 9f e6 1e bc 8c 50 7f bd f2 6f 53 3d 83 e8 1b 3d
       -0.009698539 -0.062332675 0.05162043 0.038063537
000040 88 e8 0c 3d 18 e7 d8 bc 26 74 05 be d0 d3 04 be
       0.034401447 -0.026477382 -0.13032588 -0.12971425
000050 e0 69 c1 3c 4c 6b 47 bd 0e 31 46 3d fe bb 07 bd
       0.023610055 -0.04868631 0.048386626 -0.033138268
000060 e8 5a d5 bd a4 3e 1a be 9e c0 1f bc 1c 41 fe bd
       -0.104177296 -0.15062958 -0.009750513 -0.124147624
000070 75 77 87 bd c1 c5 18 be 19 8c 99 3d 7f 40 6f bd
       -0.066145815 -0.14919187 0.07497425 -0.058411118
000080 4e 1f 0c be 16 7f 32 be d7 c7 ba bd bf 2f da bd
       -0.13683817 -0.17431292 -0.09120148 -0.10653638
000090 fc 84 99 bc a3 9f ba bd 72 bd 7d bc 31 92 6d bd
       -0.01874017 -0.091124795 -0.015487062 -0.058000747
0000a0 5b 56 af 3c 67 c6 74 3d ba b5 c6 bd 66 4c 37 bd
       0.021403482 0.059759524 -0.0970263 -0.044750594
0000b0 77 73 4f bd 50 bc 03 bd 3a e0 3c bd 2b 6b c1 bd
       -0.050647225 -0.03216201 -0.046112277 -0.09444269
0000c0 bb f0 ed 3d 1d fb fa bd 7c 19 0a be ec 04 8e bd
       0.11618181 -0.12254927 -0.13486284 -0.069345325
0000d0 0d 67 b3 bc ff 43 13 3d 1e b6 90 3c a8 1c a5 bd
       -0.021899724 0.035953518 0.017664965 -0.08062106
0000e0 8c cd 37 bd a0 09 84 3d 27 10 3e 3d aa 92 95 3d
       -0.04487376 0.06447148 0.046402123 0.073033646
0000f0 a3 d6 b2 3c 59 2f 9e 3d 5c ec 54 bd ce 63 cc 3c
       0.021830862 0.077238746 -0.051983222 0.024949934
000100 b2 f9 c4 3d a1 ec cc bd 31 fb 80 bd da 4e d1 bc
       0.09617938 -0.10006071 -0.06297911 -0.025550295
000110 55 65 12 3d 7a fb a8 bd 8c cf 05 be 69 f7 33 be
       0.03574117 -0.0825109 -0.13067454 -0.17574848
000120 af 44 30 3b ca 1d cb 3d fe 5d 9c 3d 84 ff 2f bd
       0.0026896407 0.09917791 0.07635115 -0.042968288
000130 b4 f0 95 bc 01 81 50 be a8 60 05 bd 07 3d f9 bc
       -0.018303253 -0.20361711 -0.03256288 -0.030424608
000140 72 26 14 bd e2 84 3b 3d 79 5d 4d bd 72 2e 1f be
       -0.036169477 0.045781024 -0.05013797 -0.15545061
000150 3c 2a fa bd 09 f1 f2 bd 21 12 fb bc 5b 52 c8 bd
       -0.12215087 -0.1186238 -0.030648293 -0.09781333
000160 0f 24 30 be 88 e5 ef bd d8 5e ca 3d c6 f2 f6 bd
       -0.17201255 -0.117137015 0.09881371 -0.12058024
000170 58 27 0c 3e 16 14 9d 3d 19 19 4a bd 36 0e 3b bd
       0.13686883 0.07669847 -0.04934034 -0.04566785
000180 68 56 ac bd 05 a3 49 3d da e5 4a bd bb d0 b6 bd
       -0.08414918 0.049227733 -0.04953561 -0.08926531
000190 8f 47 44 3d 73 f7 b4 bc 12 12 99 bb 1d f6 9f bd
       0.047919806 -0.02209065 -0.0046713436 -0.07810614
0001a0 44 93 53 bc 06 ed 29 3e 21 c7 8f bd a6 03 31 bd
       -0.012913529 0.16594324 -0.07020403 -0.04321637
0001b0 22 a0 c5 bd eb 21 71 3d 4c e1 79 bd 57 bc 3d bd
       -0.096496835 0.058870237 -0.061005875 -0.046322193
0001c0 96 f2 36 3d 8e ef 68 3b 06 24 6e bd df 7c a0 3d
       0.04466494 0.0035543176 -0.058139823 0.07836317
0001d0 4b de 40 3d 40 3e 23 bd 38 10 22 3d 93 b4 51 bc
       0.047086995 -0.039854288 0.03956625 -0.0127994
0001e0 0c 62 c0 bd 62 8b 9f bc 8d 1c c8 bc 27 5c 17 3e
       -0.09393701 -0.019475643 -0.024427677 0.14781247
0001f0 a0 60 65 3d 60 1e 28 3d 59 92 6f bd f7 93 a6 3c
       0.056000352 0.041044593 -0.058489177 0.020334227
000200 99 97 0a bd 38 c6 1a be f9 b3 a7 bd 95 4c d3 bd
       -0.03383598 -0.15114677 -0.08188624 -0.10317341
000210 79 1c 17 be fd eb 61 bc ac ce a0 bd 0c ea ac 3c
       -0.14756955 -0.013789174 -0.078519195 0.021107696
000220 13 a2 ac 3d 7b ba 3b bc 05 3d fb bd 8d 5c d6 bc
       0.08429351 -0.011458035 -0.12267498 -0.026167179
000230 2d b6 86 3d 9b 0b 8a bc 75 98 5d bc d0 30 20 bd
       0.06577716 -0.016851237 -0.013525118 -0.03910905
000240 07 45 f0 bd ad d2 5e bc bb 66 76 bd 6b 9d 1a be
       -0.11731916 -0.013600034 -0.060156565 -0.15099113
000250 23 79 1e 3d 0d 51 a3 bb 3a a7 fc bc e8 76 02 bd
       0.038689744 -0.0049840272 -0.030841459 -0.03185168
000260 a5 dd fc 3d f7 cd d4 3b 66 68 11 b6 eb bd 1d 3d
       0.12346963 0.0064942795 -2.1667452e-06 0.038511198
000270 c3 71 c3 3c b3 0b 80 3d 23 94 04 bd 12 d0 07 3e
       0.023857957 0.062522314 -0.032367837 0.13262966
000280 b0 40 3a bc a8 d3 c0 bd 70 20 13 be 95 11 8e bd
       -0.011367962 -0.0941537 -0.14367843 -0.06936947
000290 87 cc 5a bd 88 54 e4 bc 5b d8 ef 3d 34 2a e9 3c
       -0.05341771 -0.027872339 0.117111884 0.028462507
0002a0 28 5c 45 3d a0 46 02 3e d5 a1 ee 3c 20 0f 5a be
       0.04818359 0.12722254 0.029129902 -0.21294832
0002b0 21 63 08 be 1f 1d c8 bd a2 94 57 bc 5f 2c c8 3c
       -0.13319065 -0.097711794 -0.013157995 0.02443522
0002c0 6f c9 ae bd 3d 6b 2a be 6d 2c fa bd 8b 77 05 3d
       -0.08534514 -0.1664247 -0.12215505 0.03258471
0002d0 50 d4 b9 3c f5 3c d5 bd 8c 94 31 bc 90 89 c5 bd
       0.022684246 -0.10412017 -0.010838639 -0.096453786
0002e0 eb 8a 7f 3d 99 8d 81 bb 81 8b cd bd 81 24 4d 3d
       0.062388342 -0.0039536473 -0.10036374 0.05008364
0002f0 3c cb 17 be 20 92 1d be 92 33 c0 3c ec 2b 98 bc
       -0.14823622 -0.15387774 0.02346209 -0.018575631
000300 9d 9a 93 bd 9f bd b4 bd 4e 39 67 bd 35 44 03 bc
       -0.072072245 -0.0882523 -0.056451134 -0.008011867
000310 62 fa d9 bc 5b 57 1d 3d 86 2c c5 3b 41 60 f8 bd
       -0.02660865 0.038413387 0.0060172705 -0.12127734
000320 dd f6 ef bd ad 20 9d 3a e5 fd 5a 3d 88 de b4 3d
       -0.11717007 0.0011987888 0.05346479 0.08831507
000330 93 76 36 ba f0 bf 96 bd 00 11 0f bb 94 37 ba ba
       -0.0006960418 -0.07360828 -0.00218302 -0.0014207237
000340 61 8e 3f 3d c0 31 a3 bd e3 47 80 3c 2c c6 1d be
       0.046766642 -0.079684734 0.015659278 -0.15407628
000350 d0 26 23 bd ce b6 15 bd ce 92 92 bd 5f 00 e4 bd
       -0.039831936 -0.03655129 -0.07156907 -0.11132883
000360 ee a5 c2 3b 68 57 62 3d 89 83 91 bd 6d a0 1b be
       0.0059401905 0.05525914 -0.071051665 -0.15197916
000370 85 b5 83 3d 18 ce c5 bd 78 3a 50 be 10 cd 8e bd
       0.064311065 -0.0965845 -0.20334804 -0.06972706
000380 f9 64 cf bc eb ab d0 bd 93 c0 47 bb 2c bc 9e bd
       -0.025316702 -0.10189041 -0.0030479773 -0.07750735
000390 a8 d8 0d 3e 07 b0 97 bc 9f 7e 0e 3d 65 79 15 bd
       0.13852179 -0.018516554 0.034788724 -0.036492724
0003a0 08 3f 48 3c 74 cd fb bc 75 d8 de 3d 3c cc 9a 3d
       0.012222059 -0.030737616 0.1088113 0.07558486
0003b0 b7 71 ef bb e6 29 ea 3d b5 33 aa 3d 5a a2 80 3d
       -0.007307257 0.11433773 0.083106436 0.06280966
0003c0 b1 8c 00 3e 83 30 e8 bc 28 5b 6e 3d 66 5e db bd
       0.1255367 -0.028343445 0.058192402 -0.107113644
0003d0 a5 5c 23 be 14 ec bc 3b 69 b4 af bd 59 a1 72 bc
       -0.1595331 0.0057654474 -0.085793324 -0.014808976
0003e0 5b 70 8d bd 83 4c bb 3c 23 cf 14 3d 99 37 b0 bd
       -0.06906196 0.022863632 0.036330353 -0.086043544
0003f0 c2 dc eb 3d ba 7f cb 3d 96 80 b2 bc c3 31 9d 3c
       0.115167156 0.09936471 -0.02178983 0.019188767

layer1.bn2.weight f4 [32]
000000 16 20 7f 3f 3e 71 66 3f 55 10 71 3f a0 a4 62 3f
       0.99658334 0.90016544 0.94165546 0.8853245
000010 51 2d 53 3f 13 a9 6f 3f 5e 7d 5a 3f e7 bd 6a 3f
       0.8249102 0.9361736 0.85347545 0.9169602
000020 e8 52 74 3f 62 c6 74 3f 98 04 63 3f a5 90 54 3f
       0.95439005 0.9561521 0.88678885 0.8303321
000030 59 dd 69 3f 97 8f 75 3f cc a8 6e 3f fa 3e 74 3f
       0.91353375 0.95922226 0.93226314 0.95408595
000040 59 7e 56 3f 16 c8 52 3f 48 6a 83 3f 04 68 6d 3f
       0.8378654 0.82336557 1.026681 0.9273684
000050 f1 c6 66 3f 87 bb 5c 3f 62 5f 50 3f 82 a4 5f 3f
       0.9014731 0.86223644 0.8139554 0.87360394
000060 60 ba 6b 3f 24 dd 73 3f 10 07 61 3f f2 19 6f 3f
       0.9208126 0.9525931 0.879014 0.93398964
000070 7a e0 6f 3f 57 6b 6e 3f 47 c7 7a 3f ad 0d 6d 3f
       0.937019 0.9313254 0.97960323 0.9259899

layer1.bn2.bias f4 [32]
000000 80 b1 e2 3c 05 4c 19 be 0f 4b 32 3d 8d 69 1d bb
       0.02767253 -0.14970405 0.043528613 -0.0024019212
000010 5d 0c d2 bd a7 c3 9a bc 27 34 ca bd a7 4a 33 3d
       -0.10256264 -0.018892122 -0.098732285 0.043772366
000020 68 82 12 3d 44 e0 73 3c c2 8d 13 bc de 35 8f bd
       0.035768896 0.014885012 -0.009005966 -0.06992696
000030 6e 11 8d bd 03 3c 22 be 61 6f 46 bd aa 15 08 be
       -0.0688809 -0.15843205 -0.048446063 -0.13289514
000040 4e 98 08 be b5 b3 4f bd 0a 58 45 3c 90 70 31 bd
       -0.1333935 -0.05070849 0.012044916 -0.04332024
000050 7b f8 86 bd 7a 70 be bd ea 80 b0 bd 65 26 55 bd
       -0.06590363 -0.09298797 -0.086183384 -0.05203857
000060 28 26 2f bc 89 59 c1 bc 5b e0 9f bb f2 f1 de bd
       -0.0106902495 -0.023602264 -0.00487904 -0.10885991
000070 e1 4b 46 3b 3a dc 23 3d 64 62 a9 bd 0e 1d 65 3c
       0.003025763 0.040004946 -0.0827072 0.013983978

layer1.bn2.running_mean f4 [32]
000000 4a 49 74 bf 28 40 2f bf 96 12 1d bf 9c 32 44 bf
       -0.9542433 -0.6845727 -0.61356485 -0.76639724
000010 a3 e8 9b bc ed d2 a4 be a4 29 aa be 83 27 6e bf
       -0.019031828 -0.32192174 -0.33234894 -0.9302904
000020 af 8c 2e bf 8d 5b 01 bf b7 ab 1e 3d 17 06 34 bf
       -0.68183416 -0.5053032 0.03873798 -0.7032179
000030 82 c6 0c bf 71 5c de bd 28 d2 4c bf 10 4c 8e be
       -0.549904 -0.108574755 -0.80008173 -0.27792406
000040 d8 95 59 be 88 3a a2 3e 90 20 2a bf 03 90 72 bf
       -0.21248567 0.3168528 -0.66455936 -0.94750994
000050 55 5f 10 bf 0d 84 40 bd 1e 93 f4 be 64 55 6f bf
       -0.56395465 -0.047000933 -0.47768492 -0.9348967
000060 b6 df d1 bd df d5 57 bf 5e 8a 11 bf 84 0a 05 3f
       -0.102477476 -0.84310716 -0.56851757 0.5196917
000070 1c ff 55 bf 57 92 95 be 39 0a 45 bf 9c a8 3f be
       -0.8359239 -0.2921321 -0.76968724 -0.18716663

layer1.bn2.running_var f4 [32]
000000 d1 a3 59 3f 75 92 f6 3e a8 56 3b 3f 29 99 f6 3e
       0.8501559 0.48158613 0.731791 0.48163727
000010 cf e3 96 3e 65 1c 51 3f 93 bb 04 3f d3 39 16 3f
       0.2947068 0.8168395 0.51848716 0.5868198
000020 a9 9b 60 3f 06 09 10 3f a4 86 b2 3e 4b 5d 24 3f
       0.8773752 0.5626377 0.34868348 0.64204854
000030 43 29 1b 3f 4d e2 be 3e 59 88 58 3f 63 bc df 3e
       0.60609835 0.3728203 0.8458305 0.43698415
000040 8e 87 09 3f eb b5 9e 3e 9a 25 4e 3f c8 80 24 3f
       0.53722465 0.30998167 0.80526125 0.64259005
000050 7b 30 1f 3f 7d 13 e2 3e 9d 01 cf 3e 81 37 9f 3f
       0.6218335 0.44155493 0.40430918 1.2438813
000060 76 3c f7 3e d2 f0 80 3f 03 d8 18 3f 49 34 d8 3e
       0.48288316 1.0073493 0.5970461 0.4222739
000070 fa 80 05 3f 33 5f 2d 3f 85 ca 1e 3f 98 f0 2c 3f
       0.5214993 0.6772339 0.6202777 0.67554617

layer2.conv1.weight f4 [64, 32, 3]
000000 24 00 e9 3c 07 61 25 3d 2b cd 98 3c 5c 0e 22 bd
       0.02844245 0.040375736 0.01865252 -0.039564475
000010 86 47 94 3d 4f 84 5a 3b 24 73 02 bd 07 2f ee 3c
       0.072402045 0.0033343022 -0.031848088 0.029075159
000020 60 07 d1 3a 9a 27 c3 bd 23 b9 c6 bd 42 7e 94 bd
       0.0015947632 -0.09529038 -0.09703281 -0.07250644
000030 72 c8 11 be 9f 02 88 bd 0e 2b 68 3d 22 ba 2e bd
       -0.1423662 -0.06641125 0.056681685 -0.04265798
000040 42 b0 36 bd 07 e2 34 3e ca 89 f5 bc a8 ee c8 bd
       -0.044601686 0.17664348 -0.02997293 -0.09811145
000050 6b 8a 86 bc d0 03 a8 bd ec 50 9a bd 46 cc 92 bc
       -0.016423425 -0.08203852 -0.07534966 -0.01791967
000060 1c 2f 1c be e8 2a 4e bd 1c 17 0e bb 30 81 aa bd
       -0.15252346 -0.050333887 -0.0021681255 -0.08325422
000070 8c e7 e3 bd 5b ec 1e be bf 94 9e bd 05 b2 c3 bc
       -0.111281484 -0.1551985 -0.07743215 -0.023888597
000080 59 bd 00 3d 10 c4 c1 bd 17 bd 2e be 88 39 c8 bd
       0.031430576 -0.09461224 -0.1706432 -0.09776598
000090 6c 71 79 bd ff 4f db bc 05 5f dc 3c f9 af d0 bd
       -0.060899183 -0.026771544 0.026900778 -0.10189814
0000a0 5d 28 6f bd d2 72 10 bd 6e f5 e2 3c 54 54 78 3d
       -0.058388103 -0.03526575 0.02770492 0.060627297
0000b0 6e 44 96 bc a5 de de bd 45 52 11 bd 99 83 54 bd
       -0.018343177 -0.1088231 -0.03547885 -0.051883314
0000c0 83 8e 87 3d 61 ac 06 3d fc 45 2c bd 57 02 aa 3c
       0.06618979 0.032879237 -0.04205893 0.020753069
0000d0 42 dc 09 bd fa f1 d1 bd 6a 38 48 3c 53 cb 60 3d
       -0.03365732 -0.102512315 0.012220481 0.054881405
0000e0 ae fd a3 bc fa 65 ec bc fa 95 92 bd 8e a8 bb bc
       -0.020018425 -0.02885722 -0.07157512 -0.022907522
0000f0 dd 14 2a be f7 81 79 be e5 4f 72 be 86 8c ac bc
       -0.16609521 -0.24365984 -0.2366329 -0.0210631
000100 11 47 41 3d 5c 85 b2 3d ea 35 39 3e 0a 4a 13 3c
       0.047186915 0.087168425 0.18086973 0.00898982
000110 ee f3 5b 3d 9a 33 26 bd 74 f7 b9 bd 2e 89 06 be
       0.053699426 -0.040576555 -0.09080401 -0.13138267
000120 8d e0 64 bc 65 b1 02 3e ca 05 c6 bb b1 e7 06 be
       -0.013969553 0.12762983 -0.0060431706 -0.13174321
000130 79 b0 25 bd ac ec dc b9 59 2d 70 3c cb 1a 26 bc
       -0.0404515 -0.00042138004 0.014659249 -0.010138224
000140 b0 ff 13 bc 5c 97 7a bd a9 26 a4 bd 2f da 8c 3d
       -0.009033129 -0.061179504 -0.08015186 0.06877553
000150 a6 67 b3 3d 5e 3e 6e ba a8 06 e1 3c 71 24 a4 bd
       0.08760004 -0.0009088273 0.027468994 -0.08014763
000160 b3 8f d7 bc a9 15 3c bd 1b 80 81 3d a5 d7 06 be
       -0.026313638 -0.045919094 0.06323262 -0.131682
000170 17 89 27 bb 6d 86 3c bd 7d 33 d9 bd 76 93 57 bd
       -0.002556389 -0.046026636 -0.10605524 -0.052630864
000180 1a 7a 67 3d be 1d 2c bd af e2 25 3d 38 19 c9 3d
       0.05651293 -0.04202055 0.040499385 0.09819263
000190 96 fc 57 bc 86 af 2c bc d0 89 1b be f9 1a 9a bd
       -0.01318278 -0.010539895 -0.1518929 -0.07524676
0001a0 ff 23 10 bd b1 5c b4 bd a3 cd dd bc f2 a7 1a bc
       -0.03519058 -0.08806742 -0.027075594 -0.009439455
0001b0 74 86 c0 bd 83 14 a6 bd 93 45 19 3d 17 d2 f0 bd
       -0.09400645 -0.08109381 0.037419867 -0.117588215
0001c0 2b 0c f5 bc 16 de 73 bc 79 13 01 bc 45 87 1a be
       -0.029913029 -0.014884492 -0.007878178 -0.15090664
0001d0 1d b6 76 bc d6 03 94 bd c0 a8 4a 3d d3 ef 5d 3d
       -0.015058068 -0.07227294 0.04947734 0.054183792
0001e0 e5 99 9f 3a fe ed 08 be e5 1e 80 3d 1c 2c aa bc
       0.0012176601 -0.13372037 0.06255893 -0.020772986
0001f0 8a cb 87 3d 3d 42 e5 3d 63 24 a2 3d 8b 2d 59 bb
       0.06630619 0.111942746 0.079170965 -0.0033138718
000200 8c b7 d5 bc 5d af 3a bd ba b8 e3 3c 17 27 92 3d
       -0.026088499 -0.045577396 0.027798045 0.07136362
000210 12 ad b8 bc ad e4 e8 bd ee 81 17 bd 2b a3 86 bc
       -0.022543464 -0.113717414 -0.036989145 -0.016435226
000220 85 28 22 bd 1c d9 be bd e0 7b 7d bd f5 a4 0f bd
       -0.039589424 -0.09318754 -0.061885715 -0.035069425
000230 4e 43 1b bd 58 25 51 3c 94 3a 0d be a0 2b 41 be
       -0.037905984 0.012765251 -0.13791877 -0.18864298
000240 22 fa 12 bd 7c c0 fc bc e1 cb 13 3e 93 19 db bd
       -0.035883076 -0.030853502 0.14433242 -0.10698237
000250 26 d3 e6 bd db d7 f6 bd 74 da ee 3c 72 35 37 bd
       -0.11270742 -0.1205289 0.029156901 -0.044728704
000260 77 22 a7 3d 5a 15 b5 3d cf 69 28 3e bf 8f dc 3d
       0.081608705 0.08841963 0.16446613 0.10769605
000270 e2 bb 3d 3d 76 20 6a bd 5b f3 17 bd 0d 4d 04 bd
       0.046321757 -0.057159863 -0.037097316 -0.032300044
000280 4d 19 c5 bd 82 35 80 bd 0a 7f b2 bd 35 94 2b bb
       -0.09623966 -0.06260206 -0.08715637 -0.0026180868
000290 6d 9d 40 3d 27 e4 06 3c d5 65 d4 3d b9 d9 a3 3b
       0.047025133 0.008233107 0.103709854 0.00500032
0002a0 81 32 45 bd 7e 26 aa bc dc c7 51 3d 58 09 45 bd
       -0.048143867 -0.020770308 0.05121599 -0.048104614
0002b0 ea d6 bb bd 1d 04 ef 3d 21 a4 8f 3d b5 93 11 be
       -0.09171851 0.116707064 0.07013727 -0.14216502
0002c0 c2 23 9e 3d b8 cb 9b bd c2 d1 58 3d 45 f1 0b bc
       0.07721664 -0.07607216 0.052934416 -0.00854141
0002d0 d2 44 24 bd 7b 3b 5a bd 92 b1 a1 bd ff 0a 08 3c
       -0.040104695 -0.05327938 -0.07895197 0.008303403
0002e0 12 2d 0f 3d b3 30 3b bd f1 f3 0e 3c 81 ac e1 bd
       0.03495509 -0.04570074 0.008725152 -0.11019231
0002f0 32 df d3 bd dc 64 bc 3d 22 e0 f9 bb 3e 94 b9 bd
       -0.103453055 0.09198925 -0.0076255957 -0.09061478
000300 6a fa 2c 3d ec 3c 46 3d 2d 93 dd bd 10 23 b2 bd
       0.042231 0.048397943 -0.10819087 -0.08698094
000310 33 c4 4e bd da 63 48 bd 6d 51 0f 3e f8 cf 47 bb
       -0.05048008 -0.04892335 0.13995905 -0.003048895
000320 d0 3e 77 bd ab 91 bf bd 98 01 9b bd 07 d9 f1 3c
       -0.060362637 -0.09353956 -0.07568663 0.029522432
000330 25 71 62 bd 26 27 05 bd d2 d6 06 3e db 6c 97 bd
       -0.055283684 -0.032508038 0.13167885 -0.073938094
000340 6c e0 84 ba b0 7f e2 bc e6 79 18 bd f9 f6 6b bd
       -0.0010137684 -0.027648777 -0.037225626 -0.05760858
000350 16 b7 81 3c 1e d3 98 3d 2f fb 72 bd 2c c9 dc 3d
       0.015834372 0.074621424 -0.05932158 0.10780558
000360 51 1c 66 3d e5 fe 99 3d f3 f8 89 3c f3 78 0e bc
       0.05617935 0.075193204 0.016842341 -0.008695829
000370 f2 20 09 3e 23 e9 c9 bd d6 a2 25 ba f9 f4 ba 3c
       0.13391474 -0.098589204 -0.0006318515 0.02282189
000380 72 6c 67 3c be 84 fb 3c a1 d0 b9 bd bb c6 39 be
       0.0141249765 0.030702945 -0.09072996 -0.18142216
000390 84 f2 70 3c 29 49 ee bd 43 69 cf 3c 7a f2 b0 bd
       0.014706258 -0.11635048 0.025318747 -0.08639999
0003a0 a6 bb 3d bd f5 f1 61 be 95 55 f2 3d cc 5c d7 3d
       -0.046321534 -0.22064956 0.1183273 0.105157465
0003b0 9c bf ae 3d b4 35 68 bc ed 89 37 3e 94 f9 dd 3d
       0.0853264 -0.01417296 0.17923708 0.10838619
0003c0 03 49 ef bd 24 0e ab 3d 85 9c b9 3d 00 1d ae bd
       -0.11683848 0.083523065 0.09063057 -0.08501625
0003d0 77 28 f3 3c b1 0b 1a 3d da 87 ad 3d aa d5 87 bd
       0.029682381 0.037608806 0.08473177 -0.0663255
0003e0 de f4 9d 3d 27 96 98 3d 72 2b b0 bd 08 64 f0 bd
       0.0771272 0.07450514 -0.086020365 -0.117378294
0003f0 4b b0 0d 3e 23 29 2a 3d cb bd 46 bd 1e 88 59 bd
       0.13836782 0.041543137 -0.048520844 -0.053108327

layer2.bn1.weight f4 [64]
000000 d2 28 83 3f 23 cc 85 3f 57 d6 78 3f e1 6a 82 3f
       1.0246832 1.0452923 0.97202057 1.0188867
000010 4a 8e 79 3f 97 43 87 3f 08 ec 77 3f 4d 8e 7e 3f
       0.9748274 1.0567502 0.9684453 0.99435884
000020 48 a9 85 3f d4 d9 7c 3f 04 c6 85 3f 6f 0b 83 3f
       1.0442286 0.9876988 1.0451055 1.0237864
000030 d2 2f 89 3f a0 19 81 3f fa 04 6d 3f 09 53 82 3f
       1.0717719 1.0085945 0.9258572 1.018159
000040 e0 43 71 3f a5 58 78 3f 86 16 68 3f 9f 5b 76 3f
       0.94244194 0.9701026 0.9065937 0.9623355
000050 ec 23 83 3f d4 cb 7c 3f 2b d3 87 3f d2 11 74 3f
       1.0245337 0.9874852 1.0611318 0.9533969
000060 d8 49 87 3f d6 77 79 3f 1e a9 71 3f 81 ab 86 3f
       1.056941 0.9744848 0.9439868 1.0521089
000070 34 27 87 3f 12 90 7c 3f bd e5 84 3f cf cb 6d 3f
       1.0558839 0.98657334 1.038261 0.9288911
000080 4e 34 7a 3f c0 1c 88 3f 8a 24 87 3f ba 69 7e 3f
       0.9773606 1.0633774 1.0558026 0.99380076
000090 20 1e 74 3f 25 f6 84 3f d9 b1 82 3f cb 2e 83 3f
       0.9535847 1.0387617 1.0210525 1.0248655
0000a0 66 23 77 3f 67 2e 70 3f a7 42 7c 3f a6 d0 85 3f
       0.9653839 0.93820804 0.98539203 1.04543
0000b0 d1 f6 7c 3f 4d 17 76 3f 85 56 7f 3f 41 46 89 3f
       0.9881411 0.96129304 0.99741393 1.0724565
0000c0 45 17 7c 3f 15 7d 79 3f 50 82 81 3f 4a 91 82 3f
       0.98473006 0.97456485 1.0117893 1.0200589
0000d0 87 62 85 3f 28 6c 81 3f 2e cc 81 3f df 53 82 3f
       1.0420693 1.0111132 1.0140436 1.0181845
0000e0 5f e2 79 3f 97 d5 74 3f 5a 56 7c 3f da d8 77 3f
       0.9761104 0.9563841 0.9856926 0.96815264
0000f0 ef ca 6f 3f a1 22 76 3f e2 68 76 3f 51 d2 7e 3f
       0.9366903 0.9614659 0.9625379 0.9953967

layer2.bn1.bias f4 [64]
000000 2c 88 00 bd 2d 23 9e bc 18 7b 4b bd 64 4b 6a bd
       -0.031379864 -0.019303882 -0.04967794 -0.057200804
000010 a8 37 be bd 8d cb 97 bc 2b d2 82 bd 42 93 b8 3b
       -0.09287959 -0.018529678 -0.063877426 0.005632789
000020 6f 7b 58 bd 84 f7 9f bd 8f 27 0d bd ba d0 d9 3b
       -0.05285209 -0.07810882 -0.034461554 0.0066471966
000030 5e 0a af bc 24 d1 b6 bd 46 fd bd bd 75 8e 99 bd
       -0.021367248 -0.08926609 -0.09276824 -0.07497875
000040 01 ae d0 bd d9 88 03 be b8 8d 5c be 89 31 e7 bd
       -0.101894386 -0.12845172 -0.21538436 -0.11288745
000050 ef 25 6a bd 6f 9e 2f bd 97 ac fb 3b cb b6 e7 bd
       -0.057165083 -0.042875703 0.0076804864 -0.11314162
000060 39 fe cf bd 94 6b 81 bd 79 50 80 bd c5 f8 e2 bd
       -0.10155911 -0.06319347 -0.06265349 -0.11082605
000070 4d 02 98 bb e4 72 8e bd 69 dd 95 3c 9f 5b 07 be
       -0.004638946 -0.069555074 0.018294053 -0.13218544
000080 25 22 80 bd 6e 1b 10 3c 62 31 48 bd 63 e3 66 bd
       -0.062565126 0.008795602 -0.04887522 -0.056369197
000090 3c 46 56 bd d9 e7 97 bd 1a b3 a5 bd f2 b7 df bd
       -0.052313074 -0.07417268 -0.080908015 -0.10923757
0000a0 5d 55 e5 bd e5 c2 09 be 79 a0 38 bd c2 a3 8c bd
       -0.111979224 -0.13453253 -0.045074914 -0.06867172
0000b0 4e 3b 9a 3c a9 de 24 bd f8 11 f3 bb 7e 24 7b 3d
       0.018827107 -0.040251408 -0.0074179135 0.0613141
0000c0 9f c4 b2 bd 59 a9 ef bd 22 eb 8a bd 9d 4c 62 bd
       -0.08728909 -0.117022224 -0.06783129 -0.055248845
0000d0 aa 63 68 3c 9d 5e c7 bd f9 8d 23 bd 26 55 bc bd
       0.014183918 -0.09734843 -0.039930318 -0.09195928
0000e0 64 48 8a bd 58 11 8d bc 21 9d 21 bd b2 4f 03 be
       -0.06752089 -0.017220184 -0.03945649 -0.1282337
0000f0 71 d1 0b bd 81 38 65 bd 04 3e 82 bd 42 16 26 be
       -0.034135286 -0.05596209 -0.06359485 -0.16219428

layer2.bn1.running_mean f4 [64]
000000 e6 cc 09 c0 31 57 b3 bf a1 6f 6d 3e 72 1a a9 3f
       -2.153131 -1.4010984 0.23187114 1.3211195
000010 90 99 94 be 1a 36 13 c0 78 2b 8c be 72 57 ac be
       -0.2902341 -2.300177 -0.27376914 -0.33660465
000020 3c 2c 23 3f 66 5a c9 3e 14 6c c7 bf b5 a8 1f 3e
       0.6373937 0.3932678 -1.5579858 0.155917
000030 a7 c4 91 bf 3b 9a 87 bf 3c 0d c9 bf 05 ea 61 bd
       -1.1388139 -1.0593942 -1.5707164 -0.05515482
000040 91 7f 90 bf a7 6d 21 c0 74 ce 70 3e 1b 4b 21 bf
       -1.128893 -2.5223176 0.23516256 -0.63005227
000050 c3 dc cb bf 56 2a fb bf 69 c8 c3 be fe 0c 93 bc
       -1.5926746 -1.9622295 -0.38238838 -0.017950531
000060 e4 0e 1b bf f2 ef 59 3e 43 ed 9f bf c3 35 b1 3c
       -0.60569596 0.21282938 -1.2494282 0.02163208
000070 a2 e8 f7 3e 3b 83 b5 3d 22 17 8b 3e a0 9e 81 3f
       0.48419672 0.08862921 0.27166086 1.0126534
000080 01 d4 de bf e3 c9 c5 bf d7 d2 6e bf 1c 03 9a 3f
       -1.7408448 -1.5452236 -0.93290466 1.2032199
000090 b8 a0 c9 bf a7 95 3b bf 5b e4 d9 bf 2f b6 9c be
       -1.5752172 -0.73275226 -1.7022814 -0.30607745
0000a0 d8 b6 8d bf 1e b6 1e bf 6b 83 57 3e c9 2d ed 3f
       -1.1071424 -0.6199664 0.21046226 1.8529598
0000b0 de 0b be 3e 63 9d 8b bf b5 6e 81 bf 9b 46 19 bf
       0.3711843 -1.0907406 -1.011191 -0.5987336
0000c0 c7 02 43 bf 25 ef 68 bf 02 67 e8 3e 9b 80 38 bf
       -0.7617611 -0.90989906 0.4539109 -0.72071236
0000d0 16 07 b5 bf 05 4e 94 bf 75 13 f3 3e d3 99 83 3c
       -1.4142787 -1.158631 0.47475782 0.01606456
0000e0 10 94 4f bf df 41 63 bf c7 05 e3 be bc 01 87 bf
       -0.810853 -0.88772386 -0.44340345 -1.0547404
0000f0 88 da df be b0 75 83 3e 9d 24 b1 be 7d c4 b1 be
       -0.43721414 0.25675726 -0.34598246 -0.3472022

layer2.bn1.running_var f4 [64]
000000 0c 52 1e 3f 7d af 2d 3f 15 dd ea 3e ac 87 0a 3f
       0.61843944 0.678459 0.45871797 0.5411327
000010 7e 72 37 3f 8e 43 87 3f bc 23 ef 3e c4 c9 1d 3f
       0.71659076 1.0567491 0.4670695 0.61635995
000020 63 c1 13 3f ce 21 1c 3f a4 d0 3b 3f 8f 99 fe 3e
       0.5771696 0.6098908 0.73365235 0.4972653
000030 19 fd f6 3e 12 d7 17 3f d6 96 12 3f 8f 94 35 3f
       0.48239973 0.59312546 0.5726141 0.7092981
000040 65 40 2d 3f b7 99 59 3f a9 e9 12 3f fc fb 22 3f
       0.67676383 0.85000175 0.5738779 0.6366575
000050 55 72 16 3f 30 75 08 3f 68 13 1f 3f 44 7a 29 3f
       0.58768207 0.53303814 0.62138987 0.6620219
000060 4f 9b 32 3f f5 09 26 3f 01 b8 19 3f 33 31 13 3f
       0.6976823 0.64858943 0.6004639 0.5749695
000070 ff 87 ed 3e af 10 08 3f 57 9d 08 3f 47 0f 29 3f
       0.4639282 0.5315046 0.5336508 0.66038936
000080 a6 db 23 3f d8 13 ee 3e 0f 08 0c 3f fb 56 0b 3f
       0.6400703 0.46499515 0.54699796 0.54429597
000090 ac ea 30 3f 00 ad 1f 3f 1e f1 27 3f d0 05 04 3f
       0.6910808 0.6237335 0.6560229 0.5157137
0000a0 3c e0 da 3e e1 5e 0a 3f dd f4 1a 3f bd 45 07 3f
       0.42749202 0.54051024 0.6052988 0.5284079
0000b0 d0 ae db 3e 8e 4b da 3e 1f 4c dd 3e 47 d1 42 3f
       0.4290681 0.4263577 0.43222138 0.7610058
0000c0 b0 20 16 3f de aa d5 3e 3b 48 08 3f bc a1 47 3f
       0.5864363 0.41731924 0.53235215 0.7798116
0000d0 a3 55 f8 3e 53 cf 09 3f bd 7a 13 3f ba 4e cf 3e
       0.48502836 0.53831977 0.5760916 0.4048975
0000e0 5a db 23 3f ef 01 42 3f 33 e2 34 3f 79 1b 49 3f
       0.6400658 0.757842 0.7065765 0.78557545
0000f0 64 f2 53 3f f9 bb 06 3f 1d e6 24 3f ea 55 35 3f
       0.82791734 0.52630574 0.64413625 0.7083422
