artifacts/model_resnet_fold_2.pth (torch, 472227 bytes, 47 tensors)

stem.0.weight f4 [32, 8, 5]
00000000: f8dd 01bd fcf3 10bd c0cc 2ebd b36a 76bd
00000010: 658a 3c3c 877c 053e e5b3 e6bd bf51 54bc
00000020: 7437 a3bd 5128 c0bd f276 b13c 01f1 3a3d
00000030: 4e95 343d 0c4e 133d 179a 353c 4354 7dbd
00000040: 99d6 c2bd f937 343e 11a1 783e e9b1 313d
00000050: 86e1 7d3e e0f0 a1be 348c 77be 83bc fd3d
00000060: bba9 d6bc 52e7 323d 1619 a23d adcb b5ba
00000070: 08c2 163d f5f1 abbc 8013 f6bd 40f3 0c3e
00000080: 608d e3bd 20ce 28bd d0ec 2a3e 87f6 d4bd
00000090: f434 b33d a316 083e 1df6 05be d8d7 e6bd
000000a0: 3f20 573e b7e9 123e 9046 52bd 45cc 23bd
000000b0: 3535 06bd 3ada ad3c 7920 dc3d 8a4f b5bb
000000c0: bc12 04bc 476e 86bd 9073 18be 7d31 02be
000000d0: 1b0d 2bbd 3cf3 023e 1657 2c3d cd31 2e3e
000000e0: 267a 463e e7f2 393d ef5f 58be 0626 67bc
000000f0: f588 0bbd 32f5 ddbd 1da6 01bc 8676 8d3d
00000100: b1e1 673b 92c7 fb3d 8708 09be 7201 c6bd
00000110: 98cb 76bd df07 883d 23df 1e3c a7a0 85be
00000120: 5071 a23d 2b76 91bd 6fe9 cc3d 7dd7 d0bd
00000130: 92ff 21be 7b50 5a3d 4842 11bd 79d6 cdbd
00000140: 2752 823e c4a8 b2be 3599 0c3e 938e db3d
00000150: 7ce0 55be 6874 c33d 3745 1d3d 520b fabc
00000160: 6448 423b afd0 113d 9dba 44bd 9f23 0a3e
00000170: 7226 edbd c327 153d bc63 203d e131 5a3d
00000180: 7571 0b3b 1cfa 323d ee39 82bd c6b6 bbbb
00000190: ce61 82be b8c4 313e 551f 263d deb9 d03d
000001a0: a53a 6f3d 638c fa3c b5a6 a3bc 576f 06bd
000001b0: 0873 1cbd 1f90 38bd f864 fbbd 0e91 1f3e
000001c0: fa74 c2bd 4226 503d dbe0 453d 81f7 a63b
000001d0: 3504 a1bd a646 3d3d 4972 0fbe d7c1 913d
000001e0: cb44 e43d 419f dc3c 6c9e 8a3d 9cba 1dbe
000001f0: 7d83 9dbb 796d ebbc 6abe ad3d b9fd 91bd
00000200: 517a 6cbd 7876 0dbd 74f1 cfbd 35cc dcbd
00000210: e33d bc3d 0c29 3e3e 1ec2 c2bc a33f 06bd
00000220: 0696 f13d 8b0b 9b3d 4b72 57be ef25 4bbe
00000230: 13bf 2e3d 4a24 a5bd e980 22be 7a25 933d
00000240: bf70 273e 289a a63c d7de e03c d32f 07be
00000250: bbc3 223e 3068 e1bc e4a9 f73d d58a babd
00000260: 1537 36be 3928 883d d168 dc3d 6b71 923d
00000270: 0552 8c3e 0ab6 373e acbb 183c cb66 253e
00000280: 1183 363e b10f 17be 592c af3d 945d d63d
00000290: 98bb 343d a894 02be 1c2f 343d 7209 a6bd
000002a0: 696b a8bd ac78 e4bc ac31 79bd 87f8 02be
000002b0: 72a0 15be b6bf 0ebe 0157 55bd eec2 003e
000002c0: 9a7f 21be ff21 953e 4e57 db3d ad4a 79be
000002d0: ef59 09bc 1922 153e 5fdb 8f3e 6478 51bd
000002e0: 176d 52bd 9a14 b1bd 0ff5 b03d 9228 35be
000002f0: 3b0e 7c3c 173b f03d ca1f 96bc 5aab 5bbc
00000300: 60d6 f0bd 2f8a 79bc 5915 13bd 6dd7 e4bc
00000310: d78a 97bd 92f4 66be 7def 91bd 2ca1 f83d
00000320: e25c 1ebe 8ea7 9abd 3e5a 1a3d bb23 b13d
00000330: 9b64 303d f5c9 ab3d ea1b 4f3e 7842 0a3e
00000340: fe0d a63a 2a84 2fbe 766f 20be ccf6 123e
00000350: 3d84 bc3d a1e3 a4bd 6c8b a5bc 9270 2a3d
00000360: 8336 95bd 4194 5f3b e1c3 233c 3c3d e23d
00000370: b433 0fbe 29bb 34be bdfc d1bd c7f0 e83d
00000380: c623 a4bd 10c0 433d 2291 a13d f2c0 9cbd
00000390: 9bcc 09be 1a85 423e 1816 e73d 8c57 533e
000003a0: 49b6 8b3d 864d 93be 069f f43a 21cf 36bd
000003b0: 7a86 7abc 9d1f c33d 619d 4b3e 3143 0cbe
000003c0: 755a 9cbd e6be 34be b85a aebd 5486 a43d
000003d0: 745a c9bd 92ef 2e3e 4257 b7bd 9b26 ab3d
000003e0: 751e 92bd 3c83 cebb 70fe 0b3d ed1a 5cbc
000003f0: 90e4 21be 3263 0f3e aa02 29bd 4fc6 8ebd
-0.031705827 -0.03538893 -0.042675734 -0.06016035 0.011507605 0.13035785 -0.11264781 -0.012958943
-0.07969561 -0.0938269 0.021663163 0.045639995 0.0440877 0.035963103 0.011084101 -0.061847936
-0.095135875 0.17599477 0.24280192 0.04338256 0.24793062 -0.31629086 -0.24174577 0.123894714
-0.02620398 0.043677635 0.07914941 -0.0013869904 0.036806136 -0.020989398 -0.12015438 0.13764668
-0.111109495 -0.0412122 0.166919 -0.10398584 0.087503344 0.13289885 -0.13082166 -0.11271638
0.21008395 0.14346968 -0.051336825 -0.03998973 -0.032765586 0.021222223 0.10748381 -0.0055331634
-0.008061107 -0.065640025 -0.14887834 -0.12714191 -0.041760545 0.12788099 0.04207524 0.17011185
0.19382533 0.045397665 -0.21130346 -0.014108187 -0.03406616 -0.10837783 -0.00791314 0.06907372
0.0035382325 0.122939244 -0.13382159 -0.096682444 -0.060252756 0.06642126 0.009696755 -0.2609913
0.07931769 -0.07102617 0.100054614 -0.10197351 -0.15820149 0.05329941 -0.0354636 -0.10050673
0.25453302 -0.34894383 0.13730319 0.10720553 -0.20886415 0.09543687 0.038396087 -0.030522976
0.00296452 0.035599407 -0.04802953 0.13490151 -0.115795985 0.036414873 0.039157614 0.053270224
0.0021277342 0.043695554 -0.063587055 -0.0057285754 -0.25465244 0.17360198 0.040557224 0.10191701
0.058405537 0.03058452 -0.019976953 -0.032821026 -0.03819564 -0.04505932 -0.12275118 0.15582678
-0.09494968 0.050817735 0.048310142 0.0050954227 -0.078621306 0.046209954 -0.1400844 0.0711705
0.11145934 0.026931407 0.06768498 -0.15403217 -0.0048069344 -0.028738724 0.08483584 -0.07128472
-0.057733838 -0.03453681 -0.101534754 -0.10781137 0.091914915 0.18570346 -0.023774203 -0.032775532
0.11796193 0.07570561 -0.21039693 -0.1983869 0.04266269 -0.08063562 -0.15869488 0.071848825
0.16351603 0.02033718 0.027450008 -0.13201837 0.15894978 -0.0275155 0.12092951 -0.09108511
-0.1779445 0.06648297 0.1076218 0.07150539 0.27406326 0.17940536 0.009322088 0.16152494
0.17823435 -0.1475208 0.085533805 0.10467067 0.044124216 -0.1275202 0.04399024 -0.0810727
-0.08223612 -0.027889572 -0.060838386 -0.12790118 -0.14611986 -0.1394032 -0.052084927 0.1257436
-0.15771332 0.291275 0.107100114 -0.24344893 -0.008383258 0.14563788 0.28097054 -0.051140204
-0.051373567 -0.086465076 0.08640491 -0.17691258 0.015384252 0.117300205 -0.018325705 -0.013407553
-0.11759639 -0.015230699 -0.03590903 -0.027934754 -0.073995285 -0.22554234 -0.07125757 0.12140116
-0.1546512 -0.0755149 0.037683718 0.08649393 0.043064695 0.083881296 0.20225492 0.13501918
0.0012668965 -0.1714026 -0.15667519 0.14351958 0.0920491 -0.08051229 -0.020208083 0.04161126
-0.07285788 0.0034115466 0.009995432 0.11046836 -0.13984567 -0.17649521 -0.10253284 0.1137405
-0.08014636 0.047790587 0.0788901 -0.07653989 -0.13456957 0.18996087 0.11283511 0.20638865
0.068218775 -0.28770083 0.0018663115 -0.044631127 -0.015290851 0.09527514 0.19884254 -0.13697506
-0.07634441 -0.17650947 -0.08513397 0.080334336 -0.09831706 0.17083576 -0.0895219 0.08356973
-0.071347155 -0.0063022655 0.034178197 -0.013434154 -0.15809846 0.14002684 -0.041262306 -0.06971418

stem.1.weight f4 [32]
00000000: 3ab1 863f 02cc 793f 2ffd 853f ffb2 643f
00000010: 6c5c 713f 7e55 823f 7492 873f 2cf9 813f
00000020: 1fbb 773f c63b 863f 453a 8c3f d814 803f
00000030: 278b 8b3f be9e 823f d7ef 7e3f 0e11 7e3f
00000040: 6e1e 7f3f aa35 843f e5a5 7d3f e4d7 803f
00000050: e726 823f 79bb 813f 9812 8d3f 4ff0 873f
00000060: 44c3 833f 41a3 813f 92db 7c3f ac8b 823f
00000070: f92c 833f 2782 823f 40f0 7d3f 4f3b 913f
1.0522835 0.97576916 1.046789 0.89335626 0.9428165 1.018234 1.0591569 1.0154166
0.967699 1.0486991 1.0955282 1.0006361 1.0901841 1.0204694 0.99584717 0.99244773
0.99655807 1.0328877 0.9908126 1.0065885 1.0168122 1.0135337 1.1021299 1.0620211
1.0293965 1.0127946 0.9877254 1.0198874 1.02481 1.0195969 0.9919472 1.1346225

stem.1.bias f4 [32]
00000000: 9099 203d be1f 3c3c 9baf bd3c 65de 0e3e
00000010: a792 d43d 1af7 d2bc 33b0 383d 761d 1b3e
00000020: 7cbb d63d c550 f83c a2a2 3bbd 9289 3b3d
00000030: 7d00 f1bc 1c58 33be ee18 46bd e863 903d
00000040: cbe8 07bd 3e34 09be d7a5 2b3d 7ea3 c33c
00000050: d063 0f3e 991a 543e 802e 19bd 6849 eb3d
00000060: d949 37bc 1252 193e b71f 99b8 18b2 3d3e
00000070: 1668 273e 79b3 ee3c 4084 f1bd f23b 18bd
0.03920895 0.011482177 0.023155024 0.13952024 0.10379534 -0.025752593 0.04508991 0.15147957
0.104849786 0.030311951 -0.045809396 0.045785494 -0.029419178 -0.1751408 -0.04836362 0.070503056
-0.033180993 -0.13398835 0.041906204 0.02388167 0.14002919 0.20713271 -0.03739786 0.114886105
-0.01118704 0.14972714 -7.301516e-05 0.18524969 0.163483 0.029138314 -0.11792803 -0.037166543

stem.1.running_mean f4 [32]
00000000: 33c7 523a 38a5 473c 0f10 09bb f6f8 93bc
00000010: 0d27 a43c 3196 cabb 583d 923b 234f b5bb
00000020: b3fc 32bb 17ea 94bb 928b 8c3a 3ae4 87bb
00000030: 82c1 a73a 29e7 c2ba 5efe 593c b56f 44bb
00000040: 4318 e8bc 8fa6 e73b 2683 36bc 5cd4 a43b
00000050: b907 9fbb d433 1f3c e9ec 03bc 0d30 c9ba
00000060: 948e d9ba e7ee 87b9 c97c d6ba 18ce dfbb
00000070: c23e 863a bfcc ba3b cdfb 0e3d d7f0 863b
0.0008040547 0.012185387 -0.0020914113 -0.01806305 0.020038152 -0.006182455 0.004462879 -0.0055331155
-0.0027311265 -0.0045445072 0.0010722748 -0.00414708 0.0012798759 -0.0014869916 0.013305275 -0.002997381
-0.028331881 0.007069416 -0.011139667 0.005030198 -0.0048532155 0.009716947 -0.008052089 -0.0015349403
-0.0016598278 -0.00025927203 -0.0016364093 -0.006829988 0.0010242092 0.005700677 0.034908105 0.004118066

stem.1.running_var f4 [32]
00000000: 1fc7 753e e7b7 af3e 5d98 c33d f654 a83e
00000010: 61bb bf3e 56a1 d63e 1582 2c3e c34d 623e
00000020: 828a a03e 7564 a13e b230 333e 049e 3a3e
00000030: c89e 993e f64b 563e 2bea 1f3e 21f8 1c3e
00000040: caf7 d73e 0aa7 b93e f7c2 263e e1ca 273e
00000050: 3f6b 013e bdab 6b3e 5ef6 7a3e af74 e63e
00000060: d4ea bd3e 094e 7a3e 7853 203e 9579 353e
00000070: d6fa 183e b92e 813f de5c 373f 5a8f 553e
0.2400174 0.34319994 0.09550545 0.3287732 0.37447646 0.41919965 0.16846497 0.22099976
0.31355673 0.31521955 0.17499045 0.1822434 0.30003953 0.20927414 0.15616672 0.15329029
0.42181236 0.36260253 0.1628531 0.16385986 0.12638567 0.23014732 0.24508044 0.45010898
0.37093222 0.2444383 0.15656841 0.17722161 0.14939436 1.0092384 0.7162608 0.20855466

layer1.conv1.weight f4 [32, 32, 3]
00000000: cc75 63bd a477 dabc e500 783d 3014 97bc
00000010: ba1e f13c e673 e93c e133 a1bd 8000 ae3c
00000020: 0706 69bd 30e1 3b3c 10bc d1bd 437d 38bd
00000030: 6f81 9dbc 9e68 03be 3b7a 033d a014 ae3d
00000040: 20ca a7bc 77f6 1f3b 260e a23b 6b94 f33b
00000050: b502 ab3c 81a8 983d 2ea6 27bd a686 e43d
00000060: e898 0c3c ef60 953d baae 863c 2bef 29bd
00000070: 3b27 cbbc eb0e b43d 8fa0 4a3c b920 8c3c
00000080: 89bd 57bc 8e95 a5ba ea67 0f3e 9ab6 8b3b
00000090: 75c9 9cbd 0774 d5bd 58f5 23bc 3c80 2a3d
000000a0: d74f df3c 2400 df3d 426b 0bbe 89da 14bd
000000b0: 1cb9 ecbc ce95 e93d e1c7 9a3d cb42 4abb
000000c0: 9aae 863b 3e9c 5c3c 5bac 72bd 2723 8c3c
000000d0: 53f8 cf3d 44c3 95bc e333 823c c791 02be
000000e0: 1e52 453c e757 9cbd 12bb 0abe 3fdd 2ebe
000000f0: bbf9 a03c 5166 ccbd df13 1f3d 18b9 14be
00000100: c234 ddbd a013 d0bd e9c3 1d3d 44a3 c03d
00000110: 3e5b 21bd 13e9 0bbe 2ec2 07be 1027 2bbe
00000120: db34 903d fad6 01be 8164 c63d 37d2 1fbd
00000130: f729 c4bd cf93 cabd 673c 823d 893f c43d
00000140: 90f2 1e3d 5028 98bd 8b36 00be 4cf7 18bd
00000150: e170 a63d 4d1e ee3d ae17 5c3d 3298 853d
00000160: d09d c7bd 7646 1c3d 2b65 c93d 38df de3d
00000170: 1694 6abd c400 c13d 772c 1dba 514c 1f3e
00000180: bbda 6abc 58f8 07bd 9abd c6bd d8a2 31be
00000190: 9b04 cdbd 240d 34be 44e0 35bd 5f2a 51bd
000001a0: d7a7 ca3c 6ecc 7cbd ecb7 a2bc 84a6 75bc
000001b0: f087 7dbc dde8 863c 92c1 7b3d 362e c8bd
000001c0: bc08 0cbe 6c29 2ebd 2304 3dbe 5e2a 3ebe
000001d0: d792 90be df1c 23bd 2a8c a2bd 8800 003d
000001e0: 2892 ea3c 20ce 4d3d 233c 883b ee86 823d
000001f0: 4c47 be3c df01 173d e7a6 b53d aaff 75bc
00000200: 43f7 df3c dbe2 e9bd 8bf8 4c3d 3d11 89bd
00000210: 9978 213d 06af 19bd 1aaf 9abb 80bd a03c
00000220: cd3d 6b3c 47b6 2d3d 24d4 343d 04c9 383e
00000230: 93fc 283d dc90 503d 4df6 4fbe c51b d03d
00000240: 0972 073c e2c5 063d ab9c 0a3e 2beb 00be
00000250: 007e 943d e4b3 1bbd e0de 8abb e542 55bd
00000260: bcba 83bd 508b 0b3d 4506 303e 93d5 3c3d
00000270: 963e c03c 4fe5 553c 73ef 9ebd 831f c9bd
00000280: f7c6 033e 3ef9 b0bd 6053 dd3d eec8 6d3d
00000290: cded 073e 3170 9f3d 4bb5 c23d 30f4 af3d
000002a0: 9677 04bd 614f ab3c 5dfc be3c 1ea9 96bd
000002b0: 5a8c 91bd 5947 4dbd e93f a2bd 9d02 33bd
000002c0: e51e 7bbd f387 0cbe a92d 1fbb d2fb b1bc
000002d0: d81e a63c cf19 92bd fc23 163e 4509 3a3d
000002e0: 01f3 ddbc 538a 8c3d 2271 09bc bc6f b73c
000002f0: 94cb 063d d841 373b 5b4d c6bb 6fd1 79bd
00000300: c83c 823c 3391 543d 3c14 32bd d5fc bf3d
00000310: ed6e c53c ea21 973c db47 80bd 5438 47bc
00000320: 4ac5 5abd f8b1 0f3c 3a67 83bc 5e22 403d
00000330: 5365 1abe c5f1 22be 18a8 d9bc 5939 263e
00000340: 2342 563e 0df5 a43d be69 823c 01a3 063e
00000350: 8290 853c b76a 8f3d f5d2 e1bd 17c0 09be
00000360: 58f3 b0bc 9929 b9bc 2427 413e 79d1 78bd
00000370: 6baf fdbd be40 10be 53b6 f83b ee72 eebc
00000380: ad39 853d a4ac d13c 13d9 6c3d db15 a6bd
00000390: 6439 82bd 1279 70bc e45f 12be 4ead a53d
000003a0: 15ed 503d a9de 593e 4825 e7bc 3a55 17be
000003b0: c7d6 af3c 9175 6abd 44ee 6e3d b3bb 40bc
000003c0: 1ae0 e13d b29f 8e3d d0c6 993c e7c4 393d
000003d0: adb9 e43d a7d7 ca3c 75f1 ec3c 43ec 9fbd
000003e0: 1235 503c cb16 52bd 2a2a f93c d645 8f3d
000003f0: 1529 21bd f752 b6bd 3efd 28be 33cc 883d
-0.05553226 -0.026668377 0.060547728 -0.018442243 0.029433597 0.028497647 -0.07871223 0.021240473
-0.056890514 0.011467263 -0.10240948 -0.045041334 -0.019226758 -0.12832877 0.03209899 0.08500028
-0.020482123 0.002440838 0.0049455343 0.0074334643 0.020875314 0.074540146 -0.040929966 0.11158495
0.008581378 0.07293879 0.016440738 -0.041487854 -0.02479898 0.08791908 0.012367382 0.017105447
-0.013167747 -0.0012633072 0.14004484 0.004263711 -0.076556124 -0.10422521 -0.010007225 0.0416262
0.02725975 0.10888699 -0.13615134 -0.036341224 -0.02889686 0.11405526 0.07557655 -0.0030862566
0.0041101696 0.013464985 -0.059246402 0.017106606 0.10154786 -0.018281586 0.015893882 -0.12750922
0.012043504 -0.076339535 -0.13547924 -0.17076586 0.01965033 -0.09980453 0.03883731 -0.14523733
-0.108010784 -0.10159993 0.038516913 0.094061404 -0.039393656 -0.1366313 -0.13257667 -0.1671412
0.070413314 -0.12679663 0.09687138 -0.039018836 -0.09578317 -0.098914735 0.06359177 0.09582431
0.038805544 -0.07429564 -0.12520806 -0.037345216 0.08126999 0.11626873 0.05373352 0.065231696
-0.09746897 0.038153134 0.098337494 0.10882419 -0.057270132 0.09423974 -0.00059957005 0.15556456
-0.014334376 -0.033195823 -0.097041324 -0.17347276 -0.10010644 -0.17583138 -0.04440333 -0.0510658
0.024738235 -0.061718397 -0.019863091 -0.014993314 -0.015474305 0.01646846 0.0614639 -0.09774439
-0.13675207 -0.04251997 -0.1845861 -0.1857085 -0.2823703 -0.039822455 -0.079368904 0.031250507
0.028634146 0.050245404 0.0041575595 0.06373392 0.023227356 0.03686702 0.08869725 -0.015014568
0.027339583 -0.11420222 0.050041717 -0.06692741 0.03942165 -0.03752043 -0.0047205808 0.01962161
0.014357996 0.04241016 0.044147626 0.18045431 0.0412565 0.0509194 -0.203088 0.101615466
0.008266934 0.03290356 0.13536327 -0.1258971 0.07250595 -0.038013354 -0.0042379946 -0.05206575
-0.06432101 0.034068406 0.17189892 0.046102118 0.023467343 0.01305516 -0.07760515 -0.098204635
0.12868868 -0.08641289 0.10806918 0.05805295 0.13274308 0.07785071 0.09507235 0.08591497
-0.03234061 0.020911874 0.023313696 -0.07356475 -0.07106848 -0.05011687 -0.07922346 -0.043703664
-0.06130876 -0.13723736 -0.002428869 -0.021726523 0.02027838 -0.07133829 0.14662164 0.045418996
-0.027093412 0.06862321 -0.008388789 0.022392146 0.03290899 0.002796283 -0.006051702 -0.060990747
0.015898123 0.051896285 -0.04347633 0.09374396 0.024100745 0.018448789 -0.06263705 -0.012159426
-0.053410806 0.008770458 -0.016040433 0.046907775 -0.15077715 -0.1591254 -0.026569411 0.16232814
0.20923667 0.08054552 0.015919562 0.13148119 0.016304258 0.07002776 -0.11026565 -0.13452183
-0.02160041 -0.022602843 0.18862587 -0.060746644 -0.12386974 -0.14087197 0.007590094 -0.029107537
0.065051414 0.025595017 0.057824206 -0.08109637 -0.06358603 -0.014677303 -0.14294392 0.08089696
0.05100735 0.21276344 -0.02821602 -0.14778605 0.021464719 -0.057241026 0.058332697 -0.011763501
0.11029072 0.06964053 0.018771559 0.045353796 0.11168227 0.024761034 0.02892373 -0.07808735
0.012707965 -0.05129127 0.030415613 0.06995742 -0.03934582 -0.08902543 -0.16502854 0.06679573

layer1.bn1.weight f4 [32]
00000000: 8ec8 603f 298a 723f fb53 833f 92ef 703f
00000010: 57aa 653f c04a 753f 6bb6 763f 79bd 6e3f
00000020: 6bef 5e3f cd75 813f 9a69 763f 9454 6a3f
00000030: 5059 723f d15b 823f a2ef 7e3f 8981 833f
00000040: 4237 733f f010 713f a56b 7c3f 63f3 683f
00000050: 6fe3 703f 760d 7e3f a6b7 823f 728a 773f
00000060: 7165 7c3f 4e53 8e3f ad32 6c3f bd71 8a3f
00000070: c6b2 7a3f cf65 913f 2cdb 6e3f db69 843f
0.8780602 0.94742066 1.0260004 0.94115555 0.8971304 0.95817184 0.963721 0.9325786
0.8708407 1.0114075 0.96254885 0.91535306 0.9466753 1.018427 0.995844 1.0273906
0.9500619 0.9416647 0.9860175 0.9099638 0.94097036 0.9923929 1.0212295 0.96695626
0.9859229 1.1119173 0.92264825 1.081596 0.97929037 1.1359195 0.9330318 1.0344805

layer1.bn1.bias f4 [32]
00000000: 8fd1 4abe 7591 4dbe a69f 23be d32e 89be
00000010: 602a 46be 82ed 33be 212a 98bd ec69 2cbe
00000020: 745c a1be f29c 1abe 69d0 3ebe 9878 14be
00000030: 290d 01be e5bf a0bd 9849 51be c4d3 8abd
00000040: 69ac 47be aaf2 39be 58d9 19be dc2c 3dbe
00000050: e228 2bbe d2f1 67be 0685 2a3c 39f0 81be
00000060: 5ce9 7bbd c568 fbbd 9cc6 05be 83fa 0cbc
00000070: 102a 05be 89ab b83c c370 14be b775 bebd
-0.19806503 -0.20075019 -0.1597887 -0.26793537 -0.19352102 -0.17571071 -0.074299105 -0.16837281
-0.3151585 -0.15098932 -0.1863419 -0.14499128 -0.12602676 -0.07849101 -0.2043823 -0.06778672
-0.19499363 -0.18158975 -0.15024316 -0.18474144 -0.16714814 -0.22650841 0.010407692 -0.25378588
-0.061501846 -0.122758426 -0.13064045 -0.0086046485 -0.13004327 0.022542732 -0.1449614 -0.09299796

layer1.bn1.running_mean f4 [32]
00000000: ffcb 0fbf a2a5 1bbf 98f3 48bf 1b57 12bf
00000010: 67c6 cbbe e968 25bf b351 cbbe cf1f 64be
00000020: b975 2cbf 99a9 12bf 7e71 9ebe ee99 92be
00000030: 4f14 1cbe a9ae cbbc 5809 27bf 10b5 463f
00000040: 3d0e e6be f7d8 63be d78e a4be 33ca ccbe
00000050: f9fe 84be 3e1b 6abe f70a c73e dfad 45bf
00000060: 9b89 813c 28d1 55be 21ef 0cbf 7606 fdbe
00000070: bb95 1ebf b19d 383f 996d b9be 7557 f73e
-0.5617065 -0.6079961 -0.78496695 -0.5716416 -0.39799806 -0.64613205 -0.3971077 -0.22277759
-0.6736713 -0.57290035 -0.30945963 -0.28633064 -0.15242122 -0.024863558 -0.6524863 0.7762003
-0.44932738 -0.22250734 -0.32140228 -0.39998016 -0.2597578 -0.22861955 0.38875553 -0.7721843
0.015812686 -0.20880568 -0.5505238 -0.49418992 -0.6194722 0.7211562 -0.3621643 0.48308912

layer1.bn1.running_var f4 [32]
00000000: 92e5 a03e e7ef c23e 3fd6 603f 7422 ec3e
00000010: 7133 dc3e 1827 483f 6e3a 0c3f 50ab c63e
00000020: 0c9d 333f b81f 693f f744 b13e b83d 0c3f
00000030: 0ae6 a03e d097 d03e 86e3 1d3f 2d24 4c3f
00000040: c3a0 c73e 4ee8 b03e 206a c03e 2d90 ad3e
00000050: 1eaf ca3e 80fe f13e c98c 143f 6f76 343f
00000060: 4f5d c73e adbb 0f3f 799a ae3e 0b27 333f
00000070: 7cec 403f 4274 053f f080 cf3e 12ed f33e
0.31425148 0.38073656 0.87826914 0.46120036 0.43007997 0.7818465 0.54776657 0.38802576
0.7016151 0.91064024 0.34622929 0.54781675 0.31425506 0.40740824 0.616753 0.797427
0.3898984 0.34552234 0.37580967 0.3389906 0.3958673 0.4726448 0.5802732 0.70493215
0.38938376 0.56145746 0.34102228 0.6998145 0.75360847 0.5213052 0.4052806 0.47641808

layer1.conv2.weight f4 [32, 32, 3]
00000000: 7da8 203e b915 883d 0f36 ad3d 4e4a 3fbc
00000010: b9be 513d b429 153d c22d 81be 1be4 8ebd
00000020: c26a a23d 48d9 ecbd 3c11 1fbc e2a0 d3bd
00000030: 5edb 303e 6954 b0bd 2e96 793d 10dc c13d
00000040: 9879 663d 2188 d5bd fbb7 a23c 8277 f9bd
00000050: d1f9 babd 916c f23d c539 803d 8d9f 103d
00000060: c3ab c03d 58bd b43d 6b8a 03be 23b4 35be
00000070: 8731 8fbe d8b1 a1bb 1ea1 193e 6eb1 40bc
00000080: acf3 93bd 1a24 8c3d 0791 393c 5916 ecbd
00000090: cca2 b63d b060 31bd 90c6 fdbd 8cd6 a2bd
000000a0: b33b 0d3e 6d00 be3d b953 06bd a0a6 b83d
000000b0: a45b 293d 3840 173d 0c7d 253c 467a d93d
000000c0: d513 d13d fdc0 6f3d dbbd f0bd 6c34 193e
000000d0: 7eef 453d c0ff e93d d582 073e 7db2 41bc
000000e0: ab58 f63d 27e9 423d a792 6f3d 6289 9e3c
000000f0: ab08 85bd 4391 68bd a798 ca3b e100 5fbe
00000100: e070 37be a32e 983d 2e0a 23bd 2755 a83c
00000110: 0311 203d b490 93bd 69d7 f13d e3f7 e13d
00000120: 91ce b03d f7de a93a 52b8 993b ea98 1a3d
00000130: c5b4 aabd e55b a2bd e047 f93d f44c c33c
00000140: ea96 433e 6512 923c 4490 68bd 3d1e 673d
00000150: 960c 09be fdbd 54bd 7a6b 593d 17b9 a53c
00000160: 451c 07bb 4680 f1bc 7884 6a3d 702e e03c
00000170: 6b81 4a3d 2091 a43a 4aa9 d53d a298 0bbb
00000180: 0d10 3e3d df2d 1a3e e1f5 113e 9247 0d3d
00000190: 5cce 153d d674 96bb 276c 5d3b c43e b63d
000001a0: 6c72 e23d a671 f1bb 42a6 7ebb 29c3 3b3d
000001b0: fc84 58bd 0079 babc 68f3 bf3d 8440 53bd
000001c0: 8ecb 9e3d 8bdf c0bc b58f 8b3d cdae ed3d
000001d0: 4571 86bc e45a 57bd 4244 c93d ce9c 34bb
000001e0: e591 a33d 723a 5f3c 7a38 6eba c00c ed3d
000001f0: 6517 783d 5ea8 23be 71dd bc3d 9c1c 2cbd
00000200: f004 85bd 018d e33c 6da4 ea3c 0945 003d
00000210: 705d dfbd 02d0 153d b76b 293d 97d2 5fbd
00000220: 1e55 fb3b e7df 003d 212b d1bd 3024 cabd
00000230: d45f 06be 14ba f3bc 288d 42be 5677 e7bd
00000240: 16be 05bd 4a2d 9c3c b5c8 12be b711 99bd
00000250: 8b3a 19bd e9a0 36be 95ec c73d 9fa3 61bd
00000260: 4dc0 38bd 061f f2bd 7e64 23bc 43ad 2abb
00000270: 3dc2 9dbd e188 78bc 49da a43d b997 78bd
00000280: 7a8d 09be 4881 1fbe 9b44 01bd 37ef 3abe
00000290: 7ae2 123d 3935 67bd 56a1 8d3d 4f75 163e
000002a0: d6f6 a2bc 9f5a a93d 9835 37bd a02e d23d
000002b0: 23c7 0abe 1182 fb3d fc43 ce3d 95ec 1e3d
000002c0: 1677 913d 98b0 973d dc20 4b3e f32c 0a3b
000002d0: 61ce fb3c cf74 8e3d 7719 c23c ea38 f1ba
000002e0: 4b9f 05be aa40 28be f0fb 6ebd 6e8c ba3d
000002f0: 53d8 903d 387d 77bd e2fb 16be 7998 4bbd
00000300: 61ec bebd 5e8c 58bd 620e 84bd 3fe5 023d
00000310: 981c 9cbd ff58 5cbd ec34 a3bd c29d d63c
00000320: 349e 47bd 94f6 263d 4a5d 093e 6585 2bbd
00000330: aee0 40be 705e e2bd 1e62 8fbd 742f 2939
00000340: faa0 f5bd f2bc 41bc 1fd4 733c 6734 ccbc
00000350: 74e3 4cbd 53e0 08bd c6dd 033b 63e9 d23c
00000360: e92c 1d3d 5a0a f63c e59e a1bc e893 07be
00000370: f90e f93c aed4 893d d68d 43bc fe7c 9abd
00000380: 3549 8cbd 441d 6fbd 3866 06be 8a32 4bbe
00000390: 111a c3bd d4dd 3a3d aab4 c73c 7ac4 e3bd
000003a0: eb98 633d b49c a43d 5ebb adbd f9b5 5ebd
000003b0: d7df 8abd 2499 383d b25e 10be be56 92bd
000003c0: 9c50 cbbd df32 8c3d 37fc f5bd 83cf d9bc
000003d0: 43f7 bcbc 7013 5a3b cec7 c6bd b53b a93d
000003e0: 399c 16be 6050 913d 4b0c 66bd 8bc2 063d
000003f0: dcd2 b13d aa1d fc3c f25c d7bd 4b4a b03c
0.15689273 0.06644768 0.084575765 -0.01167543 0.051207278 0.036416724 -0.25230223 -0.069771014
0.07930519 -0.115648806 -0.009708699 -0.1033342 0.17271182 -0.0860985 0.060934238 0.09465802
0.056268305 -0.10426355 0.01986312 -0.121809974 -0.0912968 0.11837114 0.06261019 0.03530841
0.09407761 0.08825177 -0.12845771 -0.17744498 -0.27967474 -0.0049345307 0.15002868 -0.0117610525
-0.07224211 0.06842823 0.011326081 -0.115277 0.0891777 -0.0433051 -0.123913884 -0.07951078
0.13792305 0.09277425 -0.032794688 0.09016156 0.04134716 0.03692648 0.010100614 0.10619025
0.10208861 0.058533657 -0.11754962 0.14961404 0.0483241 0.114257336 0.13233502 -0.01182234
0.12028631 0.047585633 0.058489468 0.019352619 -0.06495794 -0.056779157 0.0061827484 -0.21777679
-0.17914152 0.0743077 -0.03980463 0.020548416 0.039078724 -0.07205334 0.11808664 0.11033609
0.086331494 0.0012960125 0.004691162 0.037743486 -0.0833526 -0.07927684 0.12171912 0.023840405
0.19100538 0.017831037 -0.056778207 0.05642532 -0.13383707 -0.051939 0.053081013 0.02022986
-0.0020616215 -0.02948011 0.05725524 0.027365893 0.04943983 0.0012555458 0.1043268 -0.0021300693
0.046402026 0.15056561 0.14253952 0.034492083 0.036573753 -0.0045915646 0.0033786388 0.0889869
0.110569805 -0.0073682843 -0.0038856422 0.045840416 -0.0528612 -0.022762775 0.09372598 -0.0515752
0.07753669 -0.023544094 0.06814519 0.11605606 -0.016411433 -0.052576914 0.09827472 -0.0027559283
0.079868115 0.013624774 -0.0009087395 0.115746975 0.060569186 -0.15982196 0.09221924 -0.04201947
-0.064950824 0.027777197 0.028642857 0.031315837 -0.10906494 0.036575325 0.04136249 -0.054644194
0.007670059 0.03146353 -0.10213304 -0.098701835 -0.13122493 -0.029751815 -0.1899916 -0.113020584
-0.032651983 0.019064564 -0.14334376 -0.07474082 -0.037409347 -0.1783482 0.09761921 -0.05508768
-0.045105267 -0.118223235 -0.00997269 -0.0026043213 -0.07703064 -0.015169353 0.08049447 -0.06069157
-0.13432875 -0.1557666 -0.031559568 -0.18255316 0.035860516 -0.05644724 0.06915538 0.14693187
-0.019893091 0.08269238 -0.044728845 0.10262799 -0.13552527 0.122806676 0.10071561 0.03879984
0.07102792 0.074067295 0.19836754 0.002108392 0.030738058 0.06955873 0.023693783 -0.0018403803
-0.13049047 -0.16430917 -0.058345735 0.09108816 0.070725106 -0.060422152 -0.14744523 -0.049705956
-0.093224294 -0.05286824 -0.06448056 0.031956907 -0.07622641 -0.05379581 -0.079690784 0.026198272
-0.04873486 0.0407625 0.13414493 -0.04187526 -0.18835708 -0.11053169 -0.07001136 0.00016134774
-0.119935945 -0.011824833 0.014882117 -0.024927331 -0.050021604 -0.033417057 0.00201212 0.025746053
0.038372908 0.030034233 -0.019729087 -0.13240016 0.030402647 0.067300186 -0.011935672 -0.075433716
-0.06849901 -0.05837752 -0.13124931 -0.19843498 -0.09526456 0.045621708 0.02437814 -0.11121459
0.055565756 0.08037701 -0.08483003 -0.05437276 -0.06780975 0.04506792 -0.14098623 -0.07145451
-0.099274844 0.068456404 -0.12010997 -0.026588207 -0.023067122 0.0033275746 -0.097060785 0.08263341
-0.14708032 0.070954084 -0.056164067 0.032900374 0.08682796 0.030775864 -0.10515775 0.0215198

layer1.bn2.weight f4 [32]
00000000: 3d7b 573f 2ae2 693f d511 5e3f 0199 6a3f
00000010: 7eca 5a3f 11ec 4d3f 9669 473f d5fe 7e3f
00000020: 2854 7b3f 00a6 203f db1a 783f 7dfe 5b3f
00000030: c5cf 5a3f d53a 513f 2613 793f 04ea 6a3f
00000040: a58f 643f 4c64 623f 131d 583f 662d 683f
00000050: c4e2 6c3f 8a56 613f 087c 663f 2487 443f
00000060: 13c6 583f f1f6 6b3f 3201 643f 655c 4d3f
00000070: 2d63 5a3f 9e8a 5d3f a9ae 653f f805 593f
0.8417242 0.91360724 0.8674596 0.91639715 0.8546523 0.80438334 0.77895486 0.9960759
0.9817529 0.62753296 0.9691598 0.85935193 0.8547328 0.81730396 0.97294843 0.9176333
0.89281684 0.8843429 0.84419364 0.9069427 0.92533517 0.88022673 0.90033007 0.7676871
0.8467724 0.9217368 0.89064324 0.8021911 0.8530758 0.8653964 0.89719635 0.8477473

layer1.bn2.bias f4 [32]
00000000: 1c26 47bd 72e2 bbbd a7c9 1dbc d244 89be
00000010: bce4 2ebd 66a8 643c 6ec2 a2bd 0ee2 eebd
00000020: 1820 14bd e4b6 d63d 3cf6 c4bd 0cea b5be
00000030: 25b5 15be 1e26 f5bd f129 19bd 0ac8 b9bd
00000040: 9626 30be 347d 9fbd 09bc c8bd 7952 9f3d
00000050: 62ac 3ebe cab6 64bd b68e 253c c335 e73c
00000060: 005b 24be 686f eebd 3505 eabd 2557 82bd
00000070: 8d03 9bbd db6b 883d 0bf8 56be f402 5cbd
-0.04862033 -0.091740504 -0.009630597 -0.26810318 -0.042698607 0.013956165 -0.07947241 -0.1166421
-0.03616342 0.10484102 -0.09617278 -0.35530126 -0.14619882 -0.11970161 -0.037393514 -0.090713575
-0.1720222 -0.077875525 -0.0980149 0.07779402 -0.18620446 -0.055838384 0.010104826 0.028223878
-0.16050339 -0.11642343 -0.114267744 -0.06364278 -0.07569037 0.06661197 -0.20993058 -0.053713754

layer1.bn2.running_mean f4 [32]
00000000: 8603 693e deb0 2bbe d6c6 87bf 45b0 16be
00000010: 2b4e 44bf a41a 9abe f2a8 7c3e bd2d 14bf
00000020: eef9 50bf 1d4a d3be 3fd6 2ebf 6fed 73be
00000030: e11c c9be 6819 febe a6dd 24bf 89e1 a2bf
00000040: fbd8 bdbe 911a 00bf 6bf2 5abf 8f6b 57bf
00000050: 8aa0 88be 6c3a dfbe 5523 66bf 2925 143f
00000060: e933 fbbe 7b8a c1be 1011 77bf 96be abbe
00000070: 9e7b 90be 4888 8fbf fd14 f73d ef62 14bf
0.2275525 -0.16766688 -1.0607555 -0.14715679 -0.76681775 -0.3009845 0.24673823 -0.5788229
-0.8163136 -0.4126748 -0.68295664 -0.23821042 -0.39279845 -0.49628758 -0.6440071 -1.2725078
-0.37079605 -0.5004054 -0.8552615 -0.84148496 -0.26684982 -0.4359926 -0.8989766 0.578692
-0.49063042 -0.37800965 -0.9651041 -0.33543843 -0.28219312 -1.1213465 0.1206455 -0.5796346

layer1.bn2.running_var f4 [32]
00000000: 8242 dd3e 5c91 213f 1c97 3c3f 30d1 ca3e
00000010: 8798 063f 2b02 e03e 5d03 d23e bb4f 633f
00000020: 063a 8e3f aff3 d63e 7781 513f 5709 cd3e
00000030: 6f29 293f 3bb1 e33e 4693 4f3f 2814 2f3f
00000040: e2a9 183f cc59 393f c7c4 3a3f 38d4 253f
00000050: 925e 1f3f 83f3 743f 5f16 2c3f 918e 0e3f
00000060: ac59 063f 8627 f23e 0068 343f 8de9 063f
00000070: 3b47 2c3f 2cc7 3f3f 1da7 013f 33ad 253f
0.43214804 0.63112426 0.73668075 0.39612722 0.5257649 0.43751654 0.4101819 0.88793534
1.1111457 0.4198279 0.8183817 0.40046188 0.6607885 0.44471154 0.81084096 0.6839013
0.5963422 0.72402644 0.7295651 0.64776945 0.6225368 0.9568407 0.67221636 0.5568629
0.5248058 0.4729578 0.7047119 0.5270012 0.6729619 0.7491329 0.5064562 0.64717406

layer2.conv1.weight f4 [64, 32, 3]
00000000: ef21 e93c d3ac a5bd 00d9 493d 5de7 babd
00000010: c100 63bc f968 10bd 8f61 983b 01d0 ac3d
00000020: 113f eabc 784b debd 7c12 c13d 6510 9e3d
00000030: de96 543d 4f7c 15be 8759 abbd 5c05 83bd
00000040: 341e 26bc 0a76 2cbe a7b6 9bbd fc03 99bd
00000050: aa39 f0bd 1939 acbc 949b cfbc 4e9f 2f3d
00000060: e513 373b 0678 7e3c aee0 9dbc 11f2 633c
00000070: ced7 e3bd 8c42 0c3e 6148 873d 5b54 dbbd
00000080: 6098 9f3d 4e5b 84bd 86ce 8bbd d746 dfbd
00000090: 9f33 82bc 8e05 1f3d baf8 173c c5e2 b6bd
000000a0: 6365 07bd 195d c73d f019 ccbc 9d4f 043e
000000b0: d954 afbd d30c 113d 64a6 11be 5c30 00be
000000c0: fcd7 033d 7750 2b3e 5c3b 9b3d 2363 00bd
000000d0: 0d62 1dbe 2648 90bd 7acb 33be f8dc 7bba
000000e0: 7fee 113b 276a 99bd 5846 7a3d a8c2 0bbe
000000f0: 21d5 53be e44d 11be 1ca4 a73d cb19 debd
00000100: 0412 a8bc f979 8f3c 4bec e43c 87a9 b23c
00000110: 5d38 423a 1b40 07be 5efd fabd e5f2 043d
00000120: 171f a33c 2512 3e3e 41ac b1bd d70e 993d
00000130: c131 fa3d ad9b 903d 3ebb e5bd 8cbd 10be
00000140: e14d fdbd 4534 f7bc acbf 83bd e841 f73d
00000150: affc 1cbb 7206 d23d 2fe3 053e cc39 ac3c
00000160: 81fd a03d ab03 93bc ab01 a23c 0d1a 0dbc
00000170: f1fb e33d 2117 95bd a162 7c3c 4948 98bd
00000180: fb41 1cbd d27d dfbc 56a1 39bd d1f5 9e3d
00000190: d9a4 023a b6ba 33bd b0cf 0cbe ba60 b5bd
000001a0: 2293 35be 3513 373d 7385 03be c29b 48be
000001b0: d81a a5bd c856 3b3d 18ff bfbc 28cc 2c3d
000001c0: 5772 bdbd 5bb4 afbd 14d5 05be 4799 193c
000001d0: 7c4d e53c c763 67bd 8f21 eebd cc3d ddbd
000001e0: 9e40 9f3d 395a d63d 9b56 1ebd abea b6bd
000001f0: 0fcb 32bd b183 cf3d c831 f2bd a97e 32bd
00000200: 94c7 4ebd 549a f439 f8df 69bc 0223 85bb
00000210: 1dc5 1bbe ee0a 603d b82a 41be b3c7 b63b
00000220: 77c2 c2bd eded 94bd e920 1e3e ab7f 6fbd
00000230: fda6 903c 4593 9b3c ec7c 53bd 6648 c53c
00000240: a39b 103d 6af4 b9bc 6259 2dbd 9243 72bd
00000250: 199b c83d cb11 1a3e 5038 243b 9224 47bc
00000260: 44fa 023d b6ff c8bd e700 22be 1327 d33c
00000270: 9248 0dbe 5069 29be dd3c 10be 935e 0a3d
00000280: ac5f 72bd 6b71 2abe dbdf 893d 3245 88bc
00000290: 46bb 863d ba7d 70bb ca87 d0bd e6dd 07bd
000002a0: 7b5a 33bc 78f4 8d3c 1f3a 86bb 861b bd3c
000002b0: fe56 2bbd 4236 d5bd d6d5 8a3d e7e3 b3bc
000002c0: f71c e5bb e555 d53c d3e0 2a3c 6aca 003a
000002d0: c26b 8a3d 42bc edbd 0aed 62bd 4eef a1bd
000002e0: 73f1 3f3d e8c0 88bc 7d16 ae3c 7e5e 9cbd
000002f0: 05a0 b53d 164c 833d 8a91 85bd dd12 25bd
00000300: 9b82 b3bd 5527 f73c 8e4f 25bd 7e6a 59bd
00000310: c4bc 31bd 7fbf 9ebc b3bb 473c b18e a53c
00000320: c66f 983c 16bc 8d3d 1158 3a3d c83b 1b3e
00000330: 62aa 9f3d cb48 a9bb 3eec bc3a ca52 ecbd
00000340: 0e82 94bd 9563 11be fbba e7bd af07 45be
00000350: 29f9 b53d 30f0 b73d 4d2e a2bd f6bf a63d
00000360: 8f00 0dbe 1034 40bd 5da9 09be 6f54 0e3d
00000370: cade d3bd 2837 bb3d a0df 483d b510 433d
00000380: f0c2 2e3e 1b78 d33d d386 3c3d 32f0 673d
00000390: e281 fd3d 196b ae3d 3f9e 7cbd f6ce 283d
000003a0: 9f5e e9bd 8d04 a8bb 898b 1a3d 279d 413d
000003b0: 1a5b f5bd 66a0 a1bd b6c9 c83d 48a5 053e
000003c0: 718b c2bd 78bd b03d 73f2 893d f3ea 8ebd
000003d0: ed33 a5bc 1e65 be3d fb78 8bbd e920 aabd
000003e0: d119 78bd e111 f138 0fb5 663d 8de2 43bc
000003f0: aac2 443e c1e5 573d 263e d83d 0ede edbd
0.028458564 -0.08089604 0.049279213 -0.0912616 -0.01385516 -0.03525636 0.0046503018 0.08438111
-0.028594526 -0.10854238 0.09427354 0.07717971 0.05190169 -0.14598201 -0.08366685 -0.063975066
-0.010139037 -0.16841903 -0.076031975 -0.07471463 -0.117297485 -0.02102332 -0.02534274 0.042876534
0.0027935442 0.0155315455 -0.019272175 0.013912694 -0.11125146 0.1369726 0.06605602 -0.10709449
0.07792735 -0.064627275 -0.068265006 -0.109021835 -0.015893755 0.038823657 0.00927561 -0.089299716
-0.033055674 0.09734554 -0.024914712 0.12920995 -0.08561105 0.03541262 -0.14223629 -0.12518448
0.0321884 0.16729914 0.07579681 -0.031344544 -0.15369435 -0.07045011 -0.17558089 -0.0009607817
0.00222674 -0.0749095 0.06110224 -0.13648474 -0.20686771 -0.14189869 0.08185598 -0.10844763
-0.020516403 0.017514216 0.027944705 0.021809353 0.00074089115 -0.13208048 -0.12255357 0.032458205
0.019912286 0.18561609 -0.08675433 0.074735336 0.12216521 0.07060943 -0.11217354 -0.14134806
-0.1236837 -0.030176291 -0.06433043 0.120731175 -0.0023954322 0.102551356 0.13074945 0.021023653
0.07860852 -0.017946085 0.019776186 -0.008612168 0.111320384 -0.07279802 0.015404374 -0.07435662
-0.03814886 -0.027281675 -0.045319878 0.077617295 0.00049836707 -0.043879233 -0.13751101 -0.0885634
-0.17731908 0.04469605 -0.12843876 -0.19590667 -0.08061761 0.045737058 -0.023437068 0.042186886
-0.09250324 -0.08579322 -0.13069564 0.009374923 0.027991049 -0.05649164 -0.116274945 -0.108028024
0.077759966 0.10466427 -0.038656812 -0.08931478 -0.043650683 0.1013254 -0.11825901 -0.043577824
-0.0504833 0.0004665429 -0.01427459 -0.004063011 -0.15211911 0.054697923 -0.18863952 0.005578005
-0.095097475 -0.07271943 0.15442242 -0.058471363 0.017657751 0.018991122 -0.051632807 0.024082374
0.035304677 -0.022699554 -0.04232157 -0.05914647 0.097952075 0.1504585 0.002505798 -0.012154715
0.031976953 -0.09814398 -0.15820657 0.025775468 -0.13797215 -0.1654408 -0.14085717 0.0337816
-0.05917327 -0.16644828 0.0673215 -0.016634557 0.06578688 -0.0036696033 -0.1018215 -0.033170603
-0.010946865 0.017328486 -0.004096284 0.023084413 -0.04183101 -0.104107395 0.06779067 -0.021959258
-0.0069919783 0.026041934 0.010429579 0.00049129745 0.067588344 -0.11608173 -0.05540184 -0.07906972
0.046861123 -0.016693547 0.021250958 -0.076352105 0.08868412 0.064109966 -0.065219 -0.040301193
-0.087651454 0.030170122 -0.040359072 -0.053080074 -0.04339291 -0.019378422 0.012190747 0.020209642
0.018607985 0.0692064 0.045494143 0.15159523 0.0779617 -0.0051661483 0.0014413667 -0.11539228
-0.072513685 -0.14198144 -0.113149606 -0.19241212 0.08885414 0.08981359 -0.079189874 0.081420824
-0.13769744 -0.04692465 -0.13443513 0.03474849 -0.10345228 0.091413796 0.04904139 0.047623355
0.1706655 0.10325643 0.046027016 0.056625552 0.12378289 0.08516521 -0.061674353 0.041213
-0.11395001 -0.0051274956 0.037730727 0.047269013 -0.11980267 -0.07891922 0.09804098 0.13051331
-0.094992526 0.08629888 0.06735697 -0.06978407 -0.020166362 0.0929663 -0.068101846 -0.08307058
-0.060571495 0.00011495106 0.056325015 -0.011955869 0.19214883 0.052709345 0.10558729 -0.11614619

layer2.bn1.weight f4 [64]
00000000: af4b 6d3f 5dab 733f 06f0 823f 2240 7d3f
00000010: c669 753f 5e2f 673f 0998 893f c8d6 773f
00000020: 5ba3 7d3f 92a3 843f aa95 773f 89b2 803f
00000030: 181f 773f e5b6 813f 7dba 873f 04e9 7e3f
00000040: 2e86 893f dd0c 7e3f 1180 813f 2045 853f
00000050: 45a2 833f f636 813f cad4 793f de90 803f
00000060: 2ad7 893f 8e07 7d3f ced8 813f 817c 6e3f
00000070: 96bc 723f ab2c 823f 4816 843f 5d91 813f
00000080: c4ff 823f 1c6a 833f 324f 7a3f 7f17 7c3f
00000090: a7fa 853f b33e 7e3f d912 693f 3338 823f
000000a0: 7a4c 723f b483 7c3f bafb 783f 2d7f 783f
000000b0: 0a3f 773f 04c0 7f3f 8593 753f 61ad 733f
000000c0: e37e 833f 9334 7a3f 4879 803f a424 6e3f
000000d0: cea1 7d3f 2664 823f 0929 693f c5b9 7b3f
000000e0: d27b 833f 62b3 783f 20e4 803f 7f17 763f
000000f0: 919e 783f 19bd 803f 5bd5 733f 6c2f 7d3f
0.9269361 0.95183355 1.0229499 0.98925984 0.9586452 0.9030665 1.0749522 0.96812105
0.99077386 1.0362418 0.96712744 1.0054485 0.9653182 1.013394 1.0603787 0.99574304
1.0744073 0.9923838 1.0117208 1.041172 1.0283896 1.0094898 0.97590315 1.004421
1.0768788 0.9883965 1.0144289 0.9315873 0.9481901 1.0169882 1.03193 1.0122486
1.0234303 1.0266757 0.9777709 0.9847335 1.0467118 0.9931442 0.91044384 1.0173401
0.94647944 0.98638463 0.97259104 0.97069055 0.96580565 0.9990237 0.9592822 0.9518643
1.0273098 0.9773647 1.0037012 0.9302466 0.9907502 1.0186813 0.9107824 0.98330337
1.0272162 0.97148716 1.0069618 0.961296 0.97116953 1.0057708 0.9524743 0.98900485

layer2.bn1.bias f4 [64]
00000000: 18f5 bebd 025c c5bd 828f bcbb 46b6 0fbe
00000010: 281a 49be 9f89 0bbe d394 edbd a8ac 46be
00000020: fc9e edbd 7a84 90bd 1e38 16be 5584 23be
00000030: 06e9 eebd 7f43 c3bd 1e20 d0bd e0aa b7bd
00000040: 490d 17be cb37 58bd 7318 2cbe 39bf 54be
00000050: eb63 7ebd 6617 04be 87a3 1dbd 4232 02be
00000060: 007f 4a3d c0a1 3ebd ca15 c4bd b098 e8bd
00000070: cbe4 09be c3a7 f1bd 5405 b1bd acd5 9bbd
00000080: 6395 b9bd 5db0 763c 7923 32be 581e e4bd
00000090: 0611 d9bd 577f c7bd 051c dfbd feee ec3b
000000a0: a8c6 21be 7dfc 5fbe fe9f 1dbe 0d20 0dbe
000000b0: 48a6 74be c643 25be 9a24 35be 970e f8bd
000000c0: 8c42 4ebe 20de efbd 99a0 0abe a0ee 68be
000000d0: 8e52 17be 1d90 9fbd f601 62bd 4721 47be
000000e0: d658 76be 0888 f1bd 9305 29be b335 0abe
000000f0: a5ec 6ebe 38e1 5cbe 6da4 15be 5d67 12be
-0.09324092 -0.0963669 -0.005754412 -0.14034376 -0.19638884 -0.13626717 -0.116006516 -0.194018
-0.116025895 -0.07056518 -0.14669845 -0.1596845 -0.116655394 -0.09534358 -0.10162376 -0.08968139
-0.14751162 -0.052787583 -0.16806202 -0.2077607 -0.062107008 -0.12899551 -0.03848603 -0.12714484
0.049437523 -0.046540976 -0.095744684 -0.11357248 -0.13466184 -0.11799576 -0.086435944 -0.07609114
-0.090616964 0.015056697 -0.17396344 -0.111386 -0.1059895 -0.09741085 -0.10894016 0.0072306385
-0.15798438 -0.2187366 -0.15393063 -0.13781758 -0.23891556 -0.16139135 -0.17689744 -0.12112158
-0.20142573 -0.11712289 -0.13537826 -0.22747278 -0.14777586 -0.07791159 -0.05517765 -0.19446288
-0.24057326 -0.11793524 -0.16506033 -0.13497047 -0.2333246 -0.21570289 -0.14613505 -0.14297242

layer2.bn1.running_mean f4 [64]
00000000: ba90 8dbf 4be3 f3bf 12f1 a2bc 68e6 443b
00000010: e956 f1bd dbd8 cbbf c563 09c0 95ab c6bf
00000020: a839 8fbf baf0 67be 023a 8abe e83f f4bf
00000030: 4fab cbbf 868a 42bf 7cf3 07bf bf8e 5dbf
00000040: 751a abbf 509f afbe 9c92 efbf e7f0 0fc0
00000050: 53bc 56bf 642a c33e c9cc 543e 01e9 d0bf
00000060: 8be3 3dbf ac09 4ebf 00c5 a0be 2181 b9bf
00000070: 6526 013d 59d0 cdbf e67a 7ebf 27c8 c9bf
00000080: 9a7b c53e 55a1 2dbf c788 b6bf 06f6 67be
00000090: 8e4e 74bf 510d 74bf 999a e0bf ee14 8fbf
000000a0: be5a 23bf 347c 24bf 2a1d d7be c32a bbbf
000000b0: ed4f 0abf dd62 1cbf d7f2 6dbf cef4 03c0
000000c0: 5980 8dbe 2b4e 2abf bed9 45bf d5ad 03bf
000000d0: ae3f b9bf 15c4 56bf ee83 903e bd58 5b3f
000000e0: 6253 65be 9f93 25c0 e47c d2bf abd0 c93e
000000f0: 7da9 5cbe 1136 94bf 7e92 debe 63f7 a5bf
-1.1059792 -1.9053739 -0.019890342 0.003004456 -0.11784155 -1.5925554 -2.1467144 -1.5521113
-1.118947 -0.22650424 -0.2699738 -1.9082003 -1.5911654 -0.7599262 -0.531059 -0.8654594
-1.3367449 -0.34301233 -1.8716617 -2.2490785 -0.8388111 0.3811828 0.20781244 -1.6321107
-0.7417533 -0.8048351 -0.314003 -1.4492532 0.031530757 -1.6079208 -0.9940628 -1.5764207
0.38570863 -0.678243 -1.4260491 -0.22652444 -0.95432365 -0.9533282 -1.754718 -1.1178262
-0.63810337 -0.6425202 -0.42014438 -1.4622425 -0.5402821 -0.61088353 -0.9294867 -2.0618167
-0.27636984 -0.66525525 -0.77285373 -0.5143712 -1.4472558 -0.8389295 0.28225654 0.8568228
-0.2239509 -2.587135 -1.6444364 0.39417014 -0.2154903 -1.1579 -0.4347114 -1.2966121

layer2.bn1.running_var f4 [64]
00000000: 87a7 203f cf84 2f3f 68e4 1f3f e676 e63e
00000010: 5c60 263f 1540 523f 47bb 803f 9e68 723f
00000020: c92d 3d3f 36d2 713f 6518 4b3f 799f 713f
00000030: 078c 7d3f 1bd3 1c3f 9315 493f e009 3b3f
00000040: 97c4 3d3f 55aa 033f 3852 983f f6b7 4b3f
00000050: a110 1e3f 5cb3 3b3f 6345 513f 2d96 163f
00000060: b061 e83e 8b81 2d3f fccd 223f cc53 3b3f
00000070: f9bd 1d3f 3191 403f e1e2 263f 7dfe 953f
00000080: cb5a 3d3f 4d1a 713f 377d 3e3f 9a25 543f
00000090: 5144 433f 9df4 253f ffec 653f a3c7 243f
000000a0: 99b4 1f3f b51f 313f c52d 043f b528 393f
000000b0: 94e5 113f 30bc 1e3f 0764 173f 5401 4e3f
000000c0: 6142 f93e 58e3 213f 37ac 2b3f 6048 2c3f
000000d0: 3569 5c3f e4ac 9f3f 7304 f63e c979 2c3f
000000e0: fbe6 3f3f b8ba 9d3f b11b 423f 0fca 173f
000000f0: 9267 db3e a7ee 673f c1a7 093f f1e4 453f
0.62755626 0.68562025 0.62457895 0.45012587 0.6499078 0.8212903 1.0057153 0.94690883
0.7389799 0.9446138 0.793341 0.9438396 0.9904179 0.6125962 0.78548545 0.73061943
0.741281 0.5143178 1.1900091 0.7957758 0.61744124 0.73320556 0.817465 0.588229
0.4538703 0.6777579 0.6359556 0.7317474 0.61618 0.75221545 0.6518994 1.1718289
0.73966664 0.94180757 0.7440981 0.82869875 0.7627612 0.64826375 0.8981475 0.6436712
0.62384945 0.69189006 0.5163234 0.7232774 0.56990933 0.620059 0.59137005 0.80470777
0.48683456 0.63237524 0.67059654 0.67297935 0.86098033 1.2474637 0.4805027 0.6737333
0.74961823 1.2322607 0.75823504 0.5929269 0.42852455 0.9059853 0.537716 0.7730246

layer2.conv2.weight f4 [64, 64, 3]
00000000: f4c3 9f3d 58d2 1cbc 0367 ec3d 1b1a e1bc
00000010: 93ca 443d 463b 823c 8509 113c c95b b13c
00000020: 2fd7 02bd fabd 18be 872d a83c 5997 983d
00000030: 68c9 95bd 6b22 653d 0b25 59be ccd4 7ebc
00000040: a97a 633c 9791 0dbe 8004 633d bae4 5a3b
00000050: e9bc bdbb 5a87 8b3d f6a9 a03b 9fbc 1bbd
00000060: 0336 36bc 7401 a6bc a996 c83c 459c a53c
00000070: c4f5 1cbd ce19 c1bd 0178 203d 34ba 3e3d
00000080: 8f10 333d a72c 9cbd ab0b 8ebd cb49 d13b
00000090: 6d5f 243d f65b a73d f65f c13c 7a86 983d
000000a0: dc61 d2bd 7c0f 6bba cf6b 4fbd 259b fcbc
000000b0: 7c60 bebb f30b 343d 87ea edba 922a 4ebd
000000c0: bf29 20bd c51d ad3d f1f6 183d db8f 62bc
000000d0: 8cb3 513b cf63 46bd 3eb4 adbd 4ff8 2f3d
000000e0: 414f 033e b7fd cebd 3c87 7abc 0fce acbd
000000f0: 9734 89bd b61b 9cbc 81a3 753c df65 713d
00000100: 83cb c63d a769 c4bd d265 e7bd 0ce2 713d
00000110: 8bdf 7ebc e398 a8bd cc5f 12bd 096a cfbd
00000120: a1a4 bf3d aa6e 3b3d a4c2 723d aa37 a73d
00000130: 60c0 02bc 1c01 883c 2bb4 94bb 4c06 8d3d
00000140: a97e 33bd 919c 68bd 19af 05ba 2cac 973d
00000150: 4d39 993d b92e 8cbd 7195 dcbc e945 3fbe
00000160: 6fc1 023e 0b63 fc3d 582b d2bc a7e6 f0bd
00000170: 4c43 783d acaa c93d 2fff 8e3d e686 e33d
00000180: a202 14bd ff80 713d 6cc9 5abd 5f02 583d
00000190: 0bd9 19be 726e 21bd c9d8 d0bc 8e65 e13c
000001a0: 946e b5bd a642 d63c c2a2 1e3d de6b 74bd
000001b0: 0cdd 3c3c 6975 ba3c 6104 6dbe 80f5 8a3b
000001c0: 7b0f 24be 565f 0c3e a9fa 6cbd b06b cf3d
000001d0: 89b2 8ebc c8f0 2f3d b603 6ebc 76c9 b0bb
000001e0: bcc8 0f3d 0cc5 b4bd c8ba c6bc 8d12 92bd
000001f0: 2651 da3c 0be6 b73d 58de e6bd 0e9c 083e
00000200: 7962 ff3b f192 24bd 0920 c33d 9b4f bf3d
00000210: ef9f 9dbd 5a47 1fbe b0bc 08be 249d b2bd
00000220: a28a b7bd a9c3 1a3e 0940 f93d 11f6 08be
00000230: 0474 52bd c14d 29bd 1f11 0dbb 960a ce3c
00000240: 5d0b cc3d 33a6 f5bc c867 92bd d9d4 0ebe
00000250: c320 5b3d be2d 4ebd 17ce fc3c 91a9 19bd
00000260: 4157 8f3d e405 a43d e70f bcbc b1d2 8bbc
00000270: 51c8 6f3d 7d09 b63c 7eb7 1e3d 4bec 243e
00000280: 4a25 8bbd 84c7 ab3d 2b56 dcbd b660 b43c
00000290: 1804 f93c a9c6 30bd fe99 29be bfdf e93c
000002a0: 2f64 a4bc 5d4f f53c c7f5 20bc fc5d c6ba
000002b0: 0913 81bd 80cd e03c 092e 96bc 691d 6f3d
000002c0: 2372 2fbd a61d d7bd 8d0f d13b 6ce5 cb3d
000002d0: 9e57 9a3c f22c f4bc 56e2 3a3d 7495 a4bd
000002e0: 76ff ae3c 7354 293e 12c7 93bc f8b0 47bd
000002f0: 7a3a 893d 3c69 08bb d6c6 07bd 79e8 85bd
00000300: 39c0 e83c 4ade febc f853 483d 0343 b13d
00000310: 9449 ffba f0e1 2b3d 18ea 833d 5b7b 00bd
00000320: 704a 25bd 0174 d2bd a2af 8abc 2194 ccbc
00000330: b281 51bb 02ef a0bd 849a d5bd 3289 0fbd
00000340: 04ea 8fbd 845d 9dbc c582 893d 4cfa 263d
00000350: bcc3 ba3d b465 033e f102 6abb 3155 df3d
00000360: 907c 8dbc 1976 4cbc 55e8 debc 3f43 e53c
00000370: 5c96 06ba 453f 463d 0b78 e0bd e20d 3bbc
00000380: c1f8 11bb 7133 30bd 0b97 a2bc 8788 00bd
00000390: a849 373d bacc d6bd 8b7c e83c 76c1 4d3d
000003a0: c610 d83d ae35 4a3b 7c56 98bd f19a 773d
000003b0: 3c49 34be eedd 0fbd 9bae 11bd 1f57 e2bd
000003c0: cd82 723d 8980 e5bc b10b f93d f9cd 9dbc
000003d0: 766b 17be 8f43 4a3b 7c43 573e 1ca9 a13d
000003e0: e772 d03d 0d6e fc3d 81af 7fbc 5fac a63d
000003f0: 4199 e2bd 0b2b 803d f565 283d 2e6d c5ba
0.07801047 -0.009571634 0.115430854 -0.027478268 0.048044752 0.015897404 0.008852367 0.021650212
-0.031943496 -0.1491622 0.020529522 0.07450742 -0.07313806 0.055941027 -0.21205537 -0.015553664
0.013884225 -0.1382507 0.055424213 0.0033400492 -0.005790342 0.06812926 0.0049030734 -0.03802168
-0.011121276 -0.020264365 0.024485903 0.020216117 -0.038320318 -0.0942875 0.039176945 0.046564296
0.043716963 -0.07625704 -0.06935819 0.0063869706 0.040130068 0.08171837 0.023605328 0.07447524
-0.102725714 -0.0008966846 -0.050639924 -0.030835697 -0.0058098417 0.04395671 -0.001815156 -0.050333567
-0.039102312 0.08452944 0.037344877 -0.013828243 0.0031997887 -0.04843503 -0.08481644 0.042961415
0.12823202 -0.10106986 -0.015291031 -0.0843774 -0.06699484 -0.019056182 0.014992596 0.058935042
0.097067855 -0.09590464 -0.112987176 0.059053466 -0.0155562265 -0.08232286 -0.03573589 -0.101276465
0.09357572 0.045759834 0.059267655 0.08164914 -0.007980436 0.016602091 -0.0045380793 0.06885967
-0.043821964 -0.05678994 -0.0005099639 0.07405886 0.074816324 -0.06844849 -0.026926728 -0.18679012
0.12769102 0.123235784 -0.025655434 -0.117627434 0.060611054 0.09847006 0.06982266 0.11109714
-0.036135323 0.05896091 -0.053414747 0.052736636 -0.15024202 -0.03941197 -0.025493996 0.027514245
-0.08858982 0.026154827 0.038729437 -0.059673183 0.011527311 0.022761064 -0.23146202 0.0042406917
-0.1602153 0.13708243 -0.057856236 0.10127962 -0.017419117 0.042954236 -0.014527252 -0.0053951098
0.035103545 -0.08826646 -0.024258986 -0.071324445 0.026650023 0.08979424 -0.112728775 0.1334078
0.0077937213 -0.040179197 0.095275946 0.093413554 -0.076965205 -0.15554562 -0.13353229 -0.087213784
-0.08961989 0.15113701 0.12170417 -0.13375117 -0.051380172 -0.041333918 -0.0021525098 0.025151532
0.09963105 -0.029986477 -0.07148701 -0.13948382 0.05349804 -0.050336592 0.03085999 -0.037515227
0.06999064 0.08008936 -0.022956802 -0.017068239 0.058540646 0.022221321 0.03874921 0.16105764
-0.06794222 0.08387664 -0.10758623 0.022018772 0.03039746 -0.043158207 -0.1656265 0.028549073
-0.020067303 0.02994507 -0.009824223 -0.0015134211 -0.06302459 0.02744174 -0.018332498 0.058377657
-0.04283346 -0.10503702 0.0063800276 0.09955868 0.018840607 -0.029806588 0.045626007 -0.080363184
0.021362048 0.16536121 -0.01803926 -0.048752755 0.06700607 -0.0020814678 -0.03314861 -0.06538481
0.028411971 -0.031111855 0.048908204 0.086553596 -0.0019476884 0.041963518 0.06441134 -0.03136764
-0.040354192 -0.10276032 -0.016929451 -0.024972977 -0.0031968174 -0.07858087 -0.10429862 -0.03504295
-0.07027057 -0.01920963 0.067143954 0.040766045 0.091193646 0.12831765 -0.003570732 0.10904921
-0.01727131 -0.012479329 -0.027210394 0.027986167 -0.00051340996 0.048400182 -0.109603964 -0.011416884
-0.0022273513 -0.04301781 -0.019847414 -0.031380203 0.04474798 -0.10488267 0.0283797 0.050233327
0.10550074 0.003085475 -0.074383706 0.060450498 -0.17606062 -0.035123758 -0.035566907 -0.11051773
0.059206773 -0.028015392 0.12160433 -0.019263254 -0.14787087 0.0030863022 0.21021837 0.07893583
0.10178166 0.12325678 -0.015605808 0.08138346 -0.11064387 0.0625821 0.04111286 -0.0015062445

layer2.bn2.weight f4 [64]
00000000: dc9e 603f 63c1 763f 1625 983f 06a1 823f
00000010: 433c 7d3f c6a7 883f ec72 7a3f 7de7 763f
00000020: 8b3e 763f 2c1c 7f3f 7f64 763f d7bd 6c3f
00000030: 9858 833f 070b 7e3f 2018 6f3f 33a6 673f
00000040: b865 773f 5d72 593f d8b2 863f 8211 7b3f
00000050: 49ef 763f 13ec 813f 369e 763f 7f2e 803f
00000060: 2d26 863f 8e8d 743f 89d9 7f3f 8284 753f
00000070: 623c 893f a9b6 803f a90c 7f3f 4913 603f
00000080: 1848 803f 3bc5 7d3f d644 813f 41ec 7a3f
00000090: adf8 883f 1841 7c3f 79f8 853f a98d 823f
000000a0: 74a8 7d3f 0934 763f a9ba 783f 7a7e 773f
000000b0: 9cf1 783f 04e8 6a3f a104 873f f1c7 7b3f
000000c0: 701e 713f 6851 813f f4ee 893f ecc9 5c3f
000000d0: 523e 7b3f 9c93 793f 4b22 7c3f e580 783f
000000e0: 450e 843f c719 6b3f 87ce 813f a659 743f
000000f0: c85e 753f 8906 803f d113 673f 7fc6 703f
0.877424 0.96388835 1.1886318 1.020539 0.9892008 1.06762 0.97831607 0.96446973
0.96189183 0.9965236 0.96247095 0.9247717 1.0261412 0.99235576 0.93396187 0.90487975
0.96639585 0.8494013 1.0523329 0.9807359 0.9645887 1.0150169 0.9633516 1.001419
1.04804 0.95528495 0.9994131 0.95905316 1.0721552 1.0055743 0.9962869 0.87529427
1.0022001 0.99129075 1.0099132 0.98016745 1.070089 0.98536825 1.0466453 1.0199481
0.99085164 0.9617315 0.9715982 0.9667736 0.97243667 0.9176028 1.0548288 0.9835196
0.9418707 1.0102968 1.0776048 0.8624561 0.9814197 0.9749086 0.98489827 0.9707168
1.0316855 0.9183621 1.0141152 0.9544929 0.9584775 1.0001994 0.9026461 0.9405288

layer2.bn2.bias f4 [64]
00000000: 6b61 09be aee2 ddbd 5c25 01bd e987 00be
00000010: 396f 81bd e35d ebbd f420 09be e9e0 b6bd
00000020: 4c26 83bd 2dd2 58be ab6f 12be 1d05 afbd
00000030: 73d7 1cbd 7599 c1bd 7b56 28be ae7c 54be
00000040: c8b5 05be 7d3b 48be 856c c2bd fa5d 9abd
00000050: 08d5 febd 36b1 58bd e273 e3bd f985 90bd
00000060: 49b6 2cbc bf70 a7bd 14fb 10be 3123 3abe
00000070: 8081 55bd 70c8 b7bd 6814 3dbe d534 08be
00000080: e186 b7bd 3da5 cdbc 8ff3 37bc 6aba 14be
00000090: cefb a6bd 2599 54bd 6005 edbc ec76 52bd
000000a0: 8957 f3bd aff9 38be a670 97bd fc64 dbbc
000000b0: 29a4 80bd f732 f8bd dc31 50be f5f1 45bd
000000c0: 60c9 43be 5d97 41be 00b6 d0bd 2200 3abe
000000d0: 907a ddbd 2172 4cbd 4bce acbc e0fe 82bd
000000e0: 0270 25be 6ac4 0ebe 0a67 5cbe 440c e0bd
000000f0: 3897 14be 8416 9dbd 9a59 44be e8bf f4bd
-0.13416068 -0.10834251 -0.03152977 -0.12551846 -0.06320042 -0.11492517 -0.13391477 -0.08929617
-0.06403789 -0.21173926 -0.1430041 -0.08545897 -0.038291406 -0.09453098 -0.1643924 -0.20750687
-0.13057625 -0.19553943 -0.09493355 -0.07537456 -0.12442976 -0.052903377 -0.11106087 -0.07056803
-0.010541507 -0.081758015 -0.14158279 -0.18177487 -0.052125454 -0.08973777 -0.18464816 -0.13301404
-0.08961273 -0.025103206 -0.0112275025 -0.14524236 -0.08153497 -0.051903863 -0.028933227 -0.051382944
-0.118819304 -0.18063997 -0.07394533 -0.026781552 -0.06281311 -0.12119096 -0.2033152 -0.04832645
-0.19119787 -0.18905397 -0.10190964 -0.18164113 -0.108143926 -0.04991353 -0.021094462 -0.0639627
-0.16156009 -0.13942114 -0.21523681 -0.109398395 -0.1451081 -0.0767031 -0.19174805 -0.11950666
