artifacts/model_resnet_fold_0.pth (torch, 472227 bytes, 47 tensors)

stem.0.weight f4 [32, 8, 5]
0.06443429 0.022524534 -0.096085265 -0.09142613 0.05941906 -0.005667687 0.0050921063 0.036550276
-0.081835754 0.08099025 -5.2635893e-05 0.071873344 -0.04389829 -0.05385966 0.023125108 0.030812316
0.025148677 -0.0098640295 0.03976222 0.06897509 -0.009842797 -0.020869404 0.064889185 -0.020682761
-0.09289693 0.07573876 -0.07279069 -0.18334024 -0.06647747 0.1788345 -0.22093505 0.07997934
0.26522714 0.09525017 -0.3258272 0.00366157 -0.08027543 0.023210198 0.22117677 -0.067089416
0.052021157 0.20038548 -0.09255024 -0.14899775 -0.097157136 0.061711702 0.06498614 0.04166776
-0.14918062 -0.070535965 -0.014142958 -0.06271627 0.1389277 0.1259487 0.122268714 -0.15684666
-0.055296876 -0.10868809 0.059588782 0.09158267 0.10513559 0.16959183 -0.056879327 -0.19734725
-0.015518951 0.12875834 -0.15127456 0.18574442 0.19139619 -0.043493547 0.102709934 -0.14952557
-0.054972704 0.032304443 0.14268792 0.08086829 0.056192983 -0.09299929 -0.037405837 -0.0067167766
-0.050698593 -0.20179313 0.02632277 0.15862538 -0.1797646 0.022600371 -0.019817282 0.00874309
0.010437024 0.011348735 0.04967299 0.08542296 -0.053507023 -0.02839958 0.0034192821 -0.020785496
-0.11670758 0.11068088 0.082282856 -0.062654205 0.014245185 -0.095513314 -0.028329927 -0.011622077
-0.0042353044 -0.04796945 0.25736824 0.15818928 -0.22970262 0.18026347 -0.048837345 0.119785294
0.063167445 -0.19618854 0.15473956 0.037302937 0.034750346 -0.049581084 0.048327446 -0.01417959
-0.11195056 0.065589495 0.13782373 0.09738803 0.11828329 -0.08033303 0.03352571 0.09947968
-0.035246998 0.12036607 -0.0009776455 0.03657948 -0.14084317 0.073002905 -0.03291778 0.31023487
0.052062698 -0.18259807 0.17854787 -0.14177959 -0.103183225 -0.15014884 -0.03893299 -0.041654646
-0.12518394 -0.21816257 0.17271061 0.11994273 -0.19198675 0.101484105 0.06658514 -0.044527777
-0.075157985 0.03379297 0.05616327 0.11355824 -0.0644117 -0.00087160955 -0.045907136 -0.09672789
-0.19104779 -0.106524564 0.20048723 0.14987983 0.032501586 0.14536428 0.087172806 -0.075965665
-0.10564168 -0.09816318 0.08952349 0.077133186 -0.046011947 0.035036612 -0.03777166 -0.04053321
-0.05283375 -0.08206634 -0.050378952 -0.028433867 0.06391572 -0.20174663 -0.10034882 0.044522252
0.058892027 0.115125716 0.11197983 0.11425203 0.020436639 0.016987747 0.05515669 0.06726495
-0.20523901 0.023736913 0.07248884 -0.11932223 -0.049711965 0.23806985 -0.16337085 -0.04213937
-0.053305894 0.08976191 -0.10697496 -0.0016722811 -0.17178828 0.10432085 0.14062738 -0.13443995
-0.06931939 0.16561851 -0.1741023 0.18485929 -0.21369447 0.0018890813 -0.0155050475 -0.033750072
0.09096554 0.005379044 0.10391559 -0.0328874 0.12782663 -0.017519994 -0.052391265 0.13026816
-0.14949585 0.063282534 0.009105473 0.07240131 -0.05844112 -0.04638493 -0.024983197 0.06937274
0.065682665 -0.0184191 0.077804945 -0.18295188 0.12563029 -0.1758657 0.048894215 0.19194321
0.22357515 -0.08777046 -0.12142216 -0.15689924 -0.13222075 0.08363556 -0.0714517 -0.054568682
-0.14353143 -0.09959606 0.010567976 0.017387606 0.011545334 -0.045732573 0.07579978 -0.07726926
00000000: 20f6 833d 5f85 b83c 5ac8 c4bd 9f3d bbbd
00000010: 6661 733d 01b8 b9bb afdb a63b beb5 153d
00000020: 8199 a7bd 37de a53d 5cc5 5cb8 5532 933d
00000030: b1ce 33bd f29b 5cbd de70 bd3c 1c6a fc3c
00000040: 9904 ce3c bd9c 21bc b6dd 223d d042 8d3d
00000050: af43 21bc 50f6 aabc 9fe4 843d e56e a9bc
00000060: bf40 bebd ec1c 9b3d 4913 95bd 8bbd 3bbe
00000070: 5725 88bd 6420 373e cc3c 62be 35cc a33d
00000080: dacb 873e 8512 c33d d3d2 a6be f3f6 6f3b
00000090: 7267 a4bd 5023 be3c 2a7c 623e 2d66 89bd
000000a0: 2314 553d da31 4d3e fb8a bdbd de92 18be
000000b0: 52fa c6bd 69c5 7c3d 7417 853d d0ab 2a3d
000000c0: cec2 18be 2975 90bd deb7 67bc 6371 80bd
000000d0: 1043 0e3e b2f8 003e 0568 fa3d 699c 20be
000000e0: fa7e 62bd dd97 debd 5e13 743d b28f bb3d
000000f0: 5451 d73d 7ba9 2d3e 4cfa 68bd 6615 4abe
00000100: 3343 7ebc 3ad9 033e b8e7 1abe c933 3e3e
00000110: 5dfd 433e 4a26 32bd 9659 d23d 3b1d 19be
00000120: 0f2b 61bd aa51 043d c81c 123e 469e a53d
00000130: 9d2a 663d 6976 bebd dd36 19bd 6818 dcbb
00000140: 54a9 4fbd dca2 4ebe daa2 d73c b16e 223e
00000150: 3614 38be 6a24 b93c da57 a2bc 2d3f 0f3c
00000160: 0d00 2b3c 0bf0 393c e875 4b3d 3cf2 ae3d
00000170: 2e2a 5bbd 3ca6 e8bc 0916 603b 5846 aabc
00000180: 6204 efbd a8ac e23d ea83 a83d d950 80bd
00000190: a364 693c 7c9c c3bd 2a14 e8bc 866a 3ebc
000001a0: 4fc8 8abb 9d7b 44bd c5c5 833e 5ffc 213e
000001b0: 2a37 6bbe fd96 383e ab09 48bd fe51 f53d
000001c0: ef5d 813d a6e5 48be 0c74 1e3e f7ca 183d
000001d0: 6156 0e3d 8915 4bbd 00f3 453d 8351 68bc
000001e0: 5646 e5bd c953 863d aa21 0d3e 6073 c73d
000001f0: 823e f23d a585 a4bd 4152 093d 01bc cb3d
00000200: 285f 10bd 7c82 f63d 5724 80ba 5dd4 153d
00000210: 3139 10be 8c82 953d cbd4 06bd 1bd7 9e3e
00000220: b23f 553d fdfa 3abe 41d5 363e ab2e 11be
00000230: ba51 d3bd 9ec0 19be 3378 1fbd 109e 2abd
00000240: 3830 00be 0266 5fbe 0ddb 303e 89a4 f53d
00000250: 2d98 44be e6d6 cf3d ca5d 883d c262 36bd
00000260: 6eec 99bd 7f6a 0a3d 750b 663d 3991 e83d
00000270: 48ea 83bd ba7c 64ba 1f09 3cbd 4619 c6bd
00000280: 08a2 43be 8d29 dabd 864c 4d3e 197a 193e
00000290: 6220 053d 60da 143e a887 b23d e393 9bbd
000002a0: aa5a d8bd c709 c9bd 1758 b73d 01f8 9d3d
000002b0: 0677 3cbd 8d82 0f3d 75b6 1abd 2706 26bd
000002c0: 3468 58bd 6612 a8bd 295a 4ebd 24ee e8bc
000002d0: 3fe6 823d ab96 4ebe af83 cdbd f75c 363d
000002e0: c438 713d 08c7 eb3d ae55 e53d f8fc e93d
000002f0: bd6a a73c e329 8b3c fbeb 613d 35c2 893d
00000300: 2d2a 52be ea73 c23c 0775 943d 375f f4bd
00000310: c69e 4bbd 95c8 733e b04a 27be 559a 2cbd
00000320: 4857 5abd 18d5 b73d b015 dbbd 7130 dbba
00000330: 44e9 2fbe 2ba6 d53d a000 103e a0aa 09be
00000340: 53f7 8dbd e697 293e e047 32be c14b 3d3e
00000350: b9d2 5abe 0d9b f73a e208 7ebc 843d 0abd
00000360: 244c ba3d b142 b03b b2d1 d43d f0b4 06bd
00000370: fce4 023e 1786 8fbc 3998 56bd 0465 053e
00000380: 7115 19be 469a 813d 1f2f 153c 2347 943d
00000390: f55f 6fbd 20fe 3dbd 90a9 ccbc 4c13 8e3d
000003a0: a284 863d a7e3 96bc 3358 9f3d bd57 3bbe
000003b0: 3aa5 003e 2316 34be 4d45 483d c38c 443e
000003c0: e2f0 643e 00c1 b3bd 2eac f8bd 32aa 20be
000003d0: e064 07be 1f49 ab3d 4555 92bd 6983 5fbd
000003e0: e7f9 12be 05f9 cbbd 4e25 2d3c 7470 8e3c
000003f0: a428 3d3c 1452 3bbd ea3c 9b3d 593f 9ebd

stem.1.weight f4 [32]
1.0925968 0.98647636 1.0749141 1.0768944 1.0530504 0.94603693 0.9843127 1.0399618
1.0256901 1.0254441 1.0088569 0.97349256 0.9648058 0.9769928 1.005439 1.0018257
0.9189035 1.0008774 0.9982732 1.0252513 0.9838512 0.9839005 0.89678186 1.0406024
0.9484475 0.99755466 1.0819306 1.0898114 0.9993332 0.9841381 1.0942309 1.0723635
00000000: 36da 8b3f b789 7c3f c996 893f add7 893f
00000010: 5bca 863f 7a2f 723f ebfb 7b3f 781d 853f
00000020: d049 833f c141 833f 3922 813f cf36 793f
00000030: 83fd 763f 331c 7a3f 3ab2 803f d33b 803f
00000040: 433d 6b3f c01c 803f d58e 7f3f 6f3b 833f
00000050: acdd 7b3f e7e0 7b3f 7f93 653f 7632 853f
00000060: 75cd 723f be5f 7f3f b47c 8a3f f17e 8b3f
00000070: 4dd4 7f3f 79f0 7b3f c20f 8c3f 3543 893f

stem.1.bias f4 [32]
-0.10278349 -0.15507326 0.013841245 0.01177372 0.04998573 0.13509397 0.047500126 0.16806923
0.0069698277 0.019748641 -0.0100630885 0.005804306 0.04229015 0.10591262 -0.027561069 0.036999904
-0.088159546 0.19003549 -0.015872391 0.0897807 -0.13578618 0.054950763 0.00094268855 0.19318303
0.03872222 -0.005305668 -0.09600352 0.08516187 -0.04090613 -0.0341864 -0.010238789 0.07196615
00000000: 2780 d2bd 86cb 1ebe 64c6 623c 90e6 403c
00000010: d6bd 4c3d 1356 0a3e 7e8f 423d 571a 2c3e
00000020: 2763 e43b e7c7 a13c a7df 24bc 0c32 be3b
00000030: 7038 2d3d b7e8 d83d c0c7 e1bc 368d 173d
00000040: fe8c b4bd aa98 423e d106 82bc f2de b73d
00000050: 880b 0bbe 0d14 613d c21e 773a c6d1 453e
00000060: 319b 1e3d 2bdb adbb 7e9d c4bd 5969 ae3d
00000070: 308d 27bd 0a07 0cbd 98c0 27bc fd62 933d

stem.1.running_mean f4 [32]
0.0010260623 -0.012171455 -0.006663285 -0.000959303 -0.0017712507 -0.0065469937 0.0047780043 -0.010178892
-0.0011875684 0.0030855646 0.015084373 0.002672179 -0.007391654 0.008827561 0.008153414 -0.003245578
-0.037739635 -0.00730336 -0.00992686 0.0057084463 0.0099132545 -0.00077545154 -0.016335793 -0.0042459564
0.0062220427 -0.032115515 0.004796835 -3.1421117e-05 -0.0005594745 0.0091981385 0.004225346 0.00020888037
00000000: f07c 863a c86a 47bc b057 dabb bc79 7bba
00000010: 5029 e8ba 2a88 d6bb ce90 9c3b 5ec5 26bc
00000020: 2fa8 9bba 2f37 4a3b 7224 773c b91f 2f3b
00000030: b035 f2bb 79a1 103c e695 053c c3b3 54bb
00000040: e094 1abd 0651 efbb 45a4 22bc eb0d bb3b
00000050: 346b 223c ac47 4bba a4d2 85bc aa21 8bbb
00000060: 47e2 cb3b 8f8b 03bd c52e 9d3b 2bca 03b8
00000070: b3a9 12ba cab3 163c c574 8a3b e606 5b39

stem.1.running_var f4 [32]
0.115233436 0.27469486 0.14973584 0.10006445 0.11107737 0.3115985 0.29258838 0.17006822
0.15584251 0.12667806 0.3167069 0.61663896 0.3115721 0.2261237 0.31554386 0.23092704
1.1671058 0.28524694 0.19083427 0.22737767 0.39616093 0.27882802 0.40730035 0.069337785
0.21430853 0.5731003 0.12520114 0.06785801 0.15549977 0.35860035 0.27204943 0.09856754
00000000: 82ff eb3d cea4 8c3e 5a54 193e 97ee cc3d
00000010: 887c e33d d789 9f3e 25ce 953e 5d26 2e3e
00000020: 2e95 1f3e e5b7 013e 6827 a23e 0ddc 1d3f
00000030: 6186 9f3e f98c 673e f78e a13e 2378 6c3e
00000040: b963 953f e30b 923e 0f6a 433e b1d5 683e
00000050: 9bd5 ca3e 8cc2 8e3e ac89 d03e f800 8e3d
00000060: b273 5b3e b4b6 123f ba34 003e 24f9 8a3d
00000070: 553b 1f3e 779a b73e 104a 8b3e c7dd c93d

layer1.conv1.weight f4 [32, 32, 3]
-0.022186784 0.06910554 -0.0046617948 0.10052065 0.11764836 0.10407503 -0.004657903 0.12304806
-0.075702965 0.096291445 -0.0522707 -0.031326074 0.05683574 0.004800912 -0.1143894 -0.093123555
-0.0040896786 -0.036041666 -0.058447167 -0.023363324 -0.04457063 0.007971478 -0.06034826 0.07974931
-0.14904644 -0.033836745 0.04861189 0.08455577 0.028438333 0.11734455 0.04584321 0.06832743
-0.016437918 -0.08668873 -0.0063889273 -0.06480466 -0.067513235 -0.056866437 -0.06611504 0.016439764
0.07299197 -0.08220183 0.036881592 -0.071461685 0.11444652 0.05811894 -0.019676046 0.06144069
-0.016121622 0.05686019 -0.10548539 0.047143746 0.058027904 0.03505279 0.016055912 -0.042950146
-0.008596278 -0.046057258 0.038519584 -0.018324265 0.05941537 0.040898558 0.12078512 -0.11161786
-0.014965975 0.02416132 0.07896835 -0.09425739 0.07054252 -0.1961851 -0.15040241 -0.064430185
0.029797053 -0.012357067 0.06513039 -0.024456916 -0.016209705 -0.068311654 -0.11878277 0.051420767
-0.15170607 -0.10254081 -0.046011716 -0.15963583 0.032286122 0.0022393577 0.041374285 -0.09982184
0.045190968 0.012413619 -0.15082186 0.13437651 0.06726609 -0.07569015 -0.20574224 -0.044637416
0.03289406 -0.065136485 -0.020406494 -0.077633046 -0.07807224 -0.0524305 0.0992399 0.045527916
0.10566301 -0.10610913 -0.1102463 -0.10181082 -0.023936326 -0.051230542 0.08624467 -0.09322891
-0.013542806 -0.005162035 0.03628682 0.041631542 0.09401261 0.13315263 0.1656119 0.13689746
0.106750086 -0.016210513 0.12655713 0.037513796 -0.023718288 0.04463646 -0.09579101 -0.017752219
-0.09747874 -0.09739287 -0.061488535 0.021991452 -0.023288343 -0.07481681 0.054579597 -0.009485379
-0.036432937 -0.010383096 -0.05786738 -0.020246025 -0.108376026 -0.05202165 0.10232813 0.0002393283
-0.12342856 -0.101225026 -0.058969196 -0.03300897 -0.113474436 -0.046687447 0.10122129 -0.023903105
0.11023437 -0.0922243 -0.07296331 -0.02155635 -0.12312852 0.04004766 -0.13636176 0.09427061
-0.010486127 0.123136856 -0.052045412 0.064002365 -0.009159178 -0.014958484 -0.019496167 0.013997549
-0.013024198 0.0048115426 0.037384085 -0.16760483 -0.08918336 -0.1602241 0.07037537 0.114596784
-0.010011618 0.05893082 0.008729581 -0.05790756 -0.14890338 -0.071486935 0.04129494 -0.021294083
0.104458876 0.070798606 0.079336554 0.047671292 0.10791381 0.06273599 -0.030227184 -0.036450073
-0.004106362 -0.114837505 -0.07455256 0.10587375 0.055566475 0.06478923 -0.11201267 0.028241945
-0.09691802 -0.114180654 0.06450644 0.09355804 -0.030389719 -0.021430233 0.0028789476 -0.11669675
0.06765413 0.08698374 0.060805757 -0.050230663 0.04851196 0.058904532 0.0232498 0.15114142
0.07157484 0.03707021 0.066457145 0.07955256 0.05853124 0.07484146 -0.12979205 -0.06291149
-0.20653048 -0.017602587 -0.055212077 0.14611115 -0.083418824 0.019084696 0.19168183 -0.024508873
0.07582984 0.06727201 -0.07726156 -0.034344338 -0.12645389 -0.11793346 -0.08852858 -0.04913722
-0.14215113 -0.04718627 -0.06886146 -0.015624656 0.10241821 0.006966818 0.04266994 0.05054052
0.10633143 0.17606705 0.18055405 0.17822121 0.05572881 0.06915173 0.12340737 0.05020914
00000000: 0fc1 b5bc 3587 8d3d f8c1 98bb c5dd cd3d
00000010: a0f1 f03d 4a25 d53d 53a1 98bb 9f00 fc3d
00000020: 280a 9bbd 7334 c53d cd19 56bd c54f 00bd
00000030: 98cc 683d f850 9d3b fd44 eabd 90b7 bebd
00000040: b602 86bb 6da0 13bd 4c66 6fbd 7164 bfbc
00000050: b18f 36bd cd9a 023c bd2f 77bd 9b53 a33d
00000060: a19f 18be 6698 0abd 431d 473d 932b ad3d
00000070: 82f7 e83c 5752 f03d 17c6 3b3d 40ef 8b3d
00000080: d0a8 86bc dc89 b1bd 355a d1bb 4eb8 84bd
00000090: 6144 8abd c8ec 68bd 5267 87bd afac 863c
000000a0: d07c 953d 6f59 a8bd 2711 173d 815a 92bd
000000b0: f062 ea3d 200e 6e3d a92f a1bc 3ca9 7b3d
000000c0: 7e11 84bc 3be6 683d b908 d8bd cd19 413d
000000d0: abae 6d3d 8493 0f3d b087 833c 7eec 2fbd
000000e0: 67d7 0cbc 89a6 3cbd b6c6 1d3d c51c 96bc
000000f0: 885d 733d 3f85 273d 305e f73d e897 e4bd
00000100: d933 75bc f6ed c53c 29ba a13d 050a c1bd
00000110: 9978 903d bfe4 48be 1703 1abe f9f3 83bd
00000120: f318 f43c 4c75 4abc 1563 853d df59 c8bc
00000130: 37ca 84bc fbe6 8bbd 6244 f3bd 959e 523d
00000140: d658 1bbe eb00 d2bd c876 3cbd 9377 23be
00000150: 743e 043d 30c2 123b 1578 293d 656f ccbd
00000160: 2a1a 393d 7e62 4b3c 0c71 1abe ff99 093e
00000170: cec2 893d 7003 9bbd 18ae 52be b9d5 36bd
00000180: ecbb 063d 4766 85bd 852b a7bc 13fe 9ebd
00000190: 57e4 9fbd 5dc1 56bd 4a3e cb3d 7b7b 3a3d
000001a0: d965 d83d be4f d9bd d0c8 e1bd 3182 d0bd
000001b0: 1d16 c4bc 1ed7 51bd 0ca1 b03d ccee bebd
000001c0: a5e2 5dbc 4a26 a9bb 7da1 143d d685 2a3d
000001d0: af89 c03d 2a59 083e 2a96 293e d92e 0c3e
000001e0: ca9f da3d e9cb 84bc 3198 013e 11a8 193d
000001f0: db4c c2bc b8d4 363d 142e c4bd 1a6d 91bc
00000200: efa2 c7bd ea75 c7bd 67db 7bbd 6b27 b43c
00000210: 32c7 bebc 8e39 99bd db8e 5f3d 9068 1bbc
00000220: b43a 15bd dc1d 2abc 5906 6dbd feda a5bc
00000230: 40f4 ddbd a714 55bd 6991 d13d 34f4 7a39
00000240: 1dc8 fcbd 114f cfbd af89 71bd 6a34 07bd
00000250: 4965 e8bd 563b 3fbd 1c4d cf3d 72d0 c3bc
00000260: 8fc2 e13d 18e0 bcbd ca6d 95bd f196 b0bc
00000270: ce2a fcbd 0409 243d 6ba2 0bbe f310 c13d
00000280: 01ce 2bbc 2d2f fc3d 922d 55bd ac13 833d
00000290: 6010 16bc 6e14 75bc 6db6 9fbc fa55 653c
000002a0: 7263 55bc 25aa 9d3b 0e20 193d 9aa0 2bbe
000002b0: c4a5 b6bd c911 24be f620 903d b8b1 ea3d
000002c0: c507 24bc 7261 713d 8406 0f3c 7a30 6dbd
000002d0: 217a 18be be67 92bd e224 293d ee70 aebc
000002e0: 89ee d53d dcfe 903d 347b a23d f942 433d
000002f0: ea01 dd3d ba7b 803d 009f f7bc ac4c 15bd
00000300: a98e 86bb ed2f ebbd 03af 98bd 56d4 d83d
00000310: ac99 633d 37b0 843d e666 e5bd a75b e73c
00000320: f47c c6bd 8cd7 e9bd f41b 843d 5c9b bf3d
00000330: dcf3 f8bc 758e afbc baac 3c3b b5fe eebd
00000340: 408e 8a3d 8824 b23d 750f 793d abbe 4dbd
00000350: 7ab4 463d e145 713d 5d76 be3c d1c4 1a3e
00000360: d495 923d efd6 173d af1a 883d 74ec a23d
00000370: 74be 6f3d 7b46 993d 35e8 04be bdd7 80bd
00000380: ba7c 53be 4d33 90bc 0f26 62bd 299e 153e
00000390: 7dd7 aabd 8257 9c3c 3e48 443e d5c6 c8bc
000003a0: ad4c 9b3d e8c5 893d 4f3b 9ebd a6ac 0cbd
000003b0: 217d 01be 1987 f1bd 794e b5bd 1c44 49bd
000003c0: 1190 11be 6446 41bd 3d07 8dbd 8ffe 7fbc
000003d0: a3c0 d13d e849 e43b adc6 2e3d 9403 4f3d
000003e0: 4bc4 d93d ec4a 343e 29e3 383e 9f7f 363e
000003f0: e543 643d 6c9f 8d3d 01bd fc3d 19a8 4d3d

layer1.bn1.weight f4 [32]
0.9682924 0.9954463 1.0584924 0.9757223 1.0103204 1.0260137 0.93030727 0.9872822
0.9973279 0.9661261 1.0294493 0.96971184 0.9579042 0.955653 0.97221607 1.0238312
1.087497 0.9591353 1.0543451 1.0075268 0.9144626 0.9724841 1.002265 0.9725183
0.96740675 0.94192153 0.97227365 1.0324898 1.0315391 0.9397395 0.9470512 0.9068119
00000000: 03e2 773f 92d5 7e3f ae7c 873f f0c8 793f
00000010: 2e52 813f 6b54 833f 9e28 6e3f 87be 7c3f
00000020: e250 7f3f 0a54 773f ffc4 833f 093f 783f
00000030: 3639 753f ada5 743f 27e3 783f e70c 833f
00000040: 1a33 8b3f e489 753f c8f4 863f a3f6 803f
00000050: 391a 6a3f b8f4 783f 384a 803f f6f6 783f
00000060: f8a7 773f c521 713f ede6 783f a028 843f
00000070: 7909 843f c592 703f f371 723f d324 683f

layer1.bn1.bias f4 [32]
-0.08987481 -0.13814665 -0.023187343 -0.068190455 -0.09627726 -0.09848239 -0.108351514 -0.13098317
-0.0801779 -0.151045 -0.10987626 -0.13283192 -0.09731137 -0.09999861 -0.14358783 -0.11307406
-0.029788265 -0.11530211 -0.059414353 -0.05084928 -0.12857443 -0.09595626 -0.015454548 -0.089518026
-0.05509305 -0.11174014 -0.118776694 -0.11095128 -0.04410665 -0.07341035 -0.100120515 -0.1436386
00000000: 4910 b8bd 5176 0dbe 62f3 bdbc 70a7 8bbd
00000010: 032d c5bd 23b1 c9bd 66e7 ddbd 7420 06be
00000020: 5034 a4bd 8aab 1abe ce06 e1bd 1705 08be
00000030: 2f4b c7bd 12cc ccbd b008 13be 5f93 e7bd
00000040: 8506 f4bc 8323 ecbd 775c 73bd 5647 50bd
00000050: 04a9 03be b784 c4bd 1335 7dbc 3a55 b7bd
00000060: 40a9 61bd 04d8 e4bd 3241 f3bd 6d3a e3bd
00000070: 2da9 34bd 2a58 96bd fc0b cdbd ff15 13be

layer1.bn1.running_mean f4 [32]
-0.6463359 -0.23561105 0.93296087 -0.31659174 0.1125291 0.045366883 -0.37117523 -0.24440314
-0.28511325 -0.7919041 -0.546919 -0.23829947 -0.5437672 -0.57594293 -0.285391 0.17107347
1.0293528 -0.35255486 -0.0773682 0.08294748 -0.4468321 0.3028523 -0.22082037 -0.65169924
-0.4333285 -0.53017026 -0.32164997 -0.21355905 -0.25106698 -0.6137816 -0.4858046 -0.45592535
00000000: 4576 25bf 0644 71be 86d6 6e3f 5018 a2be
00000010: a875 e63d a0d2 393d ae0a bebe d144 7abe
00000020: 5dfa 91be 3aba 4abf e202 0cbf c704 74be
00000030: 5434 0bbf ff70 13bf c51e 92be e22d 2f3e
00000040: d5c1 833f 1282 b4be 3873 9ebd 5ee0 a93d
00000050: 2dc7 e4be 750f 9b3e bc1e 62be c3d5 26bf
00000060: 3cdd ddbe 3db9 07bf 4eaf a4be 39af 5abe
00000070: da8b 80be ca20 1dbf 61bb f8be 0c6f e9be

layer1.bn1.running_var f4 [32]
0.45574528 0.26897204 0.5684209 0.40521434 0.42377576 0.40542045 0.28726476 0.47015727
0.33341217 0.49969333 0.61526644 0.53005964 0.410611 0.289397 0.42273676 0.4541784
0.6665226 0.33439228 0.29500714 0.26320964 0.5008297 0.314885 0.39528316 0.56879073
0.53358364 0.6479545 0.33868232 0.3343558 0.43236285 0.48228696 0.3079921 0.4120461
00000000: 7257 e93e b4b6 893e 0884 113f 4178 cf3e
00000010: 23f9 d83e 4593 cf3e 5e14 933e 74b8 f03e
00000020: 00b5 aa3e ced7 ff3e 1a82 1d3f fdb1 073f
00000030: 9b3b d23e d82b 943e f470 d83e 128a e83e
00000040: 3aa1 2a3f 7735 ab3e 2d0b 973e 6ac3 863e
00000050: 6036 003f 9b38 a13e 8e62 ca3e 459c 113f
00000060: f098 083f 59e0 253f c567 ad3e af30 ab3e
00000070: aa5e dd3e 51ee f63e 24b1 9d3e b5f7 d23e

layer1.conv2.weight f4 [32, 32, 3]
0.058146924 0.05730629 -0.04338119 -0.00075108994 -0.12941873 -0.04632421 -0.004184043 -0.1478061
-0.032576095 -0.14381771 0.042933267 0.024851875 -0.046019632 0.049968794 -0.046576835 -0.13147087
-0.0017461787 0.0011108158 0.03026236 -0.023671564 -0.04174497 -0.12336322 -0.049885277 -0.09565852
-0.17609696 0.08046028 0.11732088 -0.11694632 0.004093184 0.0042685787 0.035556395 -0.08682844
-0.14805984 -0.079591446 -0.0012733936 -0.076452166 0.10183329 0.10028522 -0.028848251 0.048754524
0.053127035 0.12314318 -0.0252515 -0.044998895 0.067786574 -0.0019120809 -0.06735977 -0.018248167
0.05885782 0.055104114 0.039189253 -0.0013542864 -0.103156246 0.009590366 -0.21384698 -0.077795416
0.0039183167 -0.0265971 -0.024500115 -0.023536878 -0.084453255 -0.028047215 0.00757676 -0.07933751
-0.058869787 0.044802997 -0.08457732 0.020018283 0.12196714 -0.094957165 0.022853011 -0.02627746
-0.056658667 -0.15165159 -0.15821117 -0.1352738 -0.06151731 0.03827473 -0.13119249 0.03864371
-0.031807706 -0.10875021 0.07282764 -0.036795445 -0.049613953 0.026430668 -0.13332444 0.053419348
-0.017313233 -0.07954612 0.035981167 0.13892145 0.11162194 -0.0132789435 -0.12804624 -0.052357424
0.049156193 -0.06915651 0.06500438 -0.016365297 -0.029271968 0.05399669 -0.11726022 -0.10793036
-0.09910775 -0.07834703 -0.10396082 -0.123443015 -0.18088774 0.0067086155 -0.02677899 -0.108906105
-0.0060503907 -0.10209412 -0.011074541 -0.03324845 0.10859774 -0.0072414535 -0.01258817 0.008170691
0.057823576 -0.09996254 -0.050235488 0.059605468 -0.005072211 0.20705035 0.053002957 0.07899569
-0.08103686 -0.120944716 -0.11147331 -0.04863861 0.008228992 0.010486882 -0.09783323 -0.05591522
-0.030214773 0.11758372 -0.15006588 -0.008052058 -0.015707467 0.06621561 0.053749762 0.021734739
-0.17169313 -0.15416232 -0.18253908 -0.03503592 -0.10954491 -0.11597037 0.06551801 0.03862381
0.031112537 -0.010882165 0.02819029 0.064315446 -0.06097895 -0.095180735 -0.12109849 -0.13672826
0.01396661 -0.044391114 0.030847805 -0.023405906 -0.08523144 -0.056338288 0.021622146 -0.017568043
-0.0501608 0.07311183 0.057792187 -0.054840203 -0.12360454 -0.042826384 0.0694262 0.074927546
0.03023858 -0.0091394335 0.11106701 0.03009255 0.045849524 -0.15129185 -0.20995532 -0.04058636
-0.077853754 -0.013498735 -0.08733201 -0.03989767 0.016263856 0.00752802 -0.06470404 -0.073455065
-0.13719773 -0.10679997 0.008975553 0.12478028 0.02914624 0.031432983 -0.12670484 -0.012669536
-0.17795996 0.08729018 0.08253526 0.011444249 -0.08216026 -0.12245319 -0.101763 0.08761071
-0.030917995 -0.06328765 -0.09397102 -0.12934344 -0.013125308 0.07489889 -0.0028433176 0.051434547
0.09110705 0.0075150933 -0.014524111 -0.059793223 0.004755936 -0.09989398 0.047653724 -0.076969914
-0.02580129 0.057297334 -0.05100054 0.054874636 -0.101982586 -0.15030506 -0.23740008 -0.07762082
-0.042537887 0.031415235 -0.108713895 -0.16728242 -0.23676574 0.037569046 -0.078050226 -0.061507948
-0.09163635 -0.20251504 -0.10181984 -0.0047862525 0.009464833 -0.05279635 -0.03114736 0.026319295
0.010724578 0.10394302 0.0263279 -0.12198255 -0.015806243 -0.053411223 0.060290135 -0.08808384
00000000: 782b 6e3d 00ba 6a3d 7ab0 31bd cbe4 44ba
00000010: 5886 04be 74be 3dbd 4c1a 89bb 7b5a 17be
00000020: 836e 05bd f344 13be cbda 2f3d 2996 cb3c
00000030: 157f 3cbd 14ac 4c3d 5ac7 3ebd 4da0 06be
00000040: 09e0 e4ba cb98 913a c5e8 f73c deea c1bc
00000050: c6fc 2abd dba5 fcbd 8154 4cbd 9de8 c3bd
00000060: c352 34be 5cc8 a43d ee45 f03d 8d81 efbd
00000070: 1e20 863b 6fdf 8b3b 95a3 113d 1cd3 b1bd
00000080: 009d 17be d700 a3bd 00e8 a6ba f492 9cbd
00000090: f98d d03d 5662 cd3d 2b53 ecbc d3b2 473d
000000a0: bc9b 593d 7e32 fc3d 3cdc cebc c350 38bd
000000b0: b0d3 8a3d ca9e faba ebf3 89bd 2e7d 95bc
000000c0: e614 713d dab4 613d e984 203d 5082 b1ba
000000d0: 9543 d3bd e920 1d3c b4fa 5abe 3453 9fbd
000000e0: 3965 803b 29e2 d9bc 77b4 c8bc 69d0 c0bc
000000f0: d4f5 acbd 46c3 e5bc 7846 f83b b47b a2bd
00000100: 7221 71bd 5983 373d e036 adbd 62fd a33c
00000110: e8c9 f93d e778 c2bd 3d36 bb3c d443 d7bc
00000120: eb12 68bd 8e4a 1bbe 1c02 22be 3785 0abe
00000130: 93f9 7bbd f7c5 1c3d 5357 06be de48 1e3d
00000140: cc48 02bd 6eb8 debd a826 953d d2b6 16bd
00000150: 0038 4bbd 2185 d83c 3486 08be 3fce 5a3d
00000160: 7bd4 8dbc 13e9 a2bd fd60 133d 6d41 0e3e
00000170: 0b9a e43d ed8f 59bc 8e1e 03be bd74 56bd
00000180: 0158 493d eea1 8dbd 0421 853d 8410 86bc
00000190: c4cb efbc a22b 5d3d 2026 f0bd 980a ddbd
000001a0: 01f9 cabd 6874 a0bd 69e9 d4bd b1cf fcbd
000001b0: a33a 39be f2d3 db3b 9d5f dbbc 2a0a dfbd
000001c0: 5b42 c6bb b916 d1bd fe71 35bc 872f 08bd
000001d0: 7e68 de3d b749 edbb 9d3e 4ebc 5dde 053c
000001e0: 6ad8 6c3d 29b9 ccbd bac3 4dbd dd24 743d
000001f0: ca34 a6bb 0205 543e a119 593d 7ec8 a13d
00000200: a7f6 a5bd ddb1 f7bd 1e4c e4bd 4739 47bd
00000210: e5d2 063c 2cd1 2b3c ca5c c8bd 5c07 65bd
00000220: f984 f7bc bccf f03d dfaa 19be c7ec 03bc
00000230: f2ac 80bc 0d9c 873d b628 5c3d 0d0d b23c
00000240: 53d0 2fbe badc 1dbe 86eb 3abe d381 0fbd
00000250: 1559 e0bd e081 edbd 4e2e 863d 0034 1e3d
00000260: b8df fe3c 1c4b 32bc 53ef e63c d1b7 833d
00000270: 10c5 79bd 1eee c2bd 7c02 f8bd 7e02 0cbe
00000280: 35d4 643c 75d3 35bd 89b4 fc3c bebd bfbc
00000290: d28d aebd fac2 66bd ed20 b13c dbea 8fbc
000002a0: 6975 4dbd a8bb 953d 80b7 6c3d 1fa0 60bd
000002b0: 6124 fdbd b86a 2fbd 532f 8e3d 9d73 993d
000002c0: e6b6 f73c 90bd 15bc 1a77 e33d a784 f63c
000002d0: b6cc 3b3d 40ec 1abe 87fe 56be e23d 26bd
000002e0: ca71 9fbd cc29 5dbc 20db b2bd bd6b 23bd
000002f0: c73b 853c 9cad f63b 8d83 84bd 9c6f 96bd
00000300: 907d 0cbe f1b9 dabd 330e 133c ce8c ff3d
00000310: 18c4 ee3c dfbf 003d eabe 01be e393 4fbc
00000320: 233b 36be 32c5 b23d 3f08 a93d a980 3b3c
00000330: a343 a8bd bdc8 fabd 1f69 d0bd 3e6d b33d
00000340: bc47 fdbc f59c 81bd e173 c0bd 9b72 04be
00000350: 880b 57bc 9764 993d f456 3abb 08ad 523d
00000360: 5596 ba3d 2c41 f63b 89f6 6dbc bde9 74bd
00000370: afd7 9b3b 3795 ccbd 8d30 433d 67a2 9dbd
00000380: 3a5d d3bc 9cb0 6a3d f1e5 50bd 3ac4 603d
00000390: 3fdc d0bd 92e9 19be 0219 73be aaf7 9ebd
000003a0: 353c 2ebd 43ad 003d 64a5 debd 154c 2bbe
000003b0: b872 72be 00e2 193d ccd8 9fbd c2ef 7bbd
000003c0: d7ab bbbd 1a60 4fbe ec86 d0bd ffd5 9cbb
000003d0: 6312 1b3c fc40 58bd c028 ffbc 909b d73c
000003e0: 24b6 2f3c 14e0 d43d 9cad d73c fdd1 f9bd
000003f0: 187c 81bc bac5 5abd caf2 763d 4d65 b4bd

layer1.bn2.weight f4 [32]
0.86594605 0.90243936 0.9229116 0.88847977 0.9794438 0.8369475 0.91240287 0.8960388
1.0102623 0.8184805 0.88375944 0.86782897 0.87465715 0.81823134 0.94664186 0.8143936
0.95740855 0.88557476 0.99737376 0.84488416 0.8069568 0.89208066 0.8749619 0.83071893
0.8369982 0.8499862 0.87154156 0.8608252 0.8598781 0.9353897 0.9253083 0.8761541
00000000: a4ae 5d3f 4406 673f ef43 6c3f 6973 633f
00000010: d4bc 7a3f 3142 563f 3c93 693f cc62 653f
00000020: 4650 813f f087 513f 0f3e 623f 0a2a 5e3f
00000030: 88e9 5f3f 9c77 513f 1f57 723f 197c 503f
00000040: ba18 753f 07b5 623f e353 7f3f 544a 583f
00000050: b994 4e3f 665f 643f 81fd 5f3f ffa9 543f
00000060: 8445 563f b298 593f 591d 5f3f 0a5f 5c3f
00000070: f920 5c3f b375 6f3f 01e1 6c3f a34b 603f

layer1.bn2.bias f4 [32]
-0.022850629 0.0061984244 -0.038233615 0.012476619 -0.05035257 -0.08921564 -0.03482637 -0.00094718725
-0.032292124 -0.04565106 0.015071838 -0.021020215 -0.0038303153 -0.02789926 -0.038660876 -0.13089561
0.051030334 -0.06064168 -0.00050344435 -0.037019566 -0.13559334 -0.06599711 -0.11480033 -0.055640902
-0.1548293 -0.10545455 -0.098244116 0.10044282 -8.4931904e-05 -0.07810015 -0.08314798 -0.1623497
00000000: 3e31 bbbc 271c cb3b da9a 1cbd bc6a 4c3c
00000010: 7f3e 4ebd b1b6 b6bd 19a6 0ebd a94c 78ba
00000020: bf44 04bd 9bfc 3abd dfef 763c 9632 acbc
00000030: 0706 7bbb fd8c e4bc de5a 1ebd 8009 06be
00000040: 2f05 513d 6963 78bd 94f9 03ba d4a1 17bd
00000050: fbd8 0abe 7e29 87bd 6f1c ebbd b7e7 63bd
00000060: 928b 1ebe 8ef8 d7bd 3634 c9bd f7b4 cd3d
00000070: 781d b2b8 f9f2 9fbd 7d49 aabd 003f 26be

layer1.bn2.running_mean f4 [32]
-0.69670016 -0.838589 -0.92620397 -0.8066407 -0.41599727 0.0040466245 -0.37045944 -0.16719845
-0.6450756 0.14302267 -1.0987397 -0.698057 -0.44818106 -0.108276084 -0.590007 -0.5481081
-0.5121616 -0.069707505 -0.99272585 -0.5271683 0.37115037 0.015619519 -0.31468758 -0.02144045
-0.34131545 0.013779123 -0.3984099 -0.9322368 -0.8423525 -0.7477928 -0.49626946 -0.021877283
00000000: f15a 32bf c5ad 56bf b41b 6dbf 0180 4ebf
00000010: 98fd d4be 8c99 843b dcac bdbe 1236 2bbe
00000020: ad23 25bf 8974 123e 81a3 8cbf ddb3 32bf
00000030: fd77 e5be dabf ddbd b30a 17bf d050 0cbf
00000040: 061d 03bf cfc2 8ebd 4823 7ebf 80f4 06bf
00000050: 6c07 be3e 03e9 7f3c bb1e a1be e2a3 afbc
00000060: e6c0 aebe d5c1 613c 62fc cbbe 12a7 6ebf
00000070: 6aa4 57bf 596f 3fbf 0817 febe fd37 b3bc

layer1.bn2.running_var f4 [32]
0.38078535 0.80049974 0.67426884 0.6214866 0.6162392 0.33212456 0.3543482 0.49690688
0.78528905 0.27728435 0.74041843 0.36119232 0.44666344 0.50074947 0.44205964 0.43892026
0.50862557 0.5181019 0.6160516 0.5407328 0.3071358 0.3277523 0.3955111 0.33248436
0.40331972 0.44861618 0.48500484 0.62622213 0.579155 0.5470812 0.89659834 0.53977275
00000000: 4cf6 c23e 8ded 4c3f e29c 2c3f bf19 1f3f
00000010: dac1 1d3f 3b0c aa3e 216d b53e 946a fe3e
00000020: b408 493f 37f8 8d3e 108c 3d3f 33ee b83e
00000030: 12b1 e43e 1e31 003f a455 e23e 28ba e03e
00000040: 4935 023f 53a2 043f 8fb5 1d3f 776d 0a3f
00000050: e740 9d3e 26cf a73e 6e80 ca3e 643b aa3e
00000060: ec7f ce3e 05b1 e53e 8e52 f83e 1850 203f
00000070: 8143 143f 830d 0c3f 7887 653f 8c2e 0a3f

layer2.conv1.weight f4 [64, 32, 3]
-0.031542767 -0.037148643 0.031592336 0.0146983545 0.020561403 0.07625471 -0.08026969 0.01757153
-0.21812184 0.030098686 -0.08790731 -0.09461171 0.09613983 0.08701952 -0.053753525 0.043732617
-0.011879138 -0.1401947 0.05373531 -0.07546366 -0.022764124 0.088375755 0.075378984 -0.0026370375
-0.19889532 -0.12507117 -0.05045835 -0.009018092 -0.101716965 -0.10867561 0.07176462 0.018248351
-0.031861097 0.03850236 -0.18036953 -0.0070543615 -0.07135323 -0.14521283 -0.043119755 -0.12584016
-0.11345317 0.006206534 -0.07241417 0.055386513 -0.08003114 -0.03268777 -0.056729686 -0.095866166
-0.11635951 -0.013370257 0.0054872786 0.007501294 -0.044210847 -0.06706943 -0.010952496 0.0017695214
0.086158745 -0.046143252 -0.028948499 -0.0007317235 0.023356393 0.04349267 0.03724305 -0.024591196
-0.087639496 0.048251215 0.016165592 -0.012976595 0.07124475 -0.14170042 -0.0920636 -0.14318863
0.05918045 -0.10643044 0.07068523 0.0020597226 -0.085202016 -0.13593604 0.08120523 0.08667517
-0.07456918 0.012707816 -0.05145685 0.075020075 -0.10289816 0.045700278 -0.02325301 0.17239189
-0.103506446 0.07377999 0.06998273 0.04109111 -0.114307046 -0.092941426 -0.11856847 0.04928382
0.2226353 0.114957616 0.16076906 -0.014549241 -0.004689888 -0.046119634 0.01479942 0.0039348253
0.047396548 0.16589029 0.15157314 0.039726887 0.044648603 -0.11279771 0.07404578 0.09186401
0.04784115 -0.01158624 -0.08359799 0.0151471505 0.028955758 0.061109688 0.06196632 0.08181734
-0.01668855 0.02456076 -0.094686806 0.037462715 -0.045107502 0.027056104 0.00015151394 -0.14142115
-0.22884117 0.05255519 0.12511118 0.08254548 -0.07971975 0.04627875 -0.009997261 -0.041672688
-0.07974312 -0.031625237 0.011710507 0.004310633 0.053302474 -0.0795194 0.114550605 -0.09931588
-0.09295334 -0.11891194 -0.14942697 -0.03249168 -0.101619124 0.030316066 -0.087475516 -0.11201868
0.02278355 0.036548667 0.011491383 0.01722727 0.13622406 0.039537895 -0.0002812831 -0.07484629
0.004152301 -0.11753953 -0.012650853 0.086142644 -0.10503153 -0.030429829 0.06500722 -0.069981635
0.10736777 -0.05727459 -0.028616477 0.007960628 -0.108207785 -0.126316 0.09246094 0.044421554
0.03400854 0.019244384 0.097658336 -0.089827806 0.04039305 0.094113305 -0.017915461 0.058172658
-0.085872605 0.00018695179 0.0674911 0.18335076 -0.0784975 -0.034472108 0.102926105 0.070685476
-0.09683658 -0.022887688 0.08582323 -0.092434555 -0.0040506255 0.061859727 0.001397841 -0.016088674
-0.15032999 -0.08765472 0.13119993 0.040939726 -0.10991586 0.01466112 0.041083846 0.079122
0.08134719 0.06327437 -0.023890933 0.08555037 0.046026353 0.1474208 0.07420337 -0.24532174
0.009193984 -0.00070180994 -0.07668197 0.009121809 0.09375544 0.07527643 0.05375176 -0.013508378
-0.03695929 -0.030912936 0.0037461782 -0.06862046 0.023208702 -0.102284744 -0.10975612 0.08424883
-0.123318166 -0.047569826 0.07795357 0.049517583 0.08129953 -0.07698979 0.017320797 0.09557559
0.001594914 -0.14669916 0.09941529 -0.049252752 0.10519946 -0.069029845 -0.09897804 -0.054306716
-0.027940074 -0.088943146 -0.113246284 -0.00062789686 -0.08597541 -0.04994281 -0.049797658 -0.030264333
00000000: fd32 01bd 2d29 18bd f766 013d 5ed1 703c
00000010: 6370 a83c 6e2b 9c3d 6f64 a4bd 2bf2 8f3c
00000020: 555b 5fbe 8591 f63c bf08 b4bd c9c3 c1bd
00000030: f6e4 c43d 4a37 b23d a82c 5cbd f920 333d
00000040: b7a0 42bc 338f 0fbe 8e19 5c3d b18c 9abd
00000050: d47b babc 59fe b43d 4c60 9a3d 26d2 2cbb
00000060: 37ab 4bbe a812 00be 6aad 4ebd 9fc0 13bc
00000070: fc50 d0bd 5191 debd 54f9 923d 917d 953c
00000080: c880 02bd a7b4 1d3d cab2 38be 4628 e7bb
00000090: a421 92bd acb2 14be 579e 30bd 3edc 00be
000000a0: 235a e8bd 2e60 cb3b e14d 94bd f8dc 623d
000000b0: 5ee7 a3bd 9ce3 05bd 635d 68bd 7b55 c4bd
000000c0: e54d eebd ec0e 5bbc a1ce b33b 6acd f53b
000000d0: 6f16 35bd b35b 89bd 1972 33bc 49ef e73a
000000e0: ff73 b03d b500 3dbd 6725 edbc 22d1 3fba
000000f0: e855 bf3c 5f25 323d 2b8c 183d 7a73 c9bc
00000100: 567c b3bd 11a3 453d b46d 843c c99b 54bc
00000110: c4e8 913d ea19 11be d78b bcbd 0aa0 12be
00000120: 3367 723d 34f8 d9bd 6bc3 903d 69fc 063b
00000130: 657e aebd d132 0bbe ed4e a63d c082 b13d
00000140: bab7 98bd 7234 503c 6bc4 52bd 20a4 993d
00000150: 45bc d2bd 3730 3b3d 197d bebc 8087 303e
00000160: 30fb d3bd f719 973d 1b53 8f3d 274f 283d
00000170: d019 eabd 1358 bebd 07d4 f2bd d5dd 493d
00000180: 82fa 633e e66e eb3d a5a0 243e f15f 6ebc
00000190: a2ad 99bb f1e7 3cbd 4479 723c b5ef 803b
000001a0: e222 423d 25df 293e fd35 1b3e a9b8 223d
000001b0: 74e1 363d 7c02 e7bd 50a5 973d 3323 bc3d
000001c0: 15f5 433d 36d4 3dbc 6c35 abbd c12b 783c
000001d0: a034 ed3c 274e 7a3d 65d0 7d3d d98f a73d
000001e0: 6db6 88bc a633 c93c 28eb c1bd 8172 193d
000001f0: a5c2 38bd c3a4 dd3c b7df 1e39 b5d0 10be
00000200: 5755 6abe 1c44 573d 251d 003e 9b0d a93d
00000210: 1c44 a3bd c98e 3d3d 8dcb 23bc fbb0 2abd
00000220: 5c50 a3bd 7789 01bd 6ddd 3f3c 3640 8d3b
00000230: b253 5a3d 11db a2bd 8299 ea3d 2066 cbbd
00000240: 525e bebd 1a88 f3bd 6203 19be ff15 05bd
00000250: b01d d0bd 6659 f83c 5d26 b3bd 0d6a e5bd
00000260: 91a4 ba3c 0eb4 153d 5b46 3c3c 3420 8d3c
00000270: 527e 0b3e 7df2 213d 2e79 93b9 0349 99bd
00000280: 0610 883b 91b8 f0bd 8645 4fbc 8e6b b03d
00000290: c51a d7bd fa47 f9bc 8122 853d 8852 8fbd
000002a0: a2e3 db3d c398 6abd 1a6d eabc 4b6d 023c
000002b0: 0b9c ddbd fb58 01be 295c bd3d 60f3 353d
000002c0: 8a4c 0b3d 66a6 9d3c 1801 c83d a4f7 b7bd
000002d0: 2f73 253d 7abe c03d 72c3 92bc 7446 6e3d
000002e0: fadd afbd 7d08 4439 c638 8a3d 4dc0 3b3e
000002f0: 4cc3 a0bd a032 0dbd ecca d23d 8cc3 903d
00000300: 4252 c6bd f67e bbbc 17c4 af3d 544e bdbd
00000310: 1cbb 84bb a060 7d3d c337 b73a 65cc 83bc
00000320: 1bf0 19be 5184 b3bd 4659 063e 6ab0 273d
00000330: 911b e1bd 3235 703c 8947 283d b70a a23d
00000340: 5b99 a63d fe95 813d ebb6 c3bc 0835 af3d
00000350: 2186 3c3d 7af5 163e f0f7 973d 9f35 7bbe
00000360: 5da2 163c abf9 37ba 700b 9dbd a473 153c
00000370: da02 c03d 872a 9a3d ce2a 5c3d 3e52 5dbc
00000380: a062 17bd 203d fdbc 7182 753b e288 8cbd
00000390: 2d20 be3c aa7a d1bd d1c7 e0bd a78a ac3d
000003a0: 3c8e fcbd 94d8 42bd 1fa6 9f3d f3d2 4a3d
000003b0: 5e80 a63d d3ac 9dbd 58e4 8d3c 23bd c33d
000003c0: 6f0c d13a 4e38 16be 3e9a cb3d 41bd 49bd
000003d0: d172 d73d 855f 8dbd 00b5 cabd b870 5ebd
000003e0: 95e2 e4bc d327 b6bd abed e7bd 7299 24ba
000003f0: e013 b0bd d590 4cbd a1f8 4bbd e8ec f7bc

layer2.bn1.weight f4 [64]
0.93002504 0.9864581 0.9888361 0.9992685 0.986966 0.9275565 1.0184817 1.0343322
1.0217987 0.9980984 0.9589545 1.0222157 0.9767631 0.99002445 1.0074842 1.0427203
0.99152064 1.030547 0.9443146 0.9782458 1.0125296 0.9774272 0.9803607 0.973545
1.009821 0.9373253 1.0554996 0.98110884 1.0343016 0.9800442 0.9888254 0.9962175
0.98833644 0.96526307 0.9844915 1.0365399 0.9626931 1.0365216 0.9936691 0.9790482
1.0174592 0.9586538 1.0387263 0.98799974 0.9573648 0.95459396 0.9514003 0.9757847
1.0301229 1.00067 0.9967065 0.9685246 0.9976522 1.0224599 1.0418034 0.8971112
0.97472507 1.0561811 1.0494136 1.0320935 1.0314159 1.0031884 1.0030383 1.056317
00000000: 1f16 6e3f 8588 7c3f 5d24 7d3f 0fd0 7f3f
00000010: cea9 7c3f 5874 6d3f 9c5d 823f ff64 843f
00000020: 4dca 823f 6083 7f3f 0b7e 753f f7d7 823f
00000030: 260d 7a3f 3e72 7d3f 3ef5 803f dc77 853f
00000040: 4cd4 7d3f f7e8 833f 9abe 713f 516e 7a3f
00000050: 929a 813f ab38 7a3f ebf8 7a3f 3f3a 793f
00000060: d141 813f 8df4 6f3f 9c1a 873f f329 7b3f
00000070: ff63 843f 2de4 7a3f a923 7d3f 1c08 7f3f
00000080: 9e03 7d3f 7b1b 773f a307 7c3f 57ad 843f
00000090: 0e73 763f bdac 843f 1961 7e3f e7a2 7a3f
000000a0: 1a3c 823f 566a 753f fcf4 843f 8ded 7c3f
000000b0: dc15 753f 4560 743f f88e 733f 07cd 793f
000000c0: 11db 833f f415 803f 2828 7f3f 3af1 773f
000000d0: 2266 7f3f f7df 823f d059 853f 14a9 653f
000000e0: 9587 793f f130 873f 2f53 863f a41b 843f
000000f0: 7005 843f 7a68 803f 8f63 803f 6535 873f

layer2.bn1.bias f4 [64]
-0.11014228 -0.1070874 -0.12443185 -0.09645441 -0.12743406 -0.13422197 -0.025999703 0.03023784
0.016552053 -0.017789962 -0.061046507 -0.14066668 -0.17069717 -0.037302364 -0.13102385 -0.016902423
-0.075352736 -0.051159464 -0.08587154 -0.10755541 -0.052191515 -0.086247586 -0.08498454 -0.022799874
-0.07278277 -0.10957133 -0.09773619 -0.11772048 0.01845618 -0.111806996 -0.05937777 -0.1287687
-0.1926734 -0.12746324 -0.04331788 -0.1155981 -0.10440642 -0.1738054 -0.03305348 -0.06813418
-0.1870987 -0.082580686 0.01070051 -0.1105586 0.019734783 -0.15548426 -0.13651182 0.011848207
0.037864298 -0.033596016 -0.054497328 -0.16429855 -0.09664501 -0.09709684 0.015774049 -0.07342449
-0.16702522 0.09768224 0.00035606654 -0.10686607 -0.12447093 -0.13671347 -0.13491078 0.020061027
00000000: 4792 e1bd a450 dbbd 20d6 febd e489 c5bd
00000010: 137e 02be 7c71 09be 54fd d4bc 59b5 f73c
00000020: 2c98 873c 41bc 91bc e70b 7abd ed0a 10be
00000030: 3dcb 2ebe 5dca 18bd 1e2b 06be f376 8abc
00000040: 8952 9abd 968c 51bd 6bdd afbd 0346 dcbd
00000050: c5c6 55bd 93a2 b0bd 600c aebd cdc6 babc
00000060: 220f 95bd ef66 e0bd e929 c8bd 6f17 f1bd
00000070: 6a31 973c 11fb e4bd 1b36 73bd f1db 03be
00000080: 2d4c 45be b985 02be 176e 31bd b2be ecbd
00000090: 08d3 d5bd 0bfa 31be 1663 07bd ef89 8bbd
000000a0: cd96 3fbe 1020 a9bd 3151 2f3c 8c6c e2bd
000000b0: d7aa a13c 4437 1fbe c1c9 0bbe fb1e 423c
000000c0: 9817 1b3d fa9b 09bd 9738 5fbd e13d 28be
000000d0: d2ed c5bd b5da c6bd 9438 813c 945f 96bd
000000e0: a908 2bbe a00d c83d 71ae ba39 99dc dabd
000000f0: 9dea febd 9efe 0bbe 0d26 0abe 0657 a43c

layer2.bn1.running_mean f4 [64]
-1.8025634 0.4075967 -0.49155432 -0.4449438 -1.6917052 0.07092494 -1.9800677 0.23641615
0.06470304 -0.9638464 -0.5552695 -0.29264367 -1.4760488 0.4983766 -0.3174672 -0.6653351
-1.8428092 -1.2561493 -0.15227237 -1.6840696 -1.2390674 -1.6167595 -1.9065509 0.2376736
-0.28891045 0.11916327 -0.225196 -1.0822904 -0.9010053 -1.5211196 1.091286 -0.19418629
-0.4618857 -1.0736333 -1.7716179 -0.7603091 0.7717754 -0.8569308 -0.92810726 -0.84657246
0.8282909 -0.633438 -1.6684117 -2.855772 0.37943485 -0.46773487 -0.6468261 -1.9791588
-0.68271184 0.70329976 -1.1640222 1.0156121 -0.3724848 -0.17690197 0.61232644 -0.38597348
-0.04254683 0.0038931817 -0.1209744 -1.7516657 -1.7948519 -1.0589788 0.15172592 -1.2553914
00000000: 66ba e6bf 84b0 d03e 02ad fbbe accf e3be
00000010: cc89 d8bf 1841 913d dc72 fdbf 1317 723e
00000020: 0783 843d a3be 76bf 2426 0ebf 64d5 95be
00000030: 2bef bcbf 382b ff3e 108b a2be 6753 2abf
00000040: 2ce1 ebbf 80c9 a0bf 4aed 1bbe 988f d7bf
00000050: c399 9ebf faf1 cebf dc09 f4bf b560 733e
00000060: 12ec 93be df0b f43d c899 66be 7e88 8abf
00000070: 49a8 66bf 0cb4 c2bf 42af 8b3f c5d8 46be
00000080: 487c ecbe d16c 89bf 60c4 e2bf 9ea3 42bf
00000090: 1393 453f d15f 5bbf 7098 6dbf f9b8 58bf
000000a0: df0a 543f fe28 22bf 848e d5bf f8c4 36c0
000000b0: 4945 c23e f27a efbe 6596 25bf 1355 fdbf
000000c0: 34c6 2ebf 740b 343f aefe 94bf 94ff 813f
000000d0: 54b6 bebe ca25 35be 6dc1 1c3f 519e c5be
000000e0: 9645 2ebd c024 7f3b 6dc1 f7bd 9536 e0bf
000000f0: b5bd e5bf 9e8c 87bf 0a5e 1b3e aab0 a0bf

layer2.bn1.running_var f4 [64]
0.6713347 0.5946527 1.1697303 0.7123039 0.80085033 0.67299545 1.0249281 0.6215286
0.5779105 0.64193296 0.64588094 0.58148324 0.6781796 0.72733593 0.9629983 0.8818767
0.49693236 0.76715034 0.6548241 0.7559793 0.5532151 0.5130337 0.6120228 0.7468785
0.7557873 0.6056376 0.97076344 0.9818987 0.73212326 0.67963576 0.61002225 0.5795615
0.9023574 1.046669 0.819598 0.59184194 0.71623594 0.5068259 0.70924383 0.59982926
0.5702706 0.5819609 0.64735705 1.0296731 0.49092412 0.49516284 0.61967194 0.6666289
0.76763505 0.523745 0.71768624 0.66707027 0.55459213 0.73249876 0.9229875 0.62907445
0.64691365 0.6142426 0.77130765 0.5823749 0.8735788 0.8643965 0.46915045 0.5163523
00000000: 97dc 2b3f 293b 183f b9b9 953f 8c59 363f
00000010: 8704 4d3f 6e49 2c3f d830 833f 801c 1f3f
00000020: f1f1 133f b855 243f 7458 253f 16dc 143f
00000030: 2e9d 2d3f b032 3a3f 0e87 763f acc2 613f
00000040: eb6d fe3e f763 443f 8da2 273f dc87 413f
00000050: 819f 0d3f 2d56 033f 87ad 1c3f 6e33 3f3f
00000060: 477b 413f 110b 1b3f f483 783f b75d 7b3f
00000070: 6e6c 3b3f 9cfc 2d3f 6b2a 1c3f 245e 143f
00000080: e500 673f 40f9 853f 2dd1 513f f482 173f
00000090: 3d5b 373f 58bf 013f 0191 353f 698e 193f
000000a0: 41fd 113f 64fb 143f 31b9 253f 54cc 833f
000000b0: 685a fb3e fc85 fd3e d2a2 1e3f 31a8 2a3f
000000c0: bb83 443f 2714 063f 49ba 373f 1ec5 2a3f
000000d0: c0f9 0d3f 0a85 3b3f e948 6c3f 060b 213f
000000e0: 229c 253f 013f 1d3f 6b74 453f 8516 153f
000000f0: dca2 5f3f 1749 5d3f 7d34 f03e aa2f 043f

layer2.conv2.weight f4 [64, 64, 3]
0.03746479 0.040020272 -0.029963579 -0.094651505 0.029924871 -0.08965705 -0.03581371 -0.0028178797
-0.03284055 -0.06519611 -0.023153532 -0.053425524 -0.046821143 -0.05562018 0.0042452146 -0.03339731
-0.12721406 -0.049434945 0.117663056 0.060554996 0.10009436 -0.15805982 -0.02226705 -0.16120894
-0.04315668 0.038748555 -0.08821308 -0.0065025277 0.038917966 -0.06381974 0.087316744 0.03128899
0.06508979 -0.035660625 0.020569459 -0.027311876 -0.10123921 -0.03168988 -0.0836211 -0.104563795
-0.030705988 -0.05649477 0.06671989 -0.059009187 0.019576319 0.03215056 0.018275287 -0.05298127
-0.061415393 -0.03774279 -0.18088157 -0.16053517 -0.106297664 -0.11044176 0.05992961 0.03737971
0.047982946 -0.012080169 0.04871544 0.05994075 0.019553898 -0.04034845 0.009612693 0.048217203
-0.082723774 0.085414045 0.017642647 0.0077339215 0.032018434 -0.058389876 0.046529256 -0.06328795
-0.14976414 -0.07273244 -0.18660814 -0.032394085 0.038718477 -0.024761103 -0.034644537 -0.01018079
0.043547567 0.01703119 0.046714365 0.009270117 0.046685185 -0.020341318 -0.0973201 -0.09920972
-0.054394223 -0.092043914 -0.0130139515 -0.0009982144 -0.0079467725 0.0139913885 0.0152493995 -0.0046173097
-0.025188653 0.020320285 -0.0682373 0.030865606 0.055606797 -0.04306084 -0.07311778 -0.10604724
-0.08680508 -0.0012255626 -0.051542353 0.06441879 0.005895869 -0.06605665 0.012527376 -0.005256353
-0.04083455 -0.0442928 0.08409581 -0.033591677 0.08185273 -0.15090014 -0.018617693 -0.07498625
-0.107833356 0.08421831 -0.090258665 0.048809025 0.049657397 -0.076869436 0.009676733 0.053245407
0.025642311 -0.09052968 -0.10324125 -0.08088627 -0.04244029 0.008304668 -0.105357505 -0.12703742
-0.043396227 -0.06123499 0.06882471 -0.052834757 0.0042366795 0.015177536 0.014517605 0.09142437
0.023958122 0.05570259 0.056647215 0.057437208 -0.022925165 0.05651332 0.043134786 -0.0013216252
-0.005081636 -0.04567261 -0.012759458 -0.07167386 -0.07463763 0.0779434 -0.0561903 -0.10195908
-0.09885111 -0.12156477 0.010859135 -0.046285354 0.03858176 0.027453762 0.04893523 0.14421858
0.055968564 0.082974374 0.028322209 0.0678849 -0.06626667 -0.09677057 -0.035216477 -0.059585918
-0.11239069 -0.012080113 -0.06814886 0.038263485 -0.050902024 -0.0060167513 -0.012884014 -0.11330587
0.0027221998 0.018566994 -0.044892266 -0.03576298 0.11094743 0.03385662 -0.048003383 0.024214428
0.032909654 0.020929074 -0.16249727 -0.07878869 -0.0025507943 -0.02592856 0.023962365 0.06821282
-0.05785211 -0.00058282475 0.025316156 0.012109385 -0.022442367 -0.061695263 -0.043348983 -0.030115932
0.002429079 -0.02550098 -0.044355724 -0.013938013 -0.077808246 -0.08921131 -0.011235052 -0.05684752
-0.07487654 -0.03129259 0.083902694 0.010143611 0.13409662 0.02660949 -0.048491824 -0.001123287
-0.10637001 -0.08057035 -0.020526614 -0.05110551 0.048869725 0.05488044 0.12139812 -0.0441119
-0.07021603 -0.042155255 0.03829973 0.051441226 -0.050386596 -0.051201236 0.02037527 0.06178585
-0.06770437 -0.069171496 0.014794204 -0.041422762 0.059025187 0.09150324 0.12151687 0.0049322257
0.117067374 -0.037371974 -0.12872566 -0.10264186 0.0388397 0.0020269367 0.03382705 -0.078350596
00000000: ae74 193d 4cec 233d 2e76 f5bc a6d8 c1bd
00000010: 0125 f53c 1e9e b7bd 66b1 12bd 2dac 38bb
00000020: d083 06bd 8a85 85bd 7aac bdbc b9d4 5abd
00000030: 87c7 3fbd fcd1 63bd 711b 8b3b 9ecb 08bd
00000040: 6744 02be 4c7c 4abd 54f9 f03d 8408 783d
00000050: 46fe cc3d 6fda 21be 6369 b6bc f513 25be
00000060: 0fc5 30bd ceb6 1e3d 0fa9 b4bd 2813 d5bb
00000070: 7268 1f3d edb3 82bd 1fd3 b23d e228 003d
00000080: cc4d 853d e010 12bd 4881 a83c 28bd dfbc
00000090: 8156 cfbd 3fcd 01bd 8a41 abbd 8b25 d6bd
000000a0: 208b fbbc 0f67 67bd 70a4 883d 9eb3 71bd
000000b0: 845e a03c 4eb0 033d 0eb6 953c e302 59bd
000000c0: b58e 7bbd 2f98 1abd 0539 39be 5563 24be
000000d0: 97b2 d9bd 4a2f e2bd c078 753d 771b 193d
000000e0: c489 443d e7eb 45bc d789 473d 6f84 753d
000000f0: 7f2f a03c 6b44 25bd 8f7e 1d3c 677f 453d
00000100: 156b a9bd 8fed ae3d 5087 903c d66c fd3b
00000110: c325 033d 392a 6fbd 7695 3e3d 1d9d 81bd
00000120: c55b 19be bff4 94bd 3416 3fbe a9af 04bd
00000130: 4497 1e3d ccd7 cabc 6ee7 0dbd 54cd 26bc
00000140: ef5e 323d ff84 8b3c 9057 3f3d b0e1 173c
00000150: f738 3f3d d6a2 a6bc c34f c7bd 772e cbbd
00000160: 7acc 5ebd 8581 bcbd 7838 55bc 84d6 82ba
00000170: 2e33 02bc 233c 653c 9ed8 793c cd4c 97bb
00000180: 6f58 cebc ba76 a63c ffbf 8bbd ded9 fc3c
00000190: f4c3 633d 9060 30bd c6be 95bd 4c2f d9bd
000001a0: ddc6 b1bd 0fa3 a0ba 131e 53bd 00ee 833d
000001b0: 2232 c13b b548 87bd a03f 4d3c 7c3d acbb
000001c0: 2142 27bd 5e6c 35bd 6d3a ac3d 6d97 09bd
000001d0: 67a2 a73d 9185 1abe 2284 98bc 6492 99bd
000001e0: bcd7 dcbd a67a ac3d 89d9 b8bd f9eb 473d
000001f0: 8e65 4b3d b96d 9dbd 298b 1e3c db17 5a3d
00000200: d30f d23c a067 b9bd 2670 d3bd b3a7 a5bd
00000210: dfd5 2dbd 4d10 083c adc5 d7bd 1916 02be
00000220: 3ec0 31bd 8ad1 7abd f8f3 8c3d 4269 58bd
00000230: d8d3 8a3b 33ab 783c 40db 6d3c b33c bb3d
00000240: d343 c43c 6628 643d e906 683d 4743 6b3d
00000250: 8ecd bbbc 837a 673d 1aae 303d 623a adba
00000260: da83 a6bb 3413 3bbd 0c0d 51bc bfc9 92bd
00000270: 9ddb 98bd caa0 9f3d cd27 66bd eccf d0bd
00000280: 7372 cabd f3f6 f8bd 83ea 313c b695 3dbd
00000290: e807 1e3d b6e6 e03c 4f70 483d 09ae 133e
000002a0: 4b3f 653d 78ee a93d fa03 e83c 3d07 8b3d
000002b0: d2b6 87bd a62f c6bd 273f 10bd 5d10 74bd
000002c0: 172d e6bd abeb 45bc a191 8bbd 2cba 1c3d
000002d0: a47e 50bd 2b28 c5bb 7917 53bc e80c e8bd
000002e0: ef66 323b cf19 983c f4e0 37bd 347c 12bd
000002f0: 6838 e33d 3dad 0a3d 329f 44bd 565d c63c
00000300: 46cc 063d 7373 ab3c af65 26be f75b a1bd
00000310: 3a2b 27bb 2268 d4bc b94c c43c 2ab3 8b3d
00000320: 56f6 6cbd b5c8 18ba d463 cf3c 7166 463c
00000330: 0ed9 b7bc 2cb4 7cbd b48e 31bd b0b5 f6bc
00000340: 2f31 1f3b 6ee7 d0bc 59ae 35bd 445c 64bc
00000350: ee59 9fbd 6bb4 b6bd 3913 38bc f2d8 68bd
00000360: df58 99bd a92c 00bd 2dd5 ab3d 6331 263c
00000370: a050 093e 25fc d93c 5d9f 46bd 423b 93ba
00000380: 85d8 d9bd 1102 a5bd 6e27 a8bc 0354 51bd
00000390: 9f2b 483d 50ca 603d 949f f83d aeae 34bd
000003a0: 6ccd 8fbd fdaa 2cbd 2de0 1c3d 09b4 523d
000003b0: 2d62 4ebd 63b8 51bd 0aea a63c 2913 7d3d
000003c0: 97a8 8abd c9a9 8dbd 6463 723c eaaa 29bd
000003d0: 65c4 713d 0d66 bb3d d6dd f83d 829e a13b
000003e0: 05c1 ef3d 5b13 19bd a9d0 03be e535 d2bd
000003f0: 6116 1f3d 5bd6 043b 3c8e 0a3d 4776 a0bd

layer2.bn2.weight f4 [64]
1.0102683 1.0459148 1.0228839 0.9627071 0.9300554 1.0648695 0.9931161 0.91684
1.0161544 0.9340353 0.88429374 0.9710258 0.986194 0.9826662 1.0023737 1.0317148
1.0305996 1.0119351 0.98824775 0.9919838 1.069435 0.907279 0.92761177 0.9801331
1.0661697 0.9836541 0.8660446 1.043079 1.0116452 1.0114723 1.0199218 0.9403562
1.0158293 1.0574725 0.9454849 1.0063403 1.0260975 0.92263186 1.031828 0.96091515
0.9684873 0.9500282 1.0151039 0.94152284 0.992839 0.98172295 1.0753394 0.9705493
0.9968421 1.0563289 1.0612751 0.9996888 0.98441744 0.9378687 0.9819706 0.88487375
0.9999339 1.0175874 0.9618274 0.9454949 0.8282443 0.90537274 1.0249754 1.0277894
00000000: 7950 813f 89e0 853f dced 823f f973 763f
00000010: 1c18 6e3f a54d 883f db3c 7e3f 07b6 6a3f
00000020: 5911 823f f01c 6f3f 1361 623f 2695 783f
00000030: 3677 7c3f 0390 7b3f c84d 803f 3b0f 843f
00000040: b0ea 833f 1787 813f cefd 7c3f a6f2 7d3f
00000050: 3fe3 883f 7043 683f f777 6d3f 01ea 7a3f
00000060: 4078 883f c1d0 7b3f 19b5 5d3f 9d83 853f
00000070: 977d 813f ed77 813f cc8c 823f 2fbb 703f
00000080: b206 823f 425b 873f 4c0b 723f c2cf 803f
00000090: 2a57 833f 9a31 6c3f f112 843f 89fe 753f
000000a0: c9ee 773f 0c35 733f edee 813f a407 713f
000000b0: b22a 7e3f 3252 7b3f b9a4 893f eb75 783f
000000c0: 0b31 7f3f c935 873f ddd7 873f 9beb 7f3f
000000d0: c802 7c3f 2a18 703f 6d62 7b3f 1687 623f
000000e0: abfb 7f3f 4e40 823f 523a 763f f40b 723f
000000f0: d207 543f 82c6 673f 6532 833f 9a8e 833f

layer2.bn2.bias f4 [64]
-0.07874999 -0.09200892 -0.057504654 -0.10383374 -0.050638724 -0.10509522 -0.05434049 -0.10785676
-0.06529588 -0.15064439 -0.114924595 -0.097036235 0.016326394 -0.040973634 -0.06862082 -0.034254957
-0.062329635 -0.14196607 -0.07698885 -0.023931662 -0.026069138 -0.16536798 0.02385049 -0.08254149
-0.035151042 0.015906576 -0.30175856 -0.06538393 -0.10758701 -0.03455632 -0.10081831 -0.13496523
-0.06891418 -0.019733721 -0.17683893 -0.085079975 -0.042616576 -0.13311157 -0.039373294 -0.121836625
-0.045678474 -0.1801519 -0.08202797 -0.146344 -0.09245871 -0.10279949 -0.022524392 -0.06388339
-0.040905498 0.009581602 0.01026388 -0.102867536 -0.050552 -0.17547427 -0.018984286 -0.17506635
-0.1027216 -0.09114879 -0.059881967 -0.09553271 -0.09308815 -0.08121192 -0.02768472 -0.08344724
00000000: ad47 a1bd 2c6f bcbd 008a 6bbd c9a6 d4bd
00000010: 8d6a 4fbd 2a3c d7bd 2294 5ebd 01e4 dcbd
00000020: d9b9 85bd 8642 1abe 965d ebbd efba c6bd
00000030: eebe 853c f8d3 27bd 1389 8cbd ed4e 0cbd
00000040: 5c4d 7fbd 8e5f 11be 55ac 9dbd 550c c4bc
00000050: f28e d5bc 3956 29be 1a62 c33c 830b a9bd
00000060: 8afa 0fbd 824e 823c 1980 9abe 03e8 85bd
00000070: 9456 dcbd ee8a 0dbd d579 cebd 5334 0abe
00000080: e122 8dbd 9da8 a1bc 4415 35be 693e aebd
00000090: b88e 2ebd 664e 08be e445 21bd 7b85 f9bd
000000a0: 5a19 3bbd bd79 38be 48fe a7bd 34db 15be
000000b0: fe5a bdbd 8a88 d2bd 1385 b8bc 4bd5 82bd
000000c0: 868c 27bd 27fc 1c3c d529 283c 37ac d2bd
000000d0: 9d0f 4fbd 87af 33be ef84 9bbc 9844 33be
000000e0: b45f d2bd 38ac babd cb46 75bd a7a6 c3bd
000000f0: 00a5 bebd 6f52 a6bd 11cb e2bc 63e6 aabd
