artifacts/model_cnn_fold_4.pth (torch, 141777 bytes, 17 tensors)

features.0.weight f4 [32, 8, 5]
000000 94 33 4f 3e a9 e4 fa 3d 07 8b 29 bd 81 44 42 3d
       0.20234519 0.12250645 -0.041392352 0.04742861
000010 dd 8c e0 ba 84 cc 99 bd ef 10 ef bb e3 36 3d 3d
       -0.0017131824 -0.075097114 -0.00729572 0.046194922
000020 21 66 6c bc d4 ee 1d 3e ad 88 81 bd 72 82 6d bc
       -0.014428646 0.15423137 -0.06324897 -0.014496433
000030 b2 a3 6f 3d 5d c7 6d 3e 89 d8 05 3e 86 ff 18 3e
       0.05850572 0.23220582 0.13070883 0.14941224
000040 8c fc 5f 3d 2d ca 5e 3d f0 d1 b0 3c 5b 3f 2d 3e
       0.054684207 0.05439203 0.021584481 0.169187
000050 1a 5b 87 3c b6 a3 1a 3e 82 44 4a bd 7e 07 f8 3b
       0.016522933 0.15101513 -0.04938174 0.0075692525
000060 15 c1 90 bd 9e ea 1c bd 6e ef c2 ba 70 62 58 3c
       -0.070680775 -0.038309686 -0.0014872381 0.013207063
000070 ec b3 69 3d 63 0c c1 3d 62 d8 95 be 49 bb a2 bd
       0.057056352 0.09426191 -0.2926665 -0.07945878
000080 f5 e3 1c be ae 8f 72 be c3 73 5e be 62 12 be ba
       -0.15321334 -0.23687622 -0.21723847 -0.0014501328
000090 0b fc 98 be 5b cb 1c bd 0c 12 c6 bd 98 89 96 be
       -0.29879794 -0.038279872 -0.09671411 -0.2940185
0000a0 5e 4b 8b bd bc 9c 61 be ce ce a9 bc b7 9e 66 3d
       -0.068014845 -0.22032446 -0.020728495 0.056303706
0000b0 83 ef 89 bd 3f 80 bd 3d 25 37 6e bc 24 35 be 3b
       -0.06735136 0.092529766 -0.014539515 0.0058046747
0000c0 28 99 45 3d 27 ab 5b bc cc eb 10 be 8a f2 1a 3d
       0.048241764 -0.013407505 -0.1415245 0.03782896
0000d0 8e b6 d7 3c 1c f8 cf bd d1 2b 5d 3b ae da e5 bd
       0.026332166 -0.10154745 0.003374804 -0.112233505
0000e0 a5 24 ba 3e d9 e2 73 bc 16 3d 23 be b8 1b cd 3e
       0.36356083 -0.014885628 -0.15941271 0.4006021
0000f0 f9 31 44 3e 74 e9 18 be 2a 4d e8 bc c0 eb 58 3e
       0.19159688 -0.14932805 -0.028357107 0.21183681
000100 9f 49 7d be 0a e6 cc 3c 48 af 11 be b2 83 0e 3e
       -0.24735115 0.025012035 -0.1422702 0.13917425
000110 60 f3 9b bd 98 3f 2a bb 0e 1e 82 bc 6a 8c 5a 3d
       -0.076147795 -0.0025977846 -0.015883472 0.053356566
000120 f1 04 9b bc 5f 9f a1 3a 60 64 8e 3d 9e f7 93 bc
       -0.018923255 0.0012330821 0.06952739 -0.018062409
000130 44 a2 a2 3d 10 1a 05 bd 13 87 64 bd 36 e1 46 bd
       0.07941106 -0.03249556 -0.05579288 -0.04855462
000140 e5 db 4c 3d 47 1c 25 be 1b 94 35 be 2f a1 b8 3c
       0.050014395 -0.16124068 -0.17732279 0.022537796
000150 1d f8 02 3e ce b1 2c bc 33 ee b2 b9 64 b9 45 3d
       0.1278996 -0.010540439 -0.00034128278 0.048272505
000160 e0 82 be bc e7 f1 a4 bc 79 b2 24 bc 34 f0 7a 3e
       -0.023255765 -0.02013488 -0.010052317 0.24505693
000170 21 28 71 3c 8c ee 0b be 96 9b ea bd c8 80 04 be
       0.01471904 -0.13665217 -0.11455457 -0.12939751
000180 b1 3d ab be eb 89 8d be 8d ab 22 3d 1e 7e 79 bd
       -0.33445504 -0.27644286 0.039714385 -0.06091129
000190 6d 88 10 bd 38 34 be 3d ac f8 79 3e 85 f1 50 3e
       -0.035286356 0.09287304 0.24411267 0.20404632
0001a0 0f 4f d0 3d 3e f0 81 3d 33 06 16 be 9a 83 44 bd
       0.10171329 0.06344651 -0.14650802 -0.047977068
0001b0 40 bd 64 bd 97 e1 98 3d 73 e7 af 3d 23 79 19 bd
       -0.055844545 0.07464903 0.08589067 -0.03746904
0001c0 84 51 a9 3d 3f 80 be bd 61 e9 bf 3a 7b 84 ac bd
       0.08267501 -0.09301805 0.0014641696 -0.08423706
0001d0 2c 47 5a 3c c9 04 78 3e 40 5a 9a 3e 9c 99 ca 3d
       0.013322633 0.24220575 0.3014698 0.0989258
0001e0 6b 65 61 bd 51 69 36 be 3f ee 06 3e 91 b0 9a 3c
       -0.05502836 -0.17813613 0.13176821 0.018883022
0001f0 0d ae bb bd a3 db 6f 3c 72 c2 57 3d b3 e4 80 3d
       -0.09164057 0.014639768 0.052675672 0.06293621
000200 03 41 6a bc 90 88 de bd 15 5f 1c 3e c4 a8 41 be
       -0.014297727 -0.10865891 0.15270646 -0.18912035
000210 f3 0e ce bd 11 96 25 3e 24 b9 42 3c cd 9b 07 be
       -0.10061445 0.16170527 0.011884961 -0.13243027
000220 91 2d b7 3d f3 b5 1c 3d 1d f1 61 bd 65 7f d2 bd
       0.08944238 0.038259458 -0.055161584 -0.10278205
000230 8b a6 0a bd 37 98 0d bc 2a b5 24 bd 22 0d 88 bd
       -0.033850234 -0.008642248 -0.040211834 -0.0664313
000240 1b c8 cc 3d 0e 3f 39 be b3 03 68 3e bf 4b 05 bd
       0.099991046 -0.1809046 0.22657661 -0.03254294
000250 92 91 6d be 6b 9e 69 3e de 07 ab bd 49 73 10 3e
       -0.23200062 0.22814338 -0.0835111 0.14106478
000260 f1 7b 3d 3d a7 e2 34 be c9 76 65 3e a3 2a fa 3d
       0.046260778 -0.17664586 0.22408594 0.122151636
000270 e0 76 2f 3d 65 ab e6 3d cb cf 87 3d 8d 9d 49 bd
       0.042837977 0.1126316 0.0663143 -0.049222518
000280 25 91 16 bc e9 08 a8 bd 78 b0 02 be ec 6f 95 bd
       -0.009189879 -0.082048245 -0.1276263 -0.07296738
000290 94 a4 84 3b 21 e7 a1 3a 44 76 f1 3d e1 92 af 3c
       0.0040479396 0.0012352207 0.117901355 0.021432342
0002a0 68 7a 4d bd 53 45 a8 bc 8f f1 2e 3d 50 d2 c6 bd
       -0.050165564 -0.020540869 0.042710837 -0.09708083
0002b0 e5 7e 0e bd 22 f4 ed 3d 8a 83 8a 3d 57 5b 4f bd
       -0.034788985 0.1161883 0.0676337 -0.050624218
0002c0 52 1f af bd ad 93 48 3e 38 32 25 bc dd 96 23 bd
       -0.08550896 0.19587584 -0.010082774 -0.039938796
0002d0 37 d9 83 bd db 8e 4c 3e f3 f6 16 be 01 9f 91 bd
       -0.06437915 0.1997637 -0.14742641 -0.07110406
0002e0 ee e7 02 3d f4 54 ab 3d b1 0b 01 be 4d 78 2a bd
       0.031959467 0.08365813 -0.12602116 -0.041618634
0002f0 b6 e1 23 3e 87 1f 63 bd 07 30 81 be 45 ae 2a 3e
       0.1600407 -0.05544999 -0.25231954 0.16668041
000300 3f e7 8c 3e 26 e1 6c bd b6 3d 13 3d 72 37 1d 3d
       0.27520177 -0.057831906 0.035947524 0.038382955
000310 d4 55 8e 3e c7 81 cf bd 79 00 9b be cb eb a6 bd
       0.27799857 -0.10132175 -0.30273798 -0.08150443
000320 d9 22 b7 3d 1f f2 9b bd 51 65 ef bd f6 bc 57 3e
       0.089421935 -0.0761454 -0.116892464 0.21068177
000330 dd d5 10 3b 7a 0e 46 be 89 b8 bd 3e 4c 3f 31 be
       0.0022100129 -0.1934146 0.37054852 -0.17309302
000340 02 52 60 bd 2a d9 2d 3e 76 fb a2 bd fd e6 02 3e
       -0.05476571 0.16977373 -0.079581186 0.12783428
000350 1c a1 09 3d 5c 7e 08 be 3c 56 02 3e b4 23 07 bd
       0.03360091 -0.13329452 0.12728208 -0.032993034
000360 f0 c5 6f bd 07 78 e5 3d ce 13 f8 bc e2 32 97 bb
       -0.058538377 0.11204534 -0.030282881 -0.00461422
000370 64 66 a7 3d cc 60 16 be a9 2c 16 be f0 5a 8d 3d
       0.08173826 -0.14685363 -0.14665474 0.069021106
000380 c1 02 83 be 36 3b a3 3c 5d 0f 42 be 2e 6a 3a 3e
       -0.2558804 0.019925695 -0.18951173 0.18204567
000390 bc 4e b6 bd 5e ae a4 bd 99 00 b6 bd e3 a0 89 3e
       -0.08901736 -0.080410704 -0.08886833 0.2688056
0003a0 c2 ef 8f bd 79 da 30 3d 57 bc 76 3e 53 e9 67 bd
       -0.07028152 0.0431771 0.24095283 -0.056619
0003b0 41 eb f7 3d 2c 05 85 bc 1b 1e e9 bd 17 41 13 3d
       0.12105418 -0.016237818 -0.11382695 0.035950746
0003c0 8e a2 13 3e ff a9 2c 3d f3 1e 84 3c f9 4b 1e be
       0.14417478 0.04215431 0.016128039 -0.15458669
0003d0 82 23 2b bd f9 ab bf bd 5f 13 48 3d e2 71 c3 bb
       -0.04178191 -0.09358973 0.0488466 -0.0059645036
0003e0 b1 d8 f3 3a 6b c9 92 bd c7 94 58 3e de 36 c9 3c
       0.0018604008 -0.07167324 0.21150504 0.024562296
0003f0 96 ae 4b be e0 53 70 be 81 9d 42 3d 6c 43 c6 bd
       -0.19890818 -0.23469496 0.04751349 -0.096808285

features.1.weight f4 [32]
000000 41 e4 70 3f 50 3f 82 3f 24 96 7e 3f b7 e9 74 3f
       0.9409829 1.0175571 0.99447846 0.9566912
000010 83 71 72 3f c6 30 73 3f b7 63 76 3f e9 53 6d 3f
       0.94704455 0.949963 0.962459 0.9270616
000020 c6 da 7e 3f d5 59 73 3f b8 53 7b 3f 14 c5 81 3f
       0.9955257 0.9505895 0.9817462 1.0138268
000030 5d d0 85 3f f2 6b 82 3f 1d cd 75 3f 5c 50 87 3f
       1.0454212 1.0189192 0.96016103 1.0571399
000040 14 9e 81 3f a4 f1 5d 3f 67 97 77 3f 90 73 70 3f
       1.0126367 0.8669684 0.96715397 0.93926334
000050 43 eb 6d 3f 94 f5 71 3f 1d 5a 60 3f 76 99 81 3f
       0.92937106 0.9451535 0.876375 1.0124958
000060 d0 c8 85 3f 95 2f 81 3f b7 69 8e 3f 2d c2 81 3f
       1.0451908 1.0092646 1.1126012 1.0137383
000070 8f c3 7e 3f c5 5a 7e 3f b8 0d 80 3f d7 2e 6e 3f
       0.9951715 0.99357253 1.0004187 0.9304022

features.1.bias f4 [32]
000000 a8 bd 0e bc 00 13 38 be ed 76 ff bd f4 e0 4f be
       -0.00871221 -0.17975998 -0.12473855 -0.20300657
000010 73 d6 95 be bb fb 3d be 09 09 7f be e4 47 82 be
       -0.29265174 -0.18553059 -0.2490579 -0.25445473
000020 b7 46 0f bd 5f 49 95 bd cc e4 66 be ba 28 55 be
       -0.03497955 -0.07289385 -0.22548217 -0.20816317
000030 86 54 5c be 32 9e ce bd 75 36 48 be 9d d6 06 be
       -0.21516618 -0.10088767 -0.19552024 -0.13167806
000040 44 58 5d be 4b 55 64 be 74 36 15 be aa 7d 2e be
       -0.21615702 -0.22298162 -0.14571553 -0.17040125
000050 b8 81 d6 bd c9 ab 89 be 02 4b 44 be d9 65 17 be
       -0.10473961 -0.26888874 -0.19169238 -0.14784946
000060 7f 7e 16 be 41 1f 2a be d9 3e be bd 08 41 20 be
       -0.14696692 -0.16613485 -0.09289331 -0.15649807
000070 de 43 e2 bd 27 52 7a be 38 28 1f be ab 10 87 be
       -0.11048101 -0.24445401 -0.15542686 -0.26379904

features.1.running_mean f4 [32]
000000 ea a9 7c 3c 06 17 b9 ba 5a f1 db bb 12 22 9f bb
       0.01542137 -0.0014121241 -0.006712121 -0.0048563564
000010 3e 04 60 3b 0f 0a 73 bb 70 45 17 3c 78 a9 9c 3b
       0.0034182216 -0.0037084853 0.009232864 0.0047809444
000020 60 bd 99 bc 14 54 4d 3a a2 ea 8b 39 bf d5 7b ba
       -0.018767059 0.0007832658 0.0002668696 -0.0009606741
000030 49 02 b6 ba db 73 3f ba a8 14 17 3a d7 88 e5 bb
       -0.0013886179 -0.00073033356 0.0005763271 -0.007004838
000040 5e cf 10 3c a1 ce ff 3b d3 eb 08 3c d2 be 16 ba
       0.008838503 0.0078066145 0.008357006 -0.00057504803
000050 ac 97 a5 bc 01 d1 39 3b af b2 1f ba 07 7b 96 3b
       -0.020213924 0.0028353336 -0.00060919946 0.0045923027
000060 4b 16 bb ba 01 4b 28 ba ea de 32 3b 09 ea cc bb
       -0.0014273612 -0.0006419868 0.0027293512 -0.006253485
000070 eb 0e d2 3a 67 8a fb 3b 67 7f 7c bb 82 a1 4b 3c
       0.0016026174 0.007676411 -0.0038528086 0.012428643

features.1.running_var f4 [32]
000000 4a dd e2 3e 64 ca 1e 3e 4b 27 0c 3f 7c 68 83 3e
       0.44309455 0.15506893 0.54747456 0.25665653
000010 87 fb a0 3e be 2e a0 3e d9 5b e0 3e bf 8b 86 3e
       0.314419 0.3128566 0.43820074 0.26278493
000020 63 b1 68 3f b6 2e 2b 3e b5 8b f8 3d 81 82 f9 3d
       0.9089567 0.16717038 0.12136022 0.12183095
000030 a4 e8 26 3e 92 f0 8d 3e 22 f5 a9 3e f4 a1 64 3e
       0.16299683 0.27722603 0.33194834 0.22327405
000040 42 a5 93 3e 30 52 77 3e b0 81 6a 3e 3c 34 19 3e
       0.2883702 0.24152446 0.22901034 0.14961332
000050 bf 13 37 3f 04 09 45 3e 20 ae 1b 3e a8 ce 83 3e
       0.71514505 0.1924172 0.15203142 0.25743604
000060 73 9c 2b 3e 61 50 c2 3d 4f 2e b6 3e 08 e5 6f 3e
       0.167589 0.09487987 0.35582206 0.23427212
000070 44 7d 97 3e 8e d5 b3 3e f0 a4 fe 3d d9 9d a9 3e
       0.29587758 0.35123867 0.12433803 0.3312824

features.5.weight f4 [64, 32, 3]
000000 62 e6 30 be d1 9d 26 be 87 8a e5 bc 56 41 a2 bd
       -0.17275384 -0.1627114 -0.028020157 -0.07922618
000010 67 db c9 bd 45 df 7e bd 20 39 3d bd 0f e0 dc bd
       -0.09856301 -0.062224645 -0.046197057 -0.10784923
000020 23 05 65 bd 4f a5 9d 3d a6 90 0a 3d 85 31 04 3d
       -0.055913102 0.07697546 0.033829354 0.032273788
000030 bd 67 3d be 78 3c 75 be 8a dd 92 bd 4d 72 26 be
       -0.18496604 -0.23948848 -0.071711615 -0.1625454
000040 7f fb 4b be 2b 26 25 be 13 db 95 bd 8c a1 4b be
       -0.19920157 -0.16127841 -0.07317176 -0.19885844
000050 47 60 2e be 19 7c cc 3d 40 68 1a bc b7 7d c3 bd
       -0.17028914 0.09984607 -0.009424269 -0.095454626
000060 23 1b e1 bd 01 75 a2 bd 2e 27 3d bd 5f 37 f0 3d
       -0.10991504 -0.07932473 -0.046179943 0.11729311
000070 ea 0f 00 3d 13 07 3b bd 72 b5 07 bc 26 dc 46 3a
       0.031265177 -0.045661043 -0.008283006 0.0007585905
000080 dd ae e0 bb ae 77 49 3c 10 29 8e bc d2 01 0b 3c
       -0.006856783 0.0122966 -0.017353565 0.008484321
000090 36 0c 89 bc ca 79 cd 3c ac a0 5e 3d d9 10 34 bd
       -0.016729455 0.025082488 0.054352447 -0.04396138
0000a0 2a e6 bb bc c3 34 82 3d 1d a7 65 be 7c 3c 99 be
       -0.0229369 0.0635772 -0.2242703 -0.29928958
0000b0 c5 6b 8e be 1b 16 19 bd 42 ad f7 bc f9 00 9c 3d
       -0.27816597 -0.037374597 -0.030233983 0.07617373
0000c0 c2 23 ad bc 12 65 33 3d 86 dd 98 3d f9 36 bc bd
       -0.021135215 0.04379756 0.07464127 -0.09190173
0000d0 df ef 24 be 8c 0a e7 bd 93 06 02 3e f2 ab f6 3b
       -0.16107129 -0.112813085 0.1269782 0.0075278217
0000e0 ca 5f c1 bc 18 09 ea bc 08 22 44 3b 44 ca 04 bd
       -0.023605246 -0.02856879 0.002992751 -0.032419458
0000f0 ec 01 be 3d f9 e7 e2 bc 2f fb eb 3b e7 16 1b be
       0.0927771 -0.027698504 0.0072015743 -0.15145455
000100 6a 38 ca bd 9e 56 13 bd a4 43 c8 3d 49 ab a7 3d
       -0.098740414 -0.035971276 0.097785264 0.08186967
000110 e8 78 e2 3d 1d 03 af bc 1c b7 b5 3d 2e 2f 2f 3d
       0.11058217 -0.02136379 0.08872816 0.042769603
000120 64 b9 08 3e 5e 8d 41 3d c1 ab 83 3d 36 52 b7 bd
       0.13351971 0.04725396 0.06429244 -0.08951227
000130 29 7b 91 bd ce 72 3a bd 26 21 74 3d 98 bf b4 3d
       -0.07103569 -0.045519643 0.059601925 0.08825606
000140 5d 3b a2 3d 48 ad ac 3d 26 33 f8 3d d4 89 a3 bb
       0.07921479 0.08431488 0.12119131 -0.0049907956
000150 6f 46 01 3b cc 11 1b bd 3d 58 48 bc 31 20 8c 3d
       0.001972582 -0.03785877 -0.012228069 0.068420775
000160 ce 34 89 3d cf 3c 4d 3d 96 73 4c 3d 43 3a ae 3c
       0.06699525 0.05010682 0.04991492 0.021268016
000170 23 a1 13 be 63 17 3e bd 42 cc 03 be 4c 06 f8 bd
       -0.14416938 -0.046409022 -0.12870887 -0.12110576
000180 ff 0b 81 bd 7e f6 5a 3c c3 86 c4 bc bd 5b ae 3d
       -0.06301116 0.013364432 -0.02399004 0.085135914
000190 b0 53 0c 3e 82 9f 15 3e 6e b2 a3 bd 95 37 a5 bd
       0.13703799 0.14611629 -0.07993017 -0.08067242
0001a0 9f 83 97 3c 18 51 92 bd 26 20 f7 bd 9b d8 10 be
       0.018495379 -0.07144374 -0.12066679 -0.14145128
0001b0 a2 8b 95 3c ff fd af 3d a8 e0 fb 3c 0d d1 86 bd
       0.018255059 0.08593368 0.030746773 -0.06582842
0001c0 2a 04 5d 3d 33 a4 1c 3d 24 04 05 be ff be b4 be
       0.05395905 0.03824253 -0.12989861 -0.35301968
0001d0 d2 04 88 be d6 91 2d 3d 0a ab 09 3d 1a 74 18 3c
       -0.26566178 0.042375408 0.03361038 0.0093050245
0001e0 34 d3 1e 3e 75 c3 b5 bd c4 32 19 bc 72 a1 0e bd
       0.15510255 -0.08875171 -0.009350482 -0.034821935
0001f0 a8 bd 29 bd 0d 4d be 3c f5 34 1e 3d 90 64 09 3b
       -0.041440636 0.0232301 0.038624723 0.002096448
000200 43 56 fa 3b dc 15 15 3e 46 e8 fa bd 9a e2 ee 3d
       0.0076396777 0.1455912 -0.12251334 0.116643146
000210 02 ef 04 3c 3b c8 14 3e ea 56 d8 bd 62 32 1e bd
       0.0081136245 0.14529507 -0.105634525 -0.038622268
000220 74 24 5c bd 01 67 da 3c a6 04 62 3c 85 10 e8 3d
       -0.053745702 0.026660444 0.013795054 0.11331276
000230 38 10 ec 3d 8a b8 24 be 9a b3 15 3d 8f 20 78 bc
       0.11526531 -0.16086021 0.036548235 -0.015144481
000240 ad fd 9b 3d ac f9 19 3c a7 da f1 bc 8a 7a 4e 3d
       0.07616744 0.009397905 -0.029523207 0.05040983
000250 58 1f 91 3d bf 27 41 bd 89 8d 30 be 7f ee 03 be
       0.070860565 -0.047157045 -0.17241491 -0.12883948
000260 85 54 21 be 7b 38 b4 3c a2 e2 8e bd 8d 8d d5 bd
       -0.15754898 0.021999588 -0.069768205 -0.10427389
000270 07 5c fa bd 4d 4b 9e bc 00 b4 30 bd 60 3d 46 3d
       -0.12224584 -0.019323016 -0.04314041 0.048398376
000280 0a dc 7a 3d 34 2a b0 3d ce 64 36 bd 59 29 49 bd
       0.061245 0.086017996 -0.04452973 -0.049111698
000290 19 49 e2 3d e9 48 3e be fc fc 56 be 84 81 5e be
       0.110490985 -0.185825 -0.20994943 -0.21729094
0002a0 88 31 ad bd 14 96 2d be c9 13 02 be 5e 42 c2 bd
       -0.08456713 -0.16951782 -0.1270286 -0.09485315
0002b0 03 fd 21 3d d4 f1 a3 bc a1 ce 84 bc e3 e7 4a bd
       0.03954793 -0.020012774 -0.01621181 -0.04953755
0002c0 8d 7b b7 bd 54 bd 4a be 1e 1d 97 bd bd b4 8f 3c
       -0.08959112 -0.19798785 -0.073786005 0.017542237
0002d0 f5 a5 e0 3d e9 ee 1a 3d 08 88 bb 3c ce 9a 74 be
       0.10969154 0.0378255 0.022892013 -0.23887178
0002e0 e2 68 fb 3c ea e7 9f be ed 91 7b 3c f9 9c cc 3c
       0.03068966 -0.31231624 0.015354616 0.024977194
0002f0 0a 44 29 3d be 13 4c be d9 b9 15 bc bf 71 b4 bc
       0.041324653 -0.19929406 -0.009138548 -0.022026895
000300 72 5d ac bd d7 b0 51 be 98 26 37 be e5 b9 7f be
       -0.08416261 -0.20477615 -0.17885816 -0.24973257
000310 d0 a1 92 be 9f 07 4e be dc 16 cd 3d 7b 08 b3 3d
       -0.28639078 -0.20120095 0.10014126 0.08741852
000320 a2 69 d5 bd ae f0 dc 3d 18 93 52 3d 64 b0 15 be
       -0.104205385 0.107880935 0.05140981 -0.14618069
000330 1c 85 38 3d 83 83 06 bd 56 1a 58 3c 23 7c 45 bc
       0.045048818 -0.032840263 0.013189873 -0.012053522
000340 e9 81 cf bd 1d a0 1c be ab 3e 90 3c 38 3f 12 3d
       -0.101322 -0.15295453 0.017608007 0.03570482
000350 8d 45 62 bd c6 61 72 bd 4c 94 85 bd e5 b1 2e be
       -0.05524211 -0.059175275 -0.06522426 -0.17060049
000360 f8 73 da 3c ca 3c 49 3d bd 75 7d 3d 02 68 37 3d
       0.026666626 0.04913024 0.061879862 0.044776924
000370 00 d0 9d 3d 81 6e 1e be c7 74 dd bc 5f 4c 47 3d
       0.077056885 -0.15471841 -0.027033223 0.048656818
000380 aa e7 3e bd 28 cc 43 3b 5b 2e 7e 3d de 6c c5 bc
       -0.04660765 0.0029876325 0.062055927 -0.024099763
000390 38 b4 44 3e 13 f5 84 3c 6c 05 05 3e b9 bf 2e be
       0.19209373 0.016230142 0.1299035 -0.17065324
0003a0 ee 2a fc bd 9c d0 44 be fb 96 5f bd 48 fd ef bd
       -0.12312876 -0.19220203 -0.054587346 -0.117182314
0003b0 f0 de 11 be 93 0d 49 bd 26 ae 8d bd e5 76 a4 bd
       -0.142452 -0.04908521 -0.06917982 -0.0803049
0003c0 db 6e 26 3e 9e 40 27 3d fd 29 ec 3d 07 9b 2d bd
       0.16253226 0.040833108 0.11531446 -0.042384174
0003d0 75 76 82 bd b5 72 47 be bb d8 c8 3d e5 0c 06 bc
       -0.0637025 -0.19477351 0.09806963 -0.008181785
0003e0 a4 b5 84 bd 96 92 21 3c ef a2 e6 bd ad 86 2e be
       -0.06479958 0.009861609 -0.11261546 -0.17043562
0003f0 51 cc 25 3b fd fa ac 3d 19 f1 ae 3a 3f da da 3d
       0.0025298784 0.0844631 0.0013346999 0.106861584

features.6.weight f4 [64]
000000 39 e9 7e 3f 7f 53 67 3f b4 56 69 3f 19 f9 61 3f
       0.9957462 0.9036178 0.91147923 0.8827072
000010 ac a2 60 3f 42 d3 6d 3f 41 4b 75 3f ec df 5d 3f
       0.8774822 0.9290048 0.95817953 0.866698
000020 83 ec 61 3f 49 f7 7b 3f cc 43 63 3f d6 e9 68 3f
       0.88251513 0.984242 0.88775325 0.90981805
000030 5e 98 60 3f af cb 75 3f 1c 9b 75 3f 1f 32 79 3f
       0.87732494 0.9601392 0.95939803 0.97342104
000040 f6 7e 75 3f 17 b8 80 3f f7 bb 6c 3f ed b4 61 3f
       0.9589685 1.005618 0.9247431 0.88166696
000050 7a 8c 75 3f c6 7f 66 3f 91 36 76 3f 7b fc 74 3f
       0.95917475 0.90038717 0.9617701 0.95697755
000060 b2 6f 6d 3f ba 01 63 3f 86 ea 6c 3f 49 eb 7b 3f
       0.9274856 0.8867451 0.92545354 0.9840589
000070 1c 44 7f 3f ce d8 70 3f f8 0b 80 3f 6b c9 7d 3f
       0.997133 0.9408082 1.0003653 0.99135464
000080 64 6b 4a 3f 1c eb 6f 3f dc b9 82 3f 7c fc 78 3f
       0.79070115 0.93718123 1.021297 0.9726026
000090 f0 41 62 3f bb 80 86 3f 71 2c 6c 3f 80 16 6c 3f
       0.8838186 1.0508035 0.9225531 0.9222183
0000a0 87 03 81 3f 87 cf 77 3f c9 84 7d 3f b8 79 78 3f
       1.0079201 0.96801037 0.9903074 0.9706073
0000b0 97 3f 85 3f e8 ad 75 3f 89 a1 64 3f 67 98 85 3f
       1.0410031 0.95968485 0.89308983 1.0437135
0000c0 95 23 77 3f c7 0f 5a 3f 2d 7f 73 3f ad 3a 82 3f
       0.9653867 0.85180324 0.9511593 1.0174156
0000d0 f1 58 6c 3f bc 51 96 3f ef 20 67 3f ab fa 45 3f
       0.92323214 1.1743693 0.9028463 0.77335614
0000e0 63 9d 70 3f 6a 8d 75 3f 99 8e 59 3f 2b 58 67 3f
       0.93990153 0.95918906 0.8498321 0.9036891
0000f0 07 f8 6e 3f 85 25 6f 3f 98 0b 60 3f c5 56 80 3f
       0.9334721 0.93416625 0.8751769 1.002648

features.6.bias f4 [64]
000000 59 b0 85 be 90 ab 3c be 12 51 25 be 70 ab 63 be
       -0.26111105 -0.18424821 -0.16144207 -0.22233367
000010 52 f7 71 be db b2 0f be 6c 53 93 be 64 0f 81 be
       -0.23629501 -0.14033072 -0.28774583 -0.25207055
000020 84 f4 c3 be da e5 5c be ab cf aa be d1 44 6d be
       -0.38272488 -0.21572056 -0.33361563 -0.23170783
000030 c1 4b 96 be 8e e7 a6 be 52 3c b2 be fe 2a c1 be
       -0.2935467 -0.32598537 -0.34811646 -0.37728113
000040 72 b7 81 be e1 39 7d be a7 1b c1 be 6a 59 16 be
       -0.2533527 -0.2472911 -0.3771641 -0.14682546
000050 23 b2 8d be 40 d7 8e be d0 00 82 be 4f da 7e be
       -0.2767497 -0.27898598 -0.25391245 -0.24887966
000060 9f 0f 9a be ba 4f 71 be 79 33 2f be d0 ad b1 be
       -0.30090043 -0.2356557 -0.17109479 -0.3470292
000070 91 9e 82 be 42 6e a7 be db 87 9b be 26 ef c7 be
       -0.25511602 -0.32701308 -0.30377087 -0.39049643
000080 04 d0 a2 be 2b c0 8e be a2 cc 84 be 5c c4 a8 be
       -0.31799328 -0.27880988 -0.25937372 -0.3296231
000090 46 24 99 be 76 63 73 be 26 16 79 be 72 bc b4 be
       -0.29910487 -0.2376841 -0.24324855 -0.35300022
0000a0 85 b4 9b be ce 0a 21 be 19 62 8e be af 95 7a be
       -0.30411163 -0.15726778 -0.27809218 -0.24471162
0000b0 39 aa 54 be eb b2 82 be e9 5b 9a be 7d 80 a7 bd
       -0.2076806 -0.2552713 -0.30148247 -0.08178804
0000c0 9d 6d 77 be f0 86 68 be 27 03 d1 be 65 70 88 be
       -0.24162908 -0.22707725 -0.40822718 -0.2664825
0000d0 30 8d 72 be 08 10 96 be c8 3e f4 bd 0f 5d 12 be
       -0.23686671 -0.29309106 -0.11926037 -0.14293312
0000e0 03 7e 9e be 69 3c 72 be 25 97 aa be 48 c0 99 be
       -0.30955514 -0.23655857 -0.3331844 -0.3002951
0000f0 82 f0 95 be d2 2e a7 be 4c c3 9f be b2 7c 07 be
       -0.29285055 -0.3265291 -0.31203687 -0.13231161

features.6.running_mean f4 [64]
000000 c7 c9 93 bf 59 15 9b bf 80 1b 3a bf fd 50 36 bf
       -1.1545953 -1.211589 -0.7269821 -0.7121733
000010 b4 41 40 bf 77 15 58 bf b7 ed 23 bf a1 c4 07 bf
       -0.75100255 -0.8440775 -0.640346 -0.53034407
000020 aa 2e 96 bf 4e f2 b8 bf 69 20 70 bf cd 61 fb be
       -1.1732991 -1.4448946 -0.93799454 -0.49098054
000030 10 1e 50 bf d2 8e 58 bf 21 e4 84 bf 1b e7 24 bf
       -0.8129587 -0.84592927 -1.038212 -0.6441514
000040 4e 90 44 bf f0 9a a4 bf bf a4 a4 bf 79 bb 00 bf
       -0.7678269 -1.2859783 -1.2862777 -0.5028606
000050 e0 f4 a8 bf 0e 9a 27 3e cd a1 45 bf bb 56 e7 be
       -1.319973 0.16367361 -0.77200013 -0.45183358
000060 01 5c 17 bf a3 a0 17 bf f0 33 40 bf c5 9d 77 bf
       -0.5912476 -0.5922949 -0.7507925 -0.9672511
000070 63 e7 74 bf 9d e6 71 bf dd 7d 90 bf a2 7d c0 bf
       -0.9566557 -0.9449251 -1.128841 -1.503834
000080 49 5f 61 bf 31 12 34 bf 6b 42 96 bf d0 6f 4a bf
       -0.8803602 -0.7034026 -1.1739019 -0.7907686
000090 c2 22 4d bf 2d 51 53 bf 6e f0 ea be 7d 73 6f bf
       -0.8013116 -0.8254574 -0.45886558 -0.93535596
0000a0 9c 28 3e bf 7a fb 2e bf 62 5b 40 bf 71 f1 17 bf
       -0.74280715 -0.6835247 -0.7513944 -0.59352785
0000b0 d7 d1 45 bf a8 95 37 bf f2 f8 72 bf 71 8a 25 bf
       -0.77273315 -0.7171273 -0.9491111 -0.6466437
0000c0 80 55 23 bf 92 46 04 bf 51 82 3f bf e5 ea 57 bf
       -0.6380234 -0.5167018 -0.7480822 -0.84342796
0000d0 97 a7 29 bf 58 76 3f bf 27 4e 41 3f 94 61 58 bf
       -0.66271347 -0.74789953 0.75509876 -0.8452389
0000e0 22 d7 63 bf 7b ee 8b bf 0a e9 b7 bc d4 5b ab bf
       -0.8900014 -1.0932153 -0.022449989 -1.3387399
0000f0 c4 9a 74 3e 01 11 44 bf e1 0f 64 bf 4b c6 0c bf
       0.23887163 -0.76588446 -0.8908673 -0.5499007

features.6.running_var f4 [64]
000000 84 8e c4 3f 7d bc d0 3f af f0 b6 3f 8f e9 b2 3f
       1.5355992 1.6307522 1.4292201 1.3977526
000010 79 07 9a 3f 44 a3 b4 3f be b2 8c 3f c0 ea 6e 3f
       1.203353 1.4112325 1.0992048 0.9332695
000020 c6 78 dd 3f 3b 9b 0c 40 73 5a a6 3f 08 74 8a 3f
       1.7302482 2.1969745 1.2996353 1.081666
000030 b8 0e 97 3f 04 bd ab 3f 4f 40 da 3f ba 86 79 3f
       1.1801367 1.3417058 1.7050875 0.974712
000040 93 57 b4 3f 04 ca 32 40 2d ce 37 40 b8 b0 94 3f
       1.4089226 2.79358 2.871959 1.161643
000050 36 4e fc 3f 8e db 91 3f 2d d8 ab 3f a9 e9 bc 3f
       1.9711368 1.1395128 1.3425347 1.4758807
000060 8e 9e 6b 3f ad 30 89 3f 25 79 c9 3f 27 2e b3 3f
       0.9203881 1.071798 1.5740095 1.399846
000070 fd b1 9d 3f 50 a7 db 3f 3b 6a 12 40 48 1f f7 3f
       1.2319943 1.7160435 2.2877338 1.9306421
000080 62 f1 b9 3f 57 71 88 3f d2 79 d1 3f ab 27 a2 3f
       1.4526789 1.0659589 1.6365302 1.2668356
000090 37 72 87 3f d7 16 bd 3f dd c2 b0 3f c9 f4 87 3f
       1.0581731 1.4772595 1.3809468 1.0621578
0000a0 0d fb 89 3f 59 3b c5 3f 00 00 85 3f 49 47 76 3f
       1.077974 1.5408736 1.0390625 0.9620252
0000b0 ab 8d ca 3f 9c 12 9b 3f 00 17 f7 3f 00 d0 8e 3f
       1.5824484 1.2115054 1.9303894 1.1157227
0000c0 3f a3 98 3f 20 e4 66 3f 3f e4 94 3f 7b 62 8f 3f
       1.1924819 0.9019184 1.1632155 1.1201929
0000d0 b3 7b 8f 3f 36 d1 cb 3f 54 47 99 3f f9 b1 a6 3f
       1.1209625 1.5923221 1.1974893 1.3023063
0000e0 3e da a1 3f ba c2 bc 3f 90 05 4e 3f 4f 45 d7 3f
       1.2644727 1.4746926 0.8047724 1.6818026
0000f0 ad a6 a6 3f 90 23 86 3f 71 c4 a2 3f 26 28 ab 3f
       1.3019615 1.0479603 1.2716199 1.3371627

features.10.weight f4 [128, 64, 3]
000000 fb a6 1d 3d 88 6b 93 bc 8c 83 06 3e ba 2c 9d 3d
       0.038489323 -0.01799561 0.13136119 0.076745465
000010 a9 6f 4a 3c 5c 6c ad 3a 4b 92 2a 3e 01 96 47 bd
       0.012355723 0.0013231146 0.16657369 -0.04872704
000020 eb db 4d 3e b2 67 00 be df 08 81 bd 9b 73 b4 bd
       0.20103423 -0.12539557 -0.0630052 -0.088111125
000030 a2 e6 1d 3d 0d 86 96 bd e3 74 5e 3d 26 c2 c9 bc
       0.038550027 -0.07349787 0.05431069 -0.02462871
000040 40 eb 1b 3d ae aa f1 bd d1 bd 20 bd ce 42 88 bd
       0.03806615 -0.11800133 -0.039243523 -0.06653367
000050 96 7b bc bd ab ac 7b ba 10 f7 50 bd 90 7f 8b 3c
       -0.0920326 -0.00096006197 -0.051016867 0.0170286
000060 49 f0 c7 3c ca 42 00 be 10 ca c7 bc f7 40 10 3d
       0.02440657 -0.12525478 -0.024388343 0.035218205
000070 b1 65 ea 3b 41 c2 d7 bc b7 3e 14 3e b2 b2 52 3b
       0.007153236 -0.026337745 0.14477049 0.0032149968
000080 59 58 4c 3d 0a 73 b5 bd a6 55 1a bd 28 da f2 bd
       0.049888942 -0.088598326 -0.037679337 -0.11858016
000090 0a c6 44 bd 32 28 a7 bd 21 a3 45 bd 99 39 25 be
       -0.048040427 -0.081619635 -0.048251275 -0.16135253
0000a0 77 52 b6 bd a1 04 9e bd 4d 46 d0 bd 81 e4 17 be
       -0.08902448 -0.07715727 -0.10169659 -0.14833261
0000b0 44 46 05 be de 99 12 be 4f 7b 3e be 57 d6 2f be
       -0.13015085 -0.14316508 -0.18601726 -0.17171608
0000c0 61 97 e2 bd 57 a3 51 bb f0 0a 01 be d5 ec 99 bd
       -0.110640295 -0.0031988227 -0.12601829 -0.07515875
0000d0 03 7c 6a bc 10 27 06 bd 62 db bf 3a 4a 41 bf bd
       -0.014311793 -0.032752097 0.0014637525 -0.09338625
0000e0 c2 3d 82 bd 1d 9e 33 bd 53 a1 f0 bd 99 f9 a2 bd
       -0.063594356 -0.04385196 -0.1174952 -0.07957763
0000f0 bb ca 6f 3d 63 8f 65 3d 8a 31 93 3c 10 1f 1c be
       0.05854295 0.056044947 0.017967958 -0.15246224
000100 7f d2 22 be 4c 4d 18 be 22 60 6c be fc bb 37 be
       -0.1590061 -0.14873236 -0.23083547 -0.17942804
000110 0f b0 55 be 97 2e 5f 3c 86 e9 89 3b c9 e4 d4 ba
       -0.20867942 0.013621948 0.0042087464 -0.00162425
000120 a8 92 ca bc 5b 7d 39 bd a5 1c d2 3d c3 77 33 bd
       -0.024728134 -0.045285564 0.1025937 -0.043815386
000130 31 c8 0a 3d d7 64 9d 3d a9 c5 75 bd 71 ed 24 3d
       0.033882324 0.07685249 -0.060002957 0.040265504
000140 45 c0 de bd 95 84 9a bd 00 bf 9b bd c6 a6 ad bd
       -0.10876516 -0.07544819 -0.0760479 -0.08479075
000150 bd f1 dd 3c 57 f0 84 bc a8 6f 17 3b 48 e5 f0 bd
       0.027092809 -0.016227884 0.0023107324 -0.11762482
000160 ec d2 be bd fd bf 27 bd 59 2b 82 3e 5c f6 92 bc
       -0.09317574 -0.04095458 0.25423697 -0.017939739
000170 3a 38 94 3e bf 03 30 bd 52 51 19 bd 97 10 31 bd
       0.28949147 -0.042972323 -0.03743107 -0.043228712
000180 61 f5 da bd b2 77 d6 bd f6 74 3a bd 39 db c9 bd
       -0.106913336 -0.10472049 -0.0455217 -0.098562665
000190 54 77 03 bd ec 50 1f be ab aa 67 3d ec 84 7e 3c
       -0.032096222 -0.15558213 0.056559246 0.015534621
0001a0 34 7f be 3d 5d 5b 12 be ff b7 79 bd e2 97 e7 bd
       0.09301606 -0.14292665 -0.060966488 -0.11308266
0001b0 1e ad 90 3d 5c 7c 9c bd 85 fc b9 3d 3a 49 06 3e
       0.070642695 -0.07640907 0.090813674 0.13113871
0001c0 1b 2c 28 3c 5e b5 45 bc 61 19 bf bd 91 37 a5 3a
       0.010264422 -0.012067167 -0.093310125 0.0012605061
0001d0 cb 99 1b bd 49 bf 90 3d 24 0f ba bd 8e 8f e0 3c
       -0.037988465 0.07067735 -0.09084919 0.027412202
0001e0 e1 05 c3 bd f4 2c e3 bd c6 38 8b bd fb d7 bc 3c
       -0.09522606 -0.110925585 -0.06797938 0.023052206
0001f0 46 a0 d5 bc 9d 68 27 3d d2 8a 95 bd ad 93 90 bd
       -0.0260774 0.04087125 -0.073018685 -0.07059417
000200 cd 6c c8 bd 8c dc 12 bd 9d b3 6e bd 29 31 69 bd
       -0.09786377 -0.03585486 -0.05827676 -0.05693165
000210 0f 07 1c bd 2e 45 15 3d cd 96 de bd 39 3e c4 bd
       -0.03809267 0.036442928 -0.10868607 -0.095821805
000220 ab d5 12 3d cc 66 0f 3d ed 33 2c 3c ea e4 09 bd
       0.0358483 0.035010144 0.010510427 -0.033665575
000230 e4 8b 35 bd 22 a9 02 be b2 31 db bc 65 f2 84 bd
       -0.044322863 -0.12759832 -0.026757095 -0.064915456
000240 93 10 29 bc bc a6 75 bd f1 56 51 3d 87 60 e0 bb
       -0.010318893 -0.059973463 0.051108304 -0.0068474445
000250 8c 4a d5 bd b7 57 89 3c af 40 af bd 22 ba 81 be
       -0.10414609 0.016765459 -0.08557259 -0.2533732
000260 2b fc c4 bd 32 c7 4f be 0a d3 05 be 78 fa c1 bd
       -0.0961841 -0.2029083 -0.13068786 -0.09471601
000270 99 b6 82 bd 85 7a cc 3b e3 86 e1 bb 9c cc 07 be
       -0.06382484 0.0062401914 -0.006882535 -0.13261646
000280 a2 28 64 be c0 1a 52 be 4f b9 ee 3b 7e b0 7e 3d
       -0.22281125 -0.20518017 0.007285274 0.062180035
000290 b9 80 49 3d 52 ab 90 3d 4d 16 04 3d 38 b2 99 3d
       0.049195025 0.07063927 0.03224783 0.07504696
0002a0 72 31 bc 3c d0 b3 2c bc 39 a3 9b 3b b7 c4 f0 3d
       0.022972796 -0.0105409175 0.0047496823 0.117562704
0002b0 b4 f6 31 3d 55 fe 3c 3d 27 d3 83 bb 50 35 ef 3c
       0.043448165 0.046140987 -0.004022974 0.029200226
0002c0 79 a7 30 bc 1d 09 d5 3d e6 25 b9 bc cc 6c c5 3d
       -0.010782116 0.10402129 -0.02260108 0.09639892
0002d0 f3 e0 17 3d 09 f0 81 3d 3f 02 e9 3d 7d 37 85 3c
       0.037079763 0.06344611 0.113773815 0.01626181
0002e0 88 19 93 bd 23 71 de bb 0b b1 08 39 fc ec 9c bd
       -0.07182604 -0.0067883893 0.00013035924 -0.07662389
0002f0 ba 89 14 bd 7d 68 6d 3d 8a 3e 61 bc 05 25 bd bc
       -0.03626416 0.057960976 -0.013747821 -0.023088941
000300 2f 43 73 3d 13 8b 88 bc 77 6a 95 3d 03 88 0d be
       0.059390243 -0.016667878 0.07295697 -0.13821416
000310 5e b8 11 be 0f 40 1b be 1d 9e 22 bd 88 00 cc bc
       -0.14230487 -0.15161155 -0.03970157 -0.024902597
000320 e0 ac 3c 3d c6 0a 04 bd 6e 30 8d bd a4 53 8e bc
       0.046063304 -0.032236837 -0.06894003 -0.017373867
000330 e2 03 cf bd 79 20 44 be 7f 58 87 bd 84 87 68 bd
       -0.101081625 -0.19153012 -0.06608676 -0.056769863
000340 e3 92 41 bd 0e 05 e4 bd c7 55 63 3e df ef 78 3d
       -0.047259223 -0.111337766 0.2220069 0.060775634
000350 0d 78 52 3e f8 b3 10 3e 72 bd 0f 3e 97 70 be 3d
       0.20553608 0.14131153 0.14037111 0.092988186
000360 4e 4e 41 3d 7e 7d 86 3d 44 1a 82 3e 04 b0 88 bd
       0.047193818 0.065669045 0.25410664 -0.06674197
000370 29 89 13 be 9b ce 3d be cd 88 18 3d 91 f5 af 3c
       -0.14407791 -0.18535845 0.03723984 0.0214794
000380 91 3f 7c bd 31 8f 80 bd 3e fc a4 bd 6b 11 8a bd
       -0.06158406 -0.062773116 -0.08055924 -0.067416035
000390 7e 86 4c bd 73 4a af bb 3a 6e 0c bd 6f f6 a2 3c
       -0.04993295 -0.005349451 -0.034284808 0.0198929
0003a0 3a 3d 87 3d 70 f3 be 3b e3 fb fb bd 28 19 07 3d
       0.06603475 0.00582736 -0.12303903 0.032982975
0003b0 e4 53 ea bd fe 7f 75 3c 17 65 2a 3d 55 7c 93 3d
       -0.11441782 0.014984129 0.041600313 0.07201449
0003c0 71 da 1f bd 6d 09 6d bd 0c c7 8a bd 6b b3 d5 bd
       -0.03902668 -0.057870317 -0.067762464 -0.10434612
0003d0 c1 f5 89 bd 82 e0 a0 be d0 01 c9 3d 3e b6 56 3d
       -0.06736327 -0.31421286 0.09814799 0.052419893
0003e0 35 b7 5e 3d 3b 89 0d 3e 62 b7 d0 bc b6 3f 08 3c
       0.05437394 0.1382188 -0.025478069 0.008315971
0003f0 cd f9 fc 3d a1 6b 24 bd 51 28 ce 3d bc 42 53 3d
       0.12352333 -0.040141705 0.100662835 0.051577315

features.11.weight f4 [128]
000000 d3 c1 8a 3f 30 69 8e 3f 61 e9 8f 3f 8b 7a 8c 3f
       1.08404 1.1125851 1.1243097 1.0974897
000010 0a 64 87 3f 77 f2 89 3f 95 76 8a 3f fe 5a 85 3f
       1.0577404 1.0777119 1.0817438 1.0418394
000020 cd 6e 84 3f 5c e3 84 3f e4 1a 89 3f f2 01 8b 3f
       1.0346314 1.0381885 1.0711331 1.0859969
000030 7f 62 87 3f 1c 17 8b 3f 37 06 89 3f 96 dd 8c 3f
       1.0576934 1.0866427 1.0705022 1.1005123
000040 c4 4a 86 3f 9b 99 89 3f 91 06 93 3f 3f cc 88 3f
       1.0491567 1.0750002 1.1486379 1.0687331
000050 1f 99 8f 3f 12 85 89 3f e0 ea 97 3f 4e 20 86 3f
       1.1218604 1.0743735 1.1868553 1.0478609
000060 26 52 8c 3f 1e bf 91 3f 66 52 8a 3f 57 79 8f 3f
       1.096257 1.1386449 1.0806396 1.1208905
000070 91 58 8b 3f 8e 25 87 3f b9 a5 8a 3f 72 05 8b 3f
       1.0886403 1.0558336 1.0831825 1.0861037
000080 fd ac 8b 3f ba 8a 89 3f 5e c1 89 3f b0 a5 8b 3f
       1.0912167 1.0745461 1.0762136 1.0909939
000090 cd f9 89 3f 99 f8 90 3f 87 1a 89 3f a7 e6 8c 3f
       1.0779358 1.1325866 1.071122 1.100789
0000a0 8d 51 8a 3f 85 30 8b 3f 40 68 8c 3f 75 5c 8e 3f
       1.0806137 1.0874182 1.0969315 1.1121966
0000b0 d0 ea 90 3f 23 f5 8d 3f 52 50 8b 3f f8 94 8d 3f
       1.1321659 1.1090435 1.0883887 1.1061087
0000c0 51 2e 83 3f d7 b5 8f 3f 66 d1 87 3f 46 5b 90 3f
       1.024851 1.1227368 1.0610778 1.1277854
0000d0 d9 94 83 3f 5b 04 8c 3f 3a 70 8e 3f 4d cc 8e 3f
       1.02798 1.0938829 1.1127999 1.1156098
0000e0 c1 57 85 3f b7 8f 8c 3f 9f 23 8b 3f 43 be 8c 3f
       1.0417405 1.0981358 1.0870246 1.0995563
0000f0 cd c4 8f 3f f9 58 8a 3f 77 04 8d 3f f1 aa 86 3f
       1.1231934 1.0808402 1.1016988 1.0520917
000100 aa 95 8d 3f 27 0f 88 3f e0 3f 8f 3f 3a 60 8e 3f
       1.1061299 1.0629624 1.1191368 1.1123116
000110 d9 be 8a 3f b0 05 84 3f 31 07 8a 3f 49 43 8f 3f
       1.0839492 1.0314236 1.0783445 1.1192409
000120 fe 02 8a 3f aa 0b 8c 3f 1c 47 8d 3f 45 5f 90 3f
       1.0782163 1.094106 1.1037326 1.1279074
000130 fb a3 8d 3f f4 07 86 3f 60 96 84 3f 0e 93 88 3f
       1.1065668 1.0471177 1.0358391 1.0669878
000140 40 dd 91 3f b0 e3 88 3f 7e c5 8a 3f bd 68 86 3f
       1.1395645 1.0694485 1.084152 1.0500714
000150 61 1b 84 3f d7 8b 8b 3f ca 75 8b 3f c8 de 8b 3f
       1.0320855 1.0902051 1.0895321 1.0927362
000160 cd 2c 8e 3f d4 e8 86 3f f8 e3 8a 3f 79 a4 86 3f
       1.1107422 1.0539804 1.085082 1.0518943
000170 ba d4 8b 3f 65 d9 8a 3f 65 7a 8b 3f bb ed 8e 3f
       1.0924294 1.0847594 1.0896727 1.11663
000180 40 8c 81 3f d7 04 87 3f a7 77 83 3f 8a 9e 7f 3f
       1.0120926 1.0548352 1.027089 0.99851286
000190 4c da 8f 3f e7 4c 85 3f 3f 9e 88 3f 10 f4 8c 3f
       1.1238494 1.0414094 1.0673293 1.1011982
0001a0 98 52 89 3f dc aa 8f 3f 1c ba 82 3f 78 7a 85 3f
       1.0728331 1.1224017 1.0213046 1.0428
0001b0 ca 74 87 3f 38 47 91 3f 14 d6 85 3f 00 54 8d 3f
       1.0582516 1.1349859 1.0455956 1.104126
0001c0 32 fb 8d 3f 7a fe 89 3f c9 dc 81 3f 76 e9 87 3f
       1.1092284 1.0780785 1.0145503 1.0618122
0001d0 d9 83 8d 3f a9 12 92 3f ef 26 8e 3f 44 10 85 3f
       1.1055862 1.1411945 1.1105632 1.0395589
0001e0 ab cd 8d 3f 1a ae 85 3f 42 56 8c 3f 39 c8 8f 3f
       1.107839 1.0443757 1.0963824 1.1232978
0001f0 35 0c 8a 3f ac 8b 8e 3f 32 48 91 3f 9e fa 8c 3f
       1.0784975 1.1136374 1.1350157 1.1013982

features.11.bias f4 [128]
000000 3e db f5 bc 23 08 3c bb 8f 6e e9 bd a4 a1 06 3a
       -0.03001177 -0.0028691373 -0.113980405 0.00051357807
000010 5a 84 10 bd 06 f3 f5 ba c0 7e e7 bc aa 9b 8f bc
       -0.03528247 -0.0018764443 -0.028258681 -0.017530281
000020 d0 25 55 bd 81 6f b7 bd 06 bc 89 bd e5 29 71 bc
       -0.052038014 -0.089568146 -0.06725316 -0.014719461
000030 93 e1 62 bd 2d b8 b1 bd a9 d4 22 bd 5c fa cb bd
       -0.055390906 -0.08677707 -0.03975359 -0.09959862
000040 f5 bb d7 bc 36 1c cb 3c 89 e5 24 bd 3a c3 c3 bd
       -0.026334742 0.024793725 -0.040257964 -0.09558721
000050 2b 02 6c 3d 0b 86 a4 3c 23 89 40 be 1d 00 a8 bd
       0.057619255 0.020083448 -0.18802314 -0.082031466
000060 ff 37 89 bd f8 12 82 bd 4e 79 b3 3c e7 4b 79 bd
       -0.067001335 -0.06351274 0.021908429 -0.0608634
000070 f3 ec 18 bd c6 2e d0 bb ed a4 e9 bb cc 24 a7 bc
       -0.037335347 -0.006353232 -0.0071302564 -0.020403288
000080 ce c6 9d bd 9f dc 1d 3d ce ba df bc 7c ae 92 ba
       -0.077039346 0.03854048 -0.027310755 -0.0011190916
000090 f8 fa fb 3c a2 8c a5 bd 49 8a ff bd f1 eb 57 bc
       0.03075932 -0.08083464 -0.12477548 -0.013178811
0000a0 c9 79 86 bd 9d 52 02 be 67 a4 6f 3c 77 33 c4 bd
       -0.065661974 -0.12726827 0.014626599 -0.09580129
0000b0 5b 83 cc bc 1d ef f9 bd 79 18 18 bd 57 5b ea bd
       -0.024964979 -0.1220381 -0.037132714 -0.11443203
0000c0 fd 6f 59 bd b0 88 d9 bd ef bb d7 bd bd 45 a7 bd
       -0.053085316 -0.10621774 -0.10533892 -0.081675984
0000d0 ee f4 e0 bd d5 4e 83 bb dd af 3d bd db 09 c7 bd
       -0.10984217 -0.0040072002 -0.046310294 -0.09718677
0000e0 f2 54 f5 bd c3 ec bb bd 76 24 04 bd 72 1d c2 bd
       -0.11979093 -0.09176018 -0.032261334 -0.094782725
0000f0 f3 f9 13 be 93 4e fc bc e8 e7 0f bd 16 cd 18 bd
       -0.14450817 -0.030799186 -0.035133272 -0.03730496
000100 50 dd 93 bd a2 52 25 3c de 84 5f bc a4 03 31 bd
       -0.072199464 0.010090502 -0.013642518 -0.043216363
000110 7c c0 e0 bc 84 74 be bd c2 44 3d bc 8a 69 1a bc
       -0.027435534 -0.09299567 -0.011552038 -0.009424577
000120 fa d0 1e 3b de c3 f2 bd 19 0c a4 bc c1 bf 24 bc
       0.0024233446 -0.11853765 -0.0200253 -0.010055483
000130 8b e5 62 bd c4 24 b5 bd c8 53 d1 bd a8 d3 3a bc
       -0.05539469 -0.08844903 -0.10221058 -0.011403002
000140 97 2d aa bd cf 42 04 be 12 3b 6d bd b6 d7 1a bd
       -0.08309477 -0.1291611 -0.057917662 -0.037803374
000150 34 8f 1c be ea 95 1d be 2d a2 93 bd e8 de 02 be
       -0.15289003 -0.15389219 -0.07208667 -0.12780344
000160 df 97 cb bc 5c 60 ee bc 12 63 ae bc 8d 55 bf bc
       -0.024852691 -0.029098682 -0.021287475 -0.023356223
000170 b5 3f 0e bd c0 7f 4d 3c 9b cf d6 bd 40 9f e3 bd
       -0.034728725 0.012542665 -0.10488816 -0.11114359
000180 d5 87 ad bd 6b 6b 92 bd 45 d6 fd bd 7e fd 25 be
       -0.084731735 -0.071493946 -0.12394384 -0.16209981
000190 c5 a5 64 3c 00 49 ad bd 98 08 ce bc 9e d4 54 bd
       0.013955538 -0.08461189 -0.025150582 -0.05196058
0001a0 a5 0f 7e bd 8a 7b e3 bd 88 ad ca bd 19 05 82 bd
       -0.06202664 -0.111075476 -0.0989638 -0.063486286
0001b0 a6 f4 51 be 17 dc 2c bd c8 15 bc bd 8b dc 0b be
       -0.20503482 -0.04220208 -0.09183842 -0.13658349
0001c0 97 7e 48 bc 47 3d 18 bd 0e bb dd bd e4 6c 85 bd
       -0.012237213 -0.037167814 -0.108266935 -0.0651491
0001d0 5d 40 e7 bd 51 d9 f1 ba 4f 0b 29 bd 55 97 8b 3c
       -0.11291573 -0.0018451606 -0.04127055 0.017039934
0001e0 82 c1 06 be 07 1c e3 bc 3a 47 88 bd a9 66 3d 3c
       -0.13159755 -0.027723325 -0.066542104 0.011560121
0001f0 a6 0d 3d bd c3 d8 32 bd c7 7c 12 be f8 01 f4 bb
       -0.046155594 -0.04366375 -0.14305411 -0.0074465238

features.11.running_mean f4 [128]
000000 02 c9 cd bf 85 07 af bf 63 3b d3 bf 6c 93 b5 bf
       -1.6076968 -1.367417 -1.6502498 -1.4185615
000010 e8 8f e8 bf bc 87 c9 bf 68 a5 d3 bf 8c 82 a4 bf
       -1.8168917 -1.5744548 -1.6534853 -1.285234
000020 1d bd 30 bf 64 8f cc bf eb fd f7 bf 25 d2 cc bf
       -0.69038564 -1.5981259 -1.9374365 -1.6001631
000030 82 90 53 3e f6 45 d7 bf 30 c4 81 bf b6 57 aa bf
       0.20660594 -1.6818225 -1.0137997 -1.3308017
000040 92 1e a5 bf e6 98 94 bf 46 d7 20 bd 22 51 6c 3d
       -1.2899954 -1.1609161 -0.0392678 0.05769456
000050 1f 76 70 bf 53 c0 cf bd e7 8d 10 3f a3 31 d0 bf
       -0.9393024 -0.10144105 0.56466526 -1.6265148
000060 8f 7c e8 bf 25 eb f1 bf 3d 23 af bf 9b 9a 49 bf
       -1.8163012 -1.8899885 -1.3682629 -0.78751534
000070 7b 9c ca bf 22 f8 a9 bf 09 74 0c bf 11 ec fa bf
       -1.5829004 -1.3278849 -0.54864556 -1.9603292
000080 a3 29 d3 bf 7f 6c e6 bf 31 67 b5 3f 11 04 d0 be
       -1.6497082 -1.800186 1.4172117 -0.40628102
000090 63 83 ba bf 31 bd 81 3e ec c8 53 3f c6 98 a5 bf
       -1.4571346 0.25339654 0.8272846 -1.2937248
0000a0 8c 70 ca bf f3 1d 52 bf b0 95 a3 be 11 d5 73 bf
       -1.5815597 -0.8207695 -0.3195014 -0.9524699
0000b0 e7 50 41 bf 06 41 de bf dd 3e 29 3f 8e 49 98 bd
       -0.7551407 -1.7363594 0.66111547 -0.074359044
0000c0 48 5f 4d bf 0d 88 92 bf 9a ed d1 3d 7b 21 dd bf
       -0.8022351 -1.1447769 0.10250397 -1.7275842
0000d0 19 d7 04 bf d5 3d be bf 71 e9 49 3e e7 be d1 bf
       -0.5189071 -1.486262 0.19717957 -1.6386384
0000e0 e4 fc d1 bf dd f5 85 bf 22 3a 83 bf 22 2b 02 c0
       -1.6405301 -1.0465657 -1.0252116 -2.0338826
0000f0 f4 0f e9 bf 6e ad ac bf 75 09 de bf c8 cc 48 be
       -1.8207994 -1.3490427 -1.7346636 -0.19609368
000100 24 83 e9 bf a9 56 c0 bf 07 c4 bb bf 26 8c 6e be
       -1.8243146 -1.5026447 -1.4669198 -0.2329565
000110 97 19 ae bf 48 48 c3 be 65 b3 e4 bf 45 34 d2 bf
       -1.3601559 -0.38141084 -1.7867247 -1.6422201
000120 5b ea 87 bf f5 c6 fd bf 5f 96 d1 bf bc de c9 bf
       -1.0618395 -1.9826342 -1.6374015 -1.5771098
000130 8c 6b 8a 3e bc a5 8a bf 52 3b c0 bf da f6 81 bf
       0.27035177 -1.0831828 -1.5018103 -1.0153458
000140 80 f8 d8 bf 01 2a f0 bf 0c df c4 be 50 7f 91 bf
       -1.6950836 -1.8762819 -0.3845142 -1.1366978
000150 a8 8a 73 bf 25 b9 d8 bf d1 bf e2 bf af 7d 6e bf
       -0.9513345 -1.6931502 -1.7714788 -0.9316053
000160 a7 1f 71 bf ee d7 b9 bf 57 bd b2 bf 80 26 84 bf
       -0.9418892 -1.4519022 -1.3964032 -1.0324249
000170 4b 14 aa bf 0b 1d 85 bf c3 32 c5 bf 8e 9d 72 3f
       -1.3287443 -1.0399488 -1.5406116 0.9477166
000180 cb 9b 35 3e 9e c8 3e 3d d2 c2 b9 3e d5 f1 37 3f
       0.17735212 0.046578042 0.3628145 0.7185338
000190 45 8b db bf a1 09 dd be 1e a8 f0 bf e4 4c 5d bf
       -1.7151877 -0.4317141 -1.8801305 -0.8644545
0001a0 df d5 89 bf fa 21 b1 3e c3 7c aa bd ed 07 e5 bf
       -1.0768393 0.34596235 -0.08324578 -1.7893044
0001b0 53 f6 ab bf d7 62 c9 bf 10 ba 81 be f9 74 3d 3f
       -1.3434547 -1.5733289 -0.25337267 0.7400661
0001c0 c1 d7 c2 bf a6 08 e7 3d cd 57 8f be 94 77 e1 bf
       -1.5222093 0.112809464 -0.27996674 -1.7614617
0001d0 57 f9 2c 3c ad d2 84 be 1c 6d 03 c0 c4 2a 86 bf
       0.010557494 -0.25941983 -2.0535345 -1.0481801
0001e0 c3 38 ea bf 36 eb ba 3e 8b 4a dc 3e 75 18 64 be
       -1.8298572 0.36507577 0.43025622 -0.22274955
0001f0 c0 2f ac bf 84 5e f2 bf e8 31 d8 bf 13 0e f5 3e
       -1.3452072 -1.8935094 -1.689023 0.478623

features.11.running_var f4 [128]
000000 9f 6b 5b 3f 0f b7 66 3f c3 ac 49 3f c0 28 66 3f
       0.8571109 0.90123075 0.7877924 0.8990593
000010 2a f1 88 3f 75 71 8e 3f 38 73 5a 3f 4e f4 2e 3f
       1.0698597 1.1128374 0.8533206 0.6834153
000020 39 ae 68 3f bd b6 6b 3f a0 f7 72 3f 48 1f 70 3f
       0.9089084 0.9207571 0.94909096 0.9379773
000030 40 5e 8b 3f 2a 84 74 3f 44 f9 a0 3f 44 42 9c 3f
       1.0888138 0.95514166 1.257607 1.2207723
000040 65 d0 84 3f 51 df e3 3f 7c b9 23 3f 1f fe 40 3f
       1.0376097 1.7802526 0.639549 0.7538776
000050 8b 71 80 3f ba 9d 88 3f c6 64 4c 3f 61 f9 a5 3f
       1.003465 1.0673134 0.7984127 1.2966729
000060 04 ab 51 3f 90 4e 4f 3f 06 72 b4 3f 3a dd 2f 3f
       0.81901574 0.8097925 1.4097297 0.6869694
000070 d4 76 8c 3f e8 86 ae 3f 8d b1 a8 3f 3d df 5a 3f
       1.0973763 1.363492 1.3179184 0.85496885
000080 fe de 3c 3f 20 98 73 3f cf 39 8d 3f c5 7e 44 3f
       0.7377776 0.95154 1.1033267 0.76755935
000090 19 23 af 3f f9 d8 47 3f a5 4e 30 3f 26 f1 2e 3f
       1.3682586 0.7806545 0.6887 0.68336713
0000a0 02 ba 8c 3f ca 9e 9a 3f 41 78 ff 3e 04 6f 2e 3f
       1.0994265 1.2079709 0.49896434 0.68138146
0000b0 8a 25 91 3f 96 65 85 3f 75 1f 39 3f e8 22 49 3f
       1.1339581 1.0421627 0.72313625 0.7856889
0000c0 92 85 6a 3f 78 10 55 3f 55 ab 82 3f 0e 9b e9 3f
       0.9161006 0.83228254 1.0208536 1.8250444
0000d0 6d 1a 78 3f b3 d0 ce 3f bc 36 ce 3f b8 68 63 3f
       0.9691532 1.615744 1.6110454 0.88831663
0000e0 30 12 35 3f 69 dc b8 3f 6a 27 3a 3f 2a f2 73 3f
       0.70730877 1.4442264 0.7271639 0.9529139
0000f0 a7 40 55 3f f3 9b 4b 3f a4 a6 55 3f 4b 43 58 3f
       0.83301777 0.79534835 0.834574 0.8447768
000100 68 12 71 3f 26 cf 02 40 11 e7 33 3f a3 05 8a 3f
       0.9416871 2.0438933 0.70274454 1.078297
000110 2d d8 5e 3f 77 a1 88 3f 2e 43 8a 3f 10 55 6a 3f
       0.8704861 1.0674275 1.0801752 0.91536045
000120 91 19 80 3f ea 9e 8f 3f 5d c7 6c 3f 48 5e 9a 3f
       1.0007802 1.1220372 0.92491704 1.2060022
000130 9f ce 5f 3f ea 5a 58 3f 8f 28 49 3f d1 15 ab 3f
       0.87424654 0.84513724 0.7857751 1.3366033
000140 12 c1 65 3f 9e eb 8c 3f 3b ea 53 3f 09 73 6c 3f
       0.89747727 1.1009405 0.8277928 0.9236303
000150 02 a3 35 3f 58 0f 81 3f 2b 16 65 3f 22 9c 84 3f
       0.70951855 1.0082808 0.8948695 1.0360148
000160 66 da 8b 3f bb e6 c8 3f 8c 40 5f 3f 2e 4c 9b 3f
       1.0926025 1.5695413 0.87207866 1.2132623
000170 81 5c 44 3f c9 b2 b2 3f 0f 1a 92 3f 00 72 8a 3f
       0.7670365 1.3960811 1.1414202 1.081604
000180 3e 4d 3b 3f 9f 18 63 3f 80 b1 5e 3f 84 3f 5a 3f
       0.7316474 0.88709444 0.86989594 0.8525317
000190 63 29 a1 3f 66 0b 58 3f 6a 0b 79 3f a5 d2 17 3f
       1.2590755 0.8439239 0.9728304 0.59305793
0001a0 b6 1f 1e 3f 3b 42 9f 3f 01 03 36 3f e0 49 6e 3f
       0.6176714 1.2442087 0.71098334 0.93081474
0001b0 62 60 29 3f 92 ad 7c 3f 00 da 45 3f 58 92 61 3f
       0.66162694 0.9870235 0.77285767 0.8811393
0001c0 e7 4e d1 3f 8b d8 5f 3f 9c ab 47 3f 4e 3b 6e 3f
       1.6352204 0.87439793 0.7799623 0.9305924
0001d0 9b ee 78 3f 9b bd 99 3f b7 3b 57 3f a1 79 52 3f
       0.97239083 1.2010988 0.8407549 0.8221684
0001e0 fc a6 d6 3f e1 9e 77 3f 21 ed 70 3f a9 9d 48 3f
       1.676971 0.96726805 0.9411183 0.7836557
0001f0 ea f0 1b 3f 53 6f 83 3f a6 17 82 3f cc 3c 20 3f
       0.6091448 1.0268348 1.0163467 0.6259277
