artifacts/model_cnn_fold_2.pth (torch, 141777 bytes, 17 tensors)

features.0.weight f4 [32, 8, 5]
0	0x3d76961d	0.060201753
1	0xbdc9a843	-0.098465465
2	0x3c2df9fd	0.010618684
3	0xbc7d57b0	-0.015462801
4	0x3db6c103	0.08923533
5	0x3be34c94	0.006936619
6	0xbd8a68c3	-0.06758263
7	0xbe02537b	-0.12727158
8	0xbd9a00b5	-0.07519666
9	0xbd0c8930	-0.03431052
10	0xbdb7ae43	-0.08968785
11	0x3e6aed42	0.22942069
12	0x3cf82652	0.03029171
13	0xbd266f4f	-0.040633496
14	0xbd0dfe25	-0.0346662
15	0x3e1405a8	0.14455283
16	0xbe0117c0	-0.12606716
17	0xbd08cb46	-0.03339698
18	0x3e255ac6	0.16147909
19	0x3e651be3	0.22373919
20	0xbd562aaf	-0.0522868
21	0xbce3f3ce	-0.027826216
22	0xbd5634c9	-0.052296434
23	0xbd5c059e	-0.053716294
24	0xbdc43006	-0.09579472
25	0xbd29d101	-0.041459087
26	0xbdc40b66	-0.095724866
27	0x3e40ea35	0.18839343
28	0xbdae1b86	-0.085013434
29	0xbdc916b5	-0.09818784
30	0xbd7c1a94	-0.061548784
31	0xbcfd71fb	-0.03093814
32	0x3c50e2ad	0.012749356
33	0x3df01248	0.11722237
34	0x3d1ec82f	0.03876513
35	0x3c948432	0.018129442
36	0x3d9374c8	0.07200009
37	0xbd0e5772	-0.034751363
38	0xbb214f13	-0.0024613782
39	0xbda77b0a	-0.08177765
40	0xbe1b2f3d	-0.15154739
41	0xbd7495a1	-0.05971301
42	0x3e19b818	0.15011632
43	0x3b0cd616	0.002148991
44	0xbd88b23f	-0.06674623
45	0x3e7f35e5	0.24922903
46	0xbe3f5d45	-0.18687923
47	0xbd5daf58	-0.0541223
48	0x3e822253	0.25416812
49	0xbe5b9008	-0.21441662
50	0x3c1768ec	0.009241324
51	0x3d8ed295	0.06973759
52	0xbcc76694	-0.024340905
53	0x3b4f2bb7	0.003161175
54	0x3ccac528	0.024752215
55	0x3d1015c0	0.035176992
56	0xbccfe6bf	-0.025378583
57	0x3d1c3e30	0.038145244
58	0x3d02ac1b	0.031902414
59	0x3bd154f5	0.0063883015
60	0xbde8ebad	-0.113730766
61	0x3de0b344	0.10971692
62	0xbcbb0b2f	-0.022832481
63	0xbdf66f16	-0.12032907
64	0x3df5fd82	0.120112434
65	0x3a9a46d5	0.0011770377
66	0xbca6aeb7	-0.020346982
67	0x3c4e0bea	0.012576083
68	0x3ccdc301	0.0251174
69	0xbcdbae9a	-0.026816655
70	0xbd2a1a48	-0.04152897
71	0x3d8d71a4	0.06906441
72	0xbd806a07	-0.06270223
73	0x3d295e62	0.041349776
74	0x3b9b2b7e	0.0047354093
75	0x3ccde30e	0.025132682
76	0x3d37531c	0.044756994
77	0xbdd52b60	-0.10408664
78	0xbe0b5a95	-0.13608773
79	0x3dc9405c	0.09826729
80	0xbe3d9099	-0.18512191
81	0x3ba2670c	0.004956132
82	0x3ccdf7bd	0.025142545
83	0xbd613ce5	-0.054989714
84	0xbbc9a5e5	-0.0061538094
85	0x3db547ec	0.08851609
86	0xbb957eed	-0.00456225
87	0xbd9e1c64	-0.07720259
88	0xbd5194d7	-0.051167335
89	0xbda8edf2	-0.082485095
90	0xbde1e1b6	-0.11029379
91	0x3db1a616	0.086742565
92	0x3deee261	0.11664272
93	0x3e3fe289	0.1873876
94	0x3bcffe8d	0.0063474835
95	0xbddbd0f4	-0.10733214
96	0xbda6f0ce	-0.081513986
97	0x3cd69618	0.026194617
98	0x3c4e9c0f	0.012610449
99	0xbcb429a1	-0.021992506
100	0x3e030a19	0.1279682
101	0x3d88c3ea	0.06677993
102	0x3d438f1a	0.047743894
103	0xbc73fd21	-0.014891894
104	0x3d59abbc	0.053142294
105	0x3e900ce5	0.28134838
106	0xbd9dbf38	-0.07702488
107	0xbdb5fc1a	-0.08885975
108	0x3b993fab	0.0046767793
109	0x3e85fe37	0.26170513
110	0x3e1576c0	0.14596081
111	0x3cecab8b	0.028890392
112	0xbd72f693	-0.059317183
113	0xbe018b47	-0.12650786
114	0x3d94db02	0.07268335
115	0x3dbe293f	0.09285211
116	0xbcad00a0	-0.021118462
117	0xba28e5b0	-0.00064429175
118	0xbdb95d65	-0.09051017
119	0x3da09b99	0.07842178
120	0x3c1c335d	0.00953373
121	0x3c9bcb6f	0.019017903
122	0xbd1cdd96	-0.03829726
123	0x3de152f4	0.1100215
124	0xbd4f70ae	-0.05064457
125	0xbd191ccc	-0.03738098
126	0xbc00066e	-0.007814033
127	0xbd5eb1ce	-0.054368787
128	0x3c67e1ac	0.014152925
129	0x3c8ea37a	0.017411936
130	0xbc61c354	-0.01377948
131	0xbc47c9e1	-0.012194128
132	0xbc17c892	-0.009264128
133	0xbbdbef97	-0.006711911
134	0x3d18ca70	0.037302434
135	0x3e0b2886	0.13589677
136	0x3da07c3c	0.07836196
137	0x3d71c4ff	0.05902576
138	0x3db29e56	0.087216064
139	0x3d9750f7	0.0738849
140	0x3e317eca	0.17333522
141	0x3e3b91ed	0.18317385
142	0xbe35a61d	-0.17739148
143	0xbdb1e95d	-0.08687089
144	0x3d778818	0.060432523
145	0xbdb3535b	-0.08756133
146	0xbddac4e4	-0.10682085
147	0x3c5d2d42	0.01349956
148	0xbdbaf05c	-0.09127876
149	0x3cdfa233	0.027299022
150	0xbe14513c	-0.14484113
151	0x3d2b5a90	0.041834414
152	0x3b339ac2	0.0027405475
153	0xbd105ca4	-0.0352446
154	0x3d43a272	0.04776234
155	0x3d0733cd	0.033008385
156	0xbe413510	-0.18867898
157	0x3e0c70ae	0.13714859
158	0x3c576ac3	0.013148013
159	0xbe0b6534	-0.13612825
160	0x3d5faa90	0.05460602
161	0x3ae586c0	0.0017511472
162	0xbce1a061	-0.027542295
163	0x3d77a95d	0.06046425
164	0x3d88cc1a	0.06679554
165	0x3db0c1b6	0.086306974
166	0x3d9bfb0a	0.07616241
167	0xbcac2d72	-0.021017764
168	0x3dd8fa00	0.10594559
169	0x3d7e60d1	0.06210405
170	0x3e03918e	0.12848493
171	0x3de87e73	0.11352243
172	0x3dde47b7	0.10853522
173	0xbde61bc3	-0.11235764
174	0xbe0a1ca1	-0.13487484
175	0xbd294a78	-0.041330785
176	0xbdd8e25d	-0.1059005
177	0xbe0dd091	-0.13849093
178	0x3d9cbcac	0.07653174
179	0xbd7a55c1	-0.061116938
180	0xbd07d4ab	-0.0331618
181	0xbc8dfc11	-0.017332109
182	0xbd7833c0	-0.060596228
183	0x3d00886f	0.031380113
184	0x3dbcb808	0.09214789
185	0xbd1b7a65	-0.03795852
186	0xbd35e728	-0.0444099
187	0x3e121298	0.14264905
188	0xbde165c8	-0.11005741
189	0x3d87ede7	0.06637173
190	0xbe28e97a	-0.16495314
191	0xbd707eca	-0.058714665
192	0x3e6de1ce	0.23230669
193	0xbe1d8ad7	-0.15384994
194	0xbe16a1c9	-0.14710154
195	0x3dc0f848	0.09422356
196	0xbd9fa5e3	-0.07795312
197	0xbde5b681	-0.112164505
198	0x3dc932e6	0.09824161
199	0x3ca924ed	0.02064749
200	0x3dfa8fdf	0.122344725
201	0xbe5657d4	-0.20931941
202	0xbdbb591d	-0.091478564
203	0x3e8d38c7	0.2758238
204	0xbe400dd8	-0.18755281
205	0x3d71cc45	0.059032697
206	0x3e21324e	0.15741846
207	0xbe02e764	-0.12783581
208	0xbc9b3558	-0.018946335
209	0x3d1487b9	0.036262248
210	0xbe08b4d7	-0.13350235
211	0x3dfb3a20	0.12266946
212	0x3d9cb525	0.07651738
213	0x3d635b95	0.05550726
214	0x3e20e5e9	0.15712704
215	0x3d9378ed	0.07200799
216	0xbdfbf2a8	-0.123021424
217	0x3cc3a656	0.023883026
218	0xbdcf214a	-0.10113771
219	0xbd33063f	-0.04370713
220	0x3c9c7629	0.019099312
221	0x3d8fa048	0.07012993
222	0x3cff0e90	0.031134874
223	0x3a5f348f	0.0008514607
224	0x3ce880ae	0.028381672
225	0x3beed89f	0.007289007
226	0xbba5146f	-0.0050378363
227	0x3c9b449f	0.01895362
228	0xbce9a209	-0.028519647
229	0x3c6543b5	0.013993193
230	0xbd665042	-0.056228884
231	0x3cc6c4d3	0.024263775
232	0x3d069ece	0.03286629
233	0xbda4648c	-0.0802699
234	0x3cfdd3a7	0.030984713
235	0xbda73d36	-0.08165972
236	0xbd0424a0	-0.03226149
237	0xbc0b6336	-0.00850754
238	0xbd7f3fde	-0.062316768
239	0xbd82dcb5	-0.06389753
240	0xbd555bb7	-0.05208942
241	0xbddc1d8a	-0.10747822
242	0xbe160ef3	-0.1465414
243	0x3e7f7e09	0.24950422
244	0xbe369595	-0.17830499
245	0x3d2cc41c	0.042179212
246	0x3db01661	0.085980184
247	0xbd867966	-0.06566124
248	0x3d3554d5	0.044270355
249	0x3b8a3227	0.0042174044
250	0x3c4e9d1b	0.012610699
251	0x3cde6af5	0.02715061
252	0xbd4a9c07	-0.049465206
253	0xbd8634b9	-0.06553025
254	0x3dc70bf0	0.09719074
255	0x3d674ac6	0.056467794

features.1.weight f4 [32]
0	0x3f82f077	1.0229634
1	0x3f85ac0b	1.0443128
2	0x3f7ab901	0.97938544
3	0x3f805ecc	1.002893
4	0x3f725d7f	0.94673914
5	0x3f85b58b	1.0446028
6	0x3f81a51e	1.0128515
7	0x3f7c4f8a	0.98558867
8	0x3f706d2c	0.93916583
9	0x3f8457e4	1.0339322
10	0x3f7a23dd	0.97710973
11	0x3f723ac7	0.9462094
12	0x3f84e9b5	1.0383822
13	0x3f78b388	0.9714894
14	0x3f837bd0	1.027216
15	0x3f75b57b	0.9598004
16	0x3f77d34f	0.96806806
17	0x3f6fbaed	0.936446
18	0x3f7675ff	0.962738
19	0x3f80535a	1.0025437
20	0x3f725281	0.9465714
21	0x3f849376	1.0357502
22	0x3f8372c2	1.0269396
23	0x3f702dad	0.93819696
24	0x3f68015f	0.9062709
25	0x3f67319d	0.9031008
26	0x3f747690	0.9549341
27	0x3f8dec34	1.1087708
28	0x3f743cc6	0.9540523
29	0x3f8180f4	1.0117478
30	0x3f7e3fc3	0.9931604
31	0x3f7870ee	0.9704732

features.1.bias f4 [32]
0	0xbe29323f	-0.16523074
1	0xbdf07067	-0.11740189
2	0xbd8bc450	-0.06824553
3	0xbc04bf8e	-0.008102311
4	0xbd898da7	-0.06716471
5	0xbcf731b4	-0.030175067
6	0xbe07fa37	-0.13279043
7	0xbde456a6	-0.111493394
8	0xbdacb892	-0.084336415
9	0xbdf36def	-0.118862025
10	0xbde6681f	-0.11250328
11	0xbdbb37a1	-0.0914147
12	0xbd378aa1	-0.04480994
13	0xbe0c1f28	-0.1368376
14	0xbdb295ec	-0.087200016
15	0xbdf3ea41	-0.11909915
16	0xbdccbdee	-0.09997164
17	0xbe34aa5f	-0.17643116
18	0xbe1ce7c8	-0.15322793
19	0xbd0d4a88	-0.034494907
20	0xbe000dc4	-0.12505251
21	0xbe0bdb90	-0.13657975
22	0xbdf20539	-0.118174024
23	0xbdc86c26	-0.09786253
24	0xbdb5718d	-0.08859549
25	0xbda9c306	-0.08289151
26	0xbde1b35d	-0.11020539
27	0xbd55ea6e	-0.052225523
28	0xbe0abc57	-0.13548408
29	0xbdad8c55	-0.08474032
30	0xbdcb9845	-0.099411525
31	0xbdf1d98b	-0.11809071

features.1.running_mean f4 [32]
0	0x3b58b6eb	0.0033068012
1	0xbb11bb39	-0.0022236838
2	0xbc87f18a	-0.016594667
3	0xba21a96a	-0.0006166907
4	0x3a6cd60e	0.0009034582
5	0x3ae14d73	0.0017189219
6	0xba99a1e0	-0.0011721216
7	0xbbf18a04	-0.007371189
8	0x3d3ecbd6	0.04658111
9	0x384a8dc4	4.8292583e-05
10	0xbb8474c8	-0.0040422417
11	0x3ce6a82e	0.028156366
12	0xbb11d1d1	-0.0022250304
13	0xb9ba43a1	-0.00035527072
14	0xbc4e9ac0	-0.012610137
15	0xbc2ebb38	-0.010664754
16	0xbbce533d	-0.006296544
17	0xbbc0f728	-0.0058888383
18	0xbbc0e70b	-0.0058869175
19	0x3c441abd	0.0119692655
20	0xbaa09acc	-0.0012253164
21	0xbb8f859f	-0.0043799425
22	0xbbf16b05	-0.007367494
23	0x3b4d8254	0.00313582
24	0xbb88d51e	-0.004175796
25	0xbbf88f9c	-0.007585479
26	0x3b3b4298	0.0028573629
27	0xba242684	-0.0006261843
28	0xb90e2d03	-0.00013558943
29	0x3c0d3840	0.008619368
30	0x3add2d36	0.0016874436
31	0x3c03255e	0.0080045145

features.1.running_var f4 [32]
0	0x3e0660f1	0.13122918
1	0x3dbefb3d	0.09325264
2	0x3ea65932	0.32489926
3	0x3e018334	0.12647706
4	0x3e193166	0.1496025
5	0x3da46e74	0.0802888
6	0x3da6a522	0.08136965
7	0x3e355a0a	0.17710128
8	0x3fc7c0e8	1.5605745
9	0x3df31549	0.11869294
10	0x3e0d51ef	0.13800786
11	0x3f18f984	0.5975573
12	0x3e4f3826	0.20236263
13	0x3e5c334b	0.21503942
14	0x3f05fef3	0.52342147
15	0x3f391e44	0.72311807
16	0x3e100716	0.14065203
17	0x3e8beaac	0.27327478
18	0x3e711d0b	0.23546235
19	0x3e963e4d	0.29344407
20	0x3e461ba8	0.19346488
21	0x3e8d8a39	0.27644518
22	0x3ddd09eb	0.10792907
23	0x3dfe4035	0.1241459
24	0x3f440025	0.7656272
25	0x3f8b0166	1.0859802
26	0x3e6671a1	0.22504283
27	0x3e81c6a5	0.25346866
28	0x3e1ce169	0.15320362
29	0x3e5e6908	0.21719754
30	0x3eb6c065	0.3569366
31	0x3ea92108	0.33033013

features.5.weight f4 [64, 32, 3]
0	0xbd073c57	-0.03301653
1	0xbd766059	-0.060150478
2	0xbcd6a2a6	-0.026200604
3	0x3a67f8ac	0.00088490057
4	0xbcde68cc	-0.02714958
5	0xbdbc7bd8	-0.09203309
6	0x3c408332	0.011750029
7	0x3b7c9166	0.0038538813
8	0x3d82549c	0.06363794
9	0xbc7f9a18	-0.015600704
10	0xbd222e51	-0.039594952
11	0x3b9f1dee	0.004855863
12	0x3c101b1a	0.008795524
13	0xbdb29456	-0.08719699
14	0x3de6a6ff	0.11262321
15	0xbbcd5f79	-0.0062674847
16	0xbd768d24	-0.060193196
17	0xbd47cb59	-0.04877791
18	0xbd25e5cc	-0.040502355
19	0xbdc614ac	-0.096719116
20	0x3a1f116e	0.0006067966
21	0x3d51bfb8	0.051208228
22	0xbd8438a2	-0.06456114
23	0xbdfe6a2c	-0.124225944
24	0x3dbaa7aa	0.09114011
25	0xbdab01d7	-0.0834996
26	0xbc0b6554	-0.008508045
27	0x3d021b5e	0.03176438
28	0x3d9c4f99	0.076323695
29	0x3d29b057	0.041427936
30	0x3ddb9bb8	0.1072306
31	0xbdc44af3	-0.09584608
32	0x3c48c2b1	0.012253449
33	0x3b370416	0.002792602
34	0xbd054328	-0.03253475
35	0xbcb5f8ea	-0.022213418
36	0xbdd1d158	-0.10245007
37	0x3d5ba63f	0.05362534
38	0xbd4bad8d	-0.049726058
39	0xbd33f2bd	-0.043932665
40	0xbe0b2905	-0.13589866
41	0xbda64e23	-0.08120372
42	0x3df2dd4b	0.118586145
43	0xbd151844	-0.036400095
44	0x3d79e267	0.06100693
45	0xbd8cd3ac	-0.06876311
46	0x3d1940f0	0.037415445
47	0xbe0906ab	-0.1338145
48	0xbc629b20	-0.01383093
49	0xbcbdd529	-0.023172932
50	0xbdeabbbf	-0.11461591
51	0x3b2cbfbf	0.0026359407
52	0xbcbaaa61	-0.022786321
53	0x3bee35db	0.0072696037
54	0xbca9fc1a	-0.020750094
55	0x3cd423b8	0.025895938
56	0x3c1604ac	0.009156387
57	0xbe045ba2	-0.1292558
58	0x3b9229f0	0.0044605657
59	0x3cd18a7c	0.02557873
60	0x3d55b2b1	0.052172367
61	0xbcac11f6	-0.021004658
62	0xbb8594f3	-0.004076594
63	0xbcafee55	-0.02147595
64	0x3d4bc014	0.049743727
65	0x3dcadf9e	0.09905933
66	0x3cc9401a	0.024566699
67	0x3d5fb5ea	0.054616846
68	0x3d39c518	0.04535398
69	0x3d32ad15	0.043622095
70	0x3dc27f1b	0.094969
71	0x3de012a6	0.10941057
72	0xbd6d6b10	-0.05796343
73	0x3d9f450b	0.07776841
74	0xbdc5a79c	-0.096511096
75	0x3d3a0e07	0.045423534
76	0xbce34867	-0.027744485
77	0xbc85b3ab	-0.016321024
78	0x3d5b0250	0.053469002
79	0xbd3df105	-0.046372432
80	0xbc98545d	-0.018594915
81	0xbe52d7a8	-0.20590079
82	0xbe5b4a3e	-0.2141504
83	0xbe226d7b	-0.15862076
84	0xbd6c9526	-0.057759427
85	0xbe0c03e9	-0.13673367
86	0xbcd5abbb	-0.026082864
87	0x3c40da40	0.011770785
88	0xbdebe0e9	-0.115175076
89	0xbc9d1f3d	-0.019179935
90	0xbda6bea6	-0.08141832
91	0xbc5d134f	-0.013493373
92	0xbbd7d625	-0.0065868073
93	0x3da6e0c5	0.0814834
94	0x3cc65cc2	0.024214152
95	0x3c5a569c	0.013326313
96	0x3d57648c	0.052586123
97	0x3d038681	0.032110695
98	0x3dc75ad6	0.097341225
99	0x3e17da7b	0.14829437
100	0xbdc91b16	-0.09819619
101	0x3c66d3a5	0.014088546
102	0x3c0144bd	0.007889924
103	0xbd9d135c	-0.07669708
104	0xbd66aa30	-0.056314647
105	0xbbbfc945	-0.0058528506
106	0xbd125cbb	-0.035732966
107	0xbc804ee6	-0.015662622
108	0x3d6ea23c	0.058260188
109	0xbd330707	-0.043707874
110	0xbc810c8f	-0.015753059
111	0x3cdd2cfe	0.026998993
112	0x3dc52320	0.0962584
113	0xbce27047	-0.027641429
114	0x3de661d2	0.112491265
115	0x3d1e7563	0.038686167
116	0x3d24d5be	0.040242903
117	0xbd758710	-0.05994326
118	0xbdc4805d	-0.09594796
119	0x3d35b8db	0.044365745
120	0x3d99f287	0.075169615
121	0x3ca2bcdd	0.019865448
122	0xbcde6fe3	-0.027152961
123	0x3de389a4	0.11110237
124	0x3db58417	0.08863085
125	0x3de9d9b0	0.11418474
126	0x3d95477a	0.07289024
127	0xbd4850ee	-0.048905306
128	0x3c1f9b2f	0.0097415885
129	0x3c0165bc	0.0078977905
130	0xbd10c093	-0.035339903
131	0x3cc9bb7d	0.024625534
132	0xbd0ff727	-0.035147812
133	0x38633134	5.416684e-05
134	0x3d4b92df	0.049700614
135	0x3dbdcd33	0.09267654
136	0x3e279436	0.16365132
137	0x3deae492	0.114693776
138	0x3c270520	0.010194093
139	0x3d59873c	0.053107485
140	0x3d834959	0.06410474
141	0xbd6d5a62	-0.057947524
142	0xbe0669ca	-0.13126293
143	0xbddf55a7	-0.10905009
144	0x3b8b0429	0.0042424393
145	0xbc742e31	-0.014903591
146	0xbd360ee9	-0.044447813
147	0xbd25dd82	-0.04049445
148	0x3d439c39	0.047756407
149	0xbcd0d70f	-0.025493173
150	0x3cf2e162	0.029648487
151	0x3dc83684	0.09776023
152	0xbc318715	-0.010835429
153	0xbae0d50f	-0.001715334
154	0x3d0569c5	0.032571573
155	0xbdb7c037	-0.08972209
156	0xbbffbaf5	-0.0078042694
157	0xbddd227a	-0.107975915
158	0x3d097434	0.033558086
159	0x3db35f42	0.08758403
160	0x3dfb6edc	0.12277004
161	0x3d322846	0.04349544
162	0x3da18f43	0.07888653
163	0x3e0a712f	0.13519739
164	0xbcd39e73	-0.02583239
165	0xbd298c1a	-0.041393377
166	0xbdf77dd0	-0.12084544
167	0x3d921c49	0.07134301
168	0xbdd1a9fe	-0.102375016
169	0xbbc7d7fd	-0.006098746
170	0x3ab8cd61	0.0014099294
171	0x3d78e1d3	0.060762238
172	0x3d45cc8d	0.048290778
173	0x3c9bd061	0.019020261
174	0xbd97be9e	-0.07409404
175	0xbdacb99b	-0.08433839
176	0xbdf4f48b	-0.11960705
177	0x3e0a8482	0.1352711
178	0x3d9b2291	0.075749524
179	0x3da38cb1	0.07985819
180	0x3b9f9bff	0.004870891
181	0x3e084c93	0.13310461
182	0xbce9cedb	-0.02854102
183	0xbd4267b9	-0.0474622
184	0x3d4ce04d	0.050018597
185	0x3e019d38	0.1265763
186	0x3d6bbd4f	0.057553586
187	0xbd5b5730	-0.053549945
188	0xbcef7222	-0.029229227
189	0xbd85ca25	-0.06532697
190	0xbd327ce8	-0.04357615
191	0x3d19d7d6	0.037559353
192	0x3de7a02a	0.11309846
193	0x3dbc1e40	0.09185457
194	0xbd49f796	-0.049308382
195	0xbd307e65	-0.04308929
196	0xbd2ce50b	-0.04221062
197	0x3cbeb789	0.023280876
198	0x3d9869fa	0.074420884
199	0x3c9cc9f7	0.019139273
200	0x3c442f41	0.011974157
201	0xbdd0888e	-0.10182296
202	0xbe441893	-0.1915
203	0xbd99088a	-0.07472332
204	0xbb2802fa	-0.002563654
205	0xbdad87bf	-0.08473157
206	0xbdde750e	-0.1086217
207	0x3d451fa3	0.048125874
208	0xbd75fb35	-0.060054023
209	0xbd96cf2c	-0.07363734
210	0xbd10ffeb	-0.035400312
211	0xbc623165	-0.013805722
212	0xbd7a971f	-0.061179277
213	0x3b3f9ad8	0.0029236581
214	0xbd4fedae	-0.05076378
215	0xbdcd5ce7	-0.10027485
216	0x3d575bba	0.05257771
217	0xbd0af262	-0.03392256
218	0x3d5855d5	0.05281623
219	0x3d84d545	0.064859904
220	0x3ab7254e	0.001397291
221	0x3d125eb6	0.035734855
222	0xbcece815	-0.02891926
223	0x3ce6d1ef	0.028176276
224	0xbcdbabac	-0.026815258
225	0x3c869927	0.01643045
226	0xbcb6c9f0	-0.022313088
227	0xbda60c2d	-0.08107791
228	0xbdf198e2	-0.11796738
229	0xbc1e1f62	-0.009651037
230	0xbd8370f0	-0.064180255
231	0x3d16180b	0.036644023
232	0xbd5d39f5	-0.05401035
233	0x3cc26970	0.023731917
234	0x3c8d90ac	0.017280899
235	0xbd25fae3	-0.040522467
236	0x3d18cb14	0.037303045
237	0x3d477e25	0.048704285
238	0x3dbf7cd0	0.09349978
239	0x3da0d2fd	0.07852743
240	0x3d218ae9	0.039439116
241	0x3c69a44c	0.014260363
242	0x3afa14d4	0.0019079694
243	0x3d18a01f	0.03726208
244	0xbddd7da2	-0.10814978
245	0xbbfbd54d	-0.0076853395
246	0x3d7db92b	0.061944168
247	0x3b7e7248	0.003882544
248	0xbde979f8	-0.11400217
249	0xbd414cae	-0.047192268
250	0xbc829af0	-0.01594302
251	0x3d1992b8	0.037493438
252	0xbc059ba1	-0.008154781
253	0x3d9160dc	0.070985526
254	0xbd53a02e	-0.05166643
255	0x3dac7601	0.08420945

features.6.weight f4 [64]
0	0x3f817691	1.0114309
1	0x3f76e244	0.96439004
2	0x3f810013	1.0078148
3	0x3f695352	0.9114276
4	0x3f844dd6	1.0336254
5	0x3f78f9bf	0.9725608
6	0x3f8277db	1.0192827
7	0x3f7d8ba3	0.99041194
8	0x3f79a2e3	0.9751417
9	0x3f7ff5ad	0.99984246
10	0x3f7a690a	0.97816527
11	0x3f7fbbfb	0.9989621
12	0x3f62df18	0.88621664
13	0x3f7ef8d0	0.9959841
14	0x3f7d7b34	0.9901612
15	0x3f8a5598	1.0807371
16	0x3f81d6c4	1.0143666
17	0x3f81cf71	1.0141431
18	0x3f5ff906	0.87489355
19	0x3f828236	1.0195987
20	0x3f5f7e71	0.8730231
21	0x3f885527	1.0650986
22	0x3f7a1f3d	0.97703916
23	0x3f87aa28	1.0598803
24	0x3f779ae6	0.9672073
25	0x3f85a348	1.0440454
26	0x3f83f3c0	1.0308762
27	0x3f6a855d	0.91609746
28	0x3f82f822	1.0231974
29	0x3f76a853	0.9635059
30	0x3f7315bc	0.9495504
31	0x3f7ecb2b	0.9952876
32	0x3f76fcc9	0.9647947
33	0x3f82633e	1.0186536
34	0x3f85472a	1.0412343
35	0x3f827de1	1.0194665
36	0x3f7563fa	0.9585568
37	0x3f788f9e	0.9709414
38	0x3f879512	1.0592368
39	0x3f7e9029	0.9943872
40	0x3f7d343a	0.98907816
41	0x3f775301	0.9661103
42	0x3f73a1d4	0.95168805
43	0x3f769259	0.9631706
44	0x3f724c7a	0.94647944
45	0x3f6c0c47	0.92206234
46	0x3f83b4d4	1.0289559
47	0x3f77678e	0.96642387
48	0x3f7f0143	0.996113
49	0x3f8645b6	1.0490024
50	0x3f843524	1.0328717
51	0x3f8733fc	1.0562739
52	0x3f70e708	0.94102526
53	0x3f78ce93	0.9719021
54	0x3f8482f2	1.0352461
55	0x3f83d1f4	1.0298448
56	0x3f800843	1.0002521
57	0x3f7e03f6	0.99224794
58	0x3f81736c	1.0113349
59	0x3f89c5f6	1.0763538
60	0x3f769bfb	0.9633176
61	0x3f838451	1.0274755
62	0x3f86b564	1.0524106
63	0x3f6e4cd2	0.9308597

features.6.bias f4 [64]
0	0xbd3b1765	-0.045676608
1	0x3c856783	0.01628471
2	0xbcddbc98	-0.027067468
3	0xbd75101a	-0.05982981
4	0xbd093550	-0.03349811
5	0xbd99dd8a	-0.07512958
6	0xbddbbc21	-0.10729242
7	0xbdb97a9f	-0.09056591
8	0xbd9d8106	-0.07690625
9	0xbd533577	-0.05156466
10	0xbd24eb26	-0.040263318
11	0x3ca92007	0.020645155
12	0xbe20153d	-0.15633102
13	0x3ca1472b	0.019687256
14	0xbce635c0	-0.028101802
15	0xbc4794d9	-0.012181484
16	0xbcc47832	-0.023983095
17	0xbd360cd3	-0.044445824
18	0xbe31cf51	-0.17364241
19	0xbca56d2b	-0.020193657
20	0xbddc9757	-0.10771053
21	0xbd5870ce	-0.052841954
22	0xbd20fef9	-0.03930566
23	0x3cea1ca9	0.02857812
24	0xbd0c1011	-0.03419501
25	0xbd7b9d14	-0.0614291
26	0xbc9aa9b0	-0.018879741
27	0xbdd76042	-0.105164066
28	0xbc9ff231	-0.019524666
29	0xbd1f0e6d	-0.038832117
30	0xbda0accd	-0.07845459
31	0xbc9a9f61	-0.018874826
32	0xbd948c90	-0.07253373
33	0xbd2580cd	-0.040406037
34	0xbd5b1267	-0.053484347
35	0xbd087490	-0.033314288
36	0xbda3b302	-0.079931274
37	0xbd914d69	-0.07094843
38	0x3d40dd3b	0.04708598
39	0x3c19b5e8	0.009381749
40	0xba3b42da	-0.00071434455
41	0x3b1c347c	0.0023834994
42	0xbdc05fa8	-0.09393245
43	0xbdd8186e	-0.105515346
44	0xbdc2db93	-0.09514537
45	0xbe022a4b	-0.12711446
46	0xbd2a75a4	-0.041616097
47	0xbd45c7e4	-0.048286334
48	0xbd81fe6e	-0.06347357
49	0x3b588601	0.0033038857
50	0xbd190d2b	-0.037366074
51	0xbcdf6bd5	-0.027273098
52	0xbd7cf00f	-0.061752375
53	0x3c6823ce	0.014168693
54	0xbcd5ff3b	-0.02612268
55	0xbd98ced6	-0.07461326
56	0xbd512020	-0.051056027
57	0xbd044162	-0.032288916
58	0xbd3759ce	-0.04476338
59	0xbd36ac84	-0.044598117
60	0xbd618023	-0.05505384
61	0xbd9c3780	-0.07627773
62	0xbceb1bea	-0.028699834
63	0xbd4b524e	-0.04963904

features.6.running_mean f4 [64]
0	0xbf3eaf76	-0.7448648
1	0x3f2c4fd4	0.6730931
2	0xbf246cb6	-0.6422838
3	0xbf2ab8bf	-0.6668815
4	0xbedf97c7	-0.43670484
5	0xbf5313c5	-0.8245204
6	0xbf0a4281	-0.54007727
7	0xbf4cfaa8	-0.8006997
8	0xbef97bf5	-0.48727384
9	0xbcafe7c6	-0.021472823
10	0xbeeacc14	-0.45858824
11	0xbf0a5554	-0.5403645
12	0xbf1eaf07	-0.6198582
13	0xbf0fb8f9	-0.5614162
14	0xbec58ba4	-0.385831
15	0xbee28bf9	-0.44247416
16	0xbf5adfcf	-0.85497755
17	0xbf046a7e	-0.51724994
18	0xbef83cf4	-0.48484004
19	0xbef4b184	-0.47791684
20	0xbec60ce4	-0.3868171
21	0xbf4c2504	-0.7974398
22	0xbe9a36f6	-0.30120057
23	0xbf1aa1be	-0.6040305
24	0x3eea81a9	0.45802048
25	0xbf25ab13	-0.64714164
26	0xbf0dcc89	-0.5539022
27	0xbec219df	-0.37910363
28	0xbf0204bd	-0.5078848
29	0xbed25bfe	-0.4108581
30	0xbf0b7e7c	-0.54489875
31	0xbf307573	-0.68929213
32	0xbf511b24	-0.8168204
33	0xbeec6f65	-0.46178737
34	0xbf2ada5f	-0.6673946
35	0xbf24cddd	-0.6437662
36	0xbeeb7239	-0.45985582
37	0xbed07028	-0.40710568
38	0xbec74baa	-0.38924915
39	0xbf13d6cf	-0.57749647
40	0xbeddb778	-0.43304038
41	0x3efc484c	0.49273908
42	0xbeff1631	-0.49821618
43	0xbf022002	-0.5083009
44	0xbf5dcded	-0.8664234
45	0xbf4ab127	-0.79176563
46	0xbee889bf	-0.45417592
47	0xbf0be8d9	-0.5465217
48	0xbee8d4ec	-0.45474946
49	0xbef5e196	-0.4802367
50	0xbf2057ab	-0.6263377
51	0xbf337e59	-0.70114666
52	0xbf436514	-0.7632611
53	0x3f4366a9	0.7632852
54	0xbecacabc	-0.396078
55	0xbf31d1d9	-0.6946083
56	0xbec8bc96	-0.3920638
57	0xbf1f6b89	-0.6227346
58	0xbf14b8c9	-0.5809446
59	0xbf201442	-0.6253091
60	0xbea3e2c0	-0.32008934
61	0xbedecd0e	-0.4351582
62	0xbf0cd479	-0.5501171
63	0xbf06bd45	-0.5263255

features.6.running_var f4 [64]
0	0x3f48d550	0.7845049
1	0x3f12ee9d	0.57395345
2	0x3f3cda43	0.7377054
3	0x3f42dc1b	0.76117104
4	0x3f0f567b	0.55991334
5	0x3f2e5e2b	0.6811244
6	0x3f20887f	0.62708277
7	0x3f47bb3c	0.7802007
8	0x3f0ea1a3	0.5571539
9	0x3f06fa15	0.52725345
10	0x3f2455b6	0.64193285
11	0x3f11f27c	0.57010627
12	0x3f530fa4	0.8244574
13	0x3f20bf12	0.6279155
14	0x3f025344	0.50908303
15	0x3f10d013	0.56567496
16	0x3f2ca87a	0.67444575
17	0x3f001e21	0.50045973
18	0x3f2160c0	0.63038254
19	0x3eea6615	0.45781007
20	0x3ee1c9b4	0.440992
21	0x3f2deea6	0.67942274
22	0x3ed22e90	0.4105115
23	0x3f1f36de	0.62193096
24	0x3f06f4ff	0.52717584
25	0x3f0022d6	0.50053155
26	0x3f1a4228	0.60257196
27	0x3f048a32	0.5177337
28	0x3f165292	0.5871974
29	0x3ec40de5	0.3829185
30	0x3edc0c1e	0.42977995
31	0x3f1904dd	0.59773046
32	0x3f37e207	0.71829265
33	0x3ef9bd6b	0.48777327
34	0x3f4c38ba	0.7977406
35	0x3f111f01	0.56687933
36	0x3f147986	0.5799793
37	0x3f188511	0.59578043
38	0x3ee88a54	0.45418036
39	0x3f299b86	0.66252935
40	0x3f07a145	0.5298045
41	0x3eee039e	0.46487135
42	0x3f08b394	0.53399014
43	0x3f1aac4b	0.6041915
44	0x3f637d4a	0.8886305
45	0x3f37e901	0.7183991
46	0x3ef72438	0.4826982
47	0x3f1b8c96	0.6076139
48	0x3eedae6c	0.46422136
49	0x3f093746	0.53599966
50	0x3f359eb1	0.7094527
51	0x3f229ed0	0.6352358
52	0x3f5b2d91	0.85616404
53	0x3f48ee34	0.7848847
54	0x3ee89e24	0.45433152
55	0x3efcc07a	0.49365598
56	0x3ee1ccb9	0.44101503
57	0x3f2999ab	0.66250104
58	0x3f1543f4	0.58306813
59	0x3f1e58ae	0.61854064
60	0x3ed055c5	0.40690437
61	0x3f0ff6a0	0.56235695
62	0x3f00aad9	0.5026069
63	0x3eff46ac	0.49858606

features.10.weight f4 [128, 64, 3]
0	0x3de7e527	0.11323004
1	0x3d29c06e	0.04144328
2	0x3d4671c5	0.048448343
3	0xbdac3fbd	-0.084105946
4	0xbda0addb	-0.0784566
5	0xbd5dc457	-0.054142322
6	0x3d31afd1	0.043380562
7	0x3d619bbf	0.05508017
8	0x3dbbdbea	0.09172805
9	0xbc92a27d	-0.017899746
10	0x3cf5f7be	0.03002536
11	0x3c47df1f	0.012199192
12	0x3d97c479	0.07410521
13	0xbd54d6fc	-0.051962838
14	0x3db3a5e4	0.087718755
15	0xbe01a483	-0.12660412
16	0xbca8b8e4	-0.020595975
17	0xbd998431	-0.07495917
18	0x3d1e393e	0.03862881
19	0xbbdb94c3	-0.0067010834
20	0xbcab9b67	-0.020948125
21	0xbca07f0d	-0.019591833
22	0xbd940dfb	-0.07229229
23	0xbdd305be	-0.103038296
24	0xbccc770b	-0.024959108
25	0xbd124c46	-0.03571727
26	0xbd83907d	-0.06424043
27	0xbba9cdcc	-0.0051820036
28	0x3d0bb6cd	0.03410988
29	0x3d1e8fd1	0.038711373
30	0xbbc944c3	-0.0061422302
31	0xbd83b78f	-0.064314954
32	0xbd03da21	-0.032190446
33	0x3d938546	0.07203154
34	0x3d487078	0.048935384
35	0xbc57b8da	-0.013166631
36	0xbc4b0579	-0.0123914415
37	0xbd03e627	-0.032201912
38	0xbd2638a0	-0.040581346
39	0x3e031f4c	0.12804908
40	0x3cf8ebef	0.03038594
41	0x3db5f64e	0.088848695
42	0xbd96cdba	-0.07363458
43	0xbd93559b	-0.07194062
44	0xbc23719b	-0.009975816
45	0xbc9d8e6f	-0.019232957
46	0xbd4c47f9	-0.049873326
47	0xbd82f6a9	-0.06394703
48	0x3c9e0329	0.019288616
49	0xbce56192	-0.028000627
50	0xbc933f4a	-0.017974515
51	0xbd935df2	-0.07195653
52	0xbda490f9	-0.08035464
53	0xbd7bd347	-0.061480787
54	0x3d3cdd85	0.046109695
55	0x3c708ec5	0.014682476
56	0xbd1330dd	-0.03593527
57	0xbde2cb3f	-0.11073922
58	0xbe02531b	-0.12727015
59	0xbd1e8673	-0.03870244
60	0xbca8429e	-0.020539578
61	0xbd56e35e	-0.052462928
62	0xbd3e56be	-0.046469443
63	0xbde9a93b	-0.11409231
64	0xbdf694fd	-0.12040136
65	0xbdd5c2db	-0.10437556
66	0xbc384bc9	-0.011248537
67	0xbd4ad63d	-0.04952072
68	0x3c1b3d0e	0.009475006
69	0x3da9e3c3	0.08295395
70	0x3cd55ddd	0.026045734
71	0x3d0e8753	0.034797024
72	0xbcd44fb5	-0.025916914
73	0xbd1e32f7	-0.038622823
74	0xbbf889dc	-0.0075847935
75	0xbbc90188	-0.0061342157
76	0xbddcbf20	-0.10778642
77	0xbb09d91c	-0.0021033948
78	0xbcd201fa	-0.025635708
79	0x3b4c5b9c	0.0031182533
80	0xbd01ea5f	-0.031717654
81	0x3cd24164	0.025665946
82	0xbd391974	-0.04519029
83	0x3cedda9f	0.02903491
84	0xbc4a8389	-0.012360462
85	0xbd0f903f	-0.035049673
86	0xbcdaccb5	-0.02670894
87	0xbd95e4de	-0.073190436
88	0x3c9aad81	0.018881561
89	0xbb0f0e96	-0.0021828762
90	0xbd9b884d	-0.07594357
91	0x3c4af842	0.012388291
92	0x3c1acf80	0.009448886
93	0xbd2b330a	-0.04179672
94	0xbd8acb9f	-0.06777119
95	0xbd0a7347	-0.033801343
96	0x3c7dce4e	0.015491081
97	0xbc555d4b	-0.013022731
98	0x3cebe48f	0.028795509
99	0xbc847faf	-0.016174166
100	0xbd8e31a7	-0.06943064
101	0xbd07d0a8	-0.033157974
102	0x3ce5c5e8	0.02804847
103	0x3d8945c0	0.06702757
104	0x3d51b2e0	0.05119598
105	0xbc976457	-0.018480463
106	0x3d8465bd	0.064647175
107	0x3d2a62bd	0.04159807
108	0x3cfce6f8	0.030871853
109	0xba774bee	-0.00094336167
110	0x3dad4044	0.08459523
111	0x3cdc5f03	0.026900774
112	0x3bb05f9f	0.0053824927
113	0x3d011391	0.0315128
114	0x3d970bc3	0.0737529
115	0x3d9a36fe	0.0753002
116	0x3cd6478c	0.026157163
117	0xbcfb7fa8	-0.03070052
118	0x3d194da0	0.037427545
119	0x3d80dc1f	0.06291985
120	0xbdad90a5	-0.084748544
121	0x3cf6b6ef	0.030116526
122	0xbd9985f5	-0.074962534
123	0x3ca15741	0.019694926
124	0x3c0f1e3c	0.008735236
125	0x3b4b5002	0.003102303
126	0xbd7e34a4	-0.06206192
127	0xbd41fd10	-0.04736048
128	0xbd1f6732	-0.038916774
129	0xbd1318a9	-0.03591219
130	0x3da7edec	0.08199677
131	0xbc70d124	-0.0146983005
132	0x3cce5277	0.025185807
133	0xbd2963b7	-0.04135486
134	0xbd5203e3	-0.051273238
135	0xbdb5e72b	-0.088819824
136	0xbd8e5a31	-0.069507964
137	0xbd29615a	-0.041352607
138	0xbd25cc25	-0.04047789
139	0xbc199b23	-0.009375366
140	0xbc4be164	-0.012443874
141	0xbb7f9239	-0.0038997068
142	0x3d8ccb13	0.06874671
143	0x3c3dc4e6	0.011582589
144	0xbcd8fb42	-0.026486997
145	0xbd7b00de	-0.061280124
146	0xbdb11125	-0.08645848
147	0x3d6fea78	0.058573216
148	0x3cc6d339	0.02427064
149	0x3c520e6d	0.012820822
150	0x3d9b0f17	0.075712375
151	0xbca09375	-0.019601563
152	0x3d48ff92	0.049071856
153	0x3bfcb6bf	0.0077122147
154	0xbd8767f8	-0.06611627
155	0x3d317807	0.043327358
156	0x3d338879	0.043831322
157	0x3d18402a	0.037170567
158	0xbab3f16a	-0.0013728563
159	0xbc82c2d9	-0.015962051
160	0xbcbbaef3	-0.02291057
161	0xbd9721e4	-0.07379511
162	0xbd729e11	-0.059232775
163	0xbd53d905	-0.051720638
164	0xbd332dd0	-0.043744862
165	0xbdb6146d	-0.08890615
166	0x3d069173	0.032853555
167	0xbdb030ba	-0.08603044
168	0xbd3b74ca	-0.045765676
169	0x3c452b16	0.012034198
170	0xbb84489d	-0.0040369765
171	0xbd6316c5	-0.055441637
172	0x3cd1d1d7	0.025612755
173	0x3c2be4bb	0.010491545
174	0xbd660299	-0.05615482
175	0xbd8731dc	-0.06601307
176	0x3cc993b5	0.024606565
177	0xbd0cc811	-0.034370486
178	0x3d476b3b	0.048686247
179	0x3d9ea13a	0.07745595
180	0xbd882e53	-0.06649461
181	0x3d2940cc	0.04132156
182	0x3b3eddf3	0.0029123991
183	0xbdb715f5	-0.08939735
184	0x3ba36283	0.0049861087
185	0x3cccc650	0.024996907
186	0xbd87b7ce	-0.06626855
187	0xbdb3bd59	-0.087763496
188	0xbd66cb2a	-0.056346096
189	0xbd903d0c	-0.07042894
190	0x3c4e2235	0.012581398
191	0xbdcf2161	-0.101137884
192	0xbd6c12c9	-0.057635102
193	0xbd368118	-0.044556707
194	0xbd9575db	-0.0729787
195	0xbdc47541	-0.09592677
196	0xbd880ce9	-0.066430874
197	0xbd4116d3	-0.047140907
198	0xbd9a274d	-0.07527027
199	0xbe0f48aa	-0.13992563
200	0xbcc423dc	-0.02394288
201	0x3bd06f22	0.0063609043
202	0x3d3532a2	0.04423774
203	0x3d100c7d	0.03516816
204	0xbe01da38	-0.126809
205	0xbd37c414	-0.04486473
206	0xbdec3c02	-0.11534883
207	0xbd0de13d	-0.034638632
208	0xbba7e130	-0.00512328
209	0xbd397898	-0.045281023
210	0xbc48eee4	-0.012263987
211	0xbccf309c	-0.025291733
212	0xbd0f2aa4	-0.034952775
213	0xbca05815	-0.01957325
214	0x39fec77d	0.00048595286
215	0xbb555bac	-0.0032555861
216	0xbc21b216	-0.009869119
217	0x3cb1c299	0.021699237
218	0xbd68d580	-0.056844234
219	0xbbfcee1b	-0.007718814
220	0xbd8a2081	-0.06744481
221	0xbd8d07b2	-0.068862334
222	0x3b8bfb5f	0.004271909
223	0x3c17d91f	0.009268074
224	0xbd87cac0	-0.06630468
225	0xbd2a774f	-0.041617688
226	0x3b71b058	0.003687879
227	0xbd34b3ff	-0.04411697
228	0xbd1d480c	-0.038398787
229	0xbc898c1b	-0.01679044
230	0xbd5651e4	-0.05232419
231	0x3cfd4111	0.030914815
232	0xbb83aef9	-0.004018661
233	0x3d626f3c	0.055281863
234	0xbd695a37	-0.0569708
235	0xbd66a884	-0.056313053
236	0x3d11d8ea	0.035607256
237	0x3b96efb1	0.00460621
238	0xbd80a870	-0.06282127
239	0x3d4405c5	0.047857065
240	0x3c8147a8	0.015781239
241	0x3c7a09aa	0.015261093
242	0x3bd91d23	0.006625788
243	0x3ce9cf3b	0.028541198
244	0x3d25e3ac	0.040500328
245	0x3d836266	0.064152524
246	0xbd2b0def	-0.041761335
247	0xbd08c3a8	-0.033389717
248	0x3cb6ecfd	0.022329802
249	0x3ac1a2e0	0.0014773272
250	0xbceaf91a	-0.028683234
251	0x3d070df8	0.032972306
252	0x3cfa62b9	0.030564653
253	0x3d41886f	0.047249254
254	0xb8c331b4	-9.3075825e-05
255	0x3dbd9dd1	0.09258617

features.11.weight f4 [128]
0	0x3f856186	1.0420387
1	0x3f82f0a8	1.0229692
2	0x3f84ead4	1.0384164
3	0x3f869633	1.0514587
4	0x3f854884	1.0412755
5	0x3f862359	1.0479537
6	0x3f83e208	1.0303354
7	0x3f855e16	1.0419338
8	0x3f86a9db	1.0520586
9	0x3f81a2c5	1.0127798
10	0x3f86cb89	1.0530864
11	0x3f85a193	1.0439934
12	0x3f881806	1.0632331
13	0x3f85dd43	1.0458149
14	0x3f848651	1.035349
15	0x3f87b3d5	1.0601755
16	0x3f87995d	1.0593678
17	0x3f879703	1.059296
18	0x3f86f024	1.0542035
19	0x3f853e55	1.0409647
20	0x3f7e2c84	0.99286675
21	0x3f82d70c	1.0221877
22	0x3f8529d5	1.0403391
23	0x3f87aa03	1.0598758
24	0x3f86b7b4	1.0524812
25	0x3f881acc	1.0633178
26	0x3f853d1d	1.0409275
27	0x3f81a223	1.0127605
28	0x3f85147a	1.0396874
29	0x3f87c008	1.0605478
30	0x3f898e52	1.0746558
31	0x3f89db66	1.077008
32	0x3f886d6e	1.0658395
33	0x3f7efef6	0.9960779
34	0x3f837318	1.0269499
35	0x3f821864	1.0163693
36	0x3f8629df	1.0481528
37	0x3f8049d1	1.0022527
38	0x3f8325a8	1.0245867
39	0x3f8254fe	1.0182188
40	0x3f85d402	1.0455325
41	0x3f815150	1.010294
42	0x3f8513c7	1.039666
43	0x3f84d299	1.0376769
44	0x3f8482d0	1.0352421
45	0x3f85d766	1.0456359
46	0x3f83a5a5	1.0284926
47	0x3f86be55	1.0526835
48	0x3f890081	1.0703279
49	0x3f84795e	1.0349538
50	0x3f82d0c2	1.0219958
51	0x3f870e74	1.0551286
52	0x3f7fe2c9	0.9995542
53	0x3f85b73d	1.0446545
54	0x3f86460c	1.0490127
55	0x3f8802e7	1.0625886
56	0x3f812ced	1.0091835
57	0x3f83b7ed	1.0290505
58	0x3f852a93	1.0403618
59	0x3f83650e	1.0265214
60	0x3f865e90	1.0497608
61	0x3f856c84	1.0423741
62	0x3f8095c6	1.0045707
63	0x3f846c84	1.0345616
64	0x3f847561	1.0348321
65	0x3f850ccf	1.0394534
66	0x3f833a5b	1.0252184
67	0x3f827873	1.0193008
68	0x3f858eee	1.0434244
69	0x3f85aee7	1.0444001
70	0x3f832eda	1.0248673
71	0x3f857e51	1.0429174
72	0x3f82f905	1.0232245
73	0x3f83416f	1.0254344
74	0x3f817b2f	1.0115718
75	0x3f85f0ca	1.0464108
76	0x3f85df49	1.0458766
77	0x3f83b10d	1.0288407
78	0x3f85494e	1.0412996
79	0x3f845f99	1.0341674
80	0x3f83e00c	1.0302749
81	0x3f8441d7	1.0332593
82	0x3f83529e	1.0259588
83	0x3f7e871b	0.99424905
84	0x3f82eaf2	1.022795
85	0x3f8408be	1.0315168
86	0x3f85142a	1.0396779
87	0x3f82ed0a	1.0228589
88	0x3f851311	1.0396444
89	0x3f845a35	1.0340029
90	0x3f887a74	1.066237
91	0x3f870c9f	1.0550727
92	0x3f852d76	1.0404499
93	0x3f834ef2	1.0258467
94	0x3f83812a	1.0273793
95	0x3f863c7b	1.0487207
96	0x3f87a633	1.0597595
97	0x3f82a717	1.0207242
98	0x3f849bd5	1.0360056
99	0x3f804990	1.002245
100	0x3f833d12	1.0253012
101	0x3f876046	1.0576255
102	0x3f877dfd	1.0585324
103	0x3f816be3	1.011105
104	0x3f8606e8	1.0470858
105	0x3f886e9e	1.0658758
106	0x3f8386fa	1.0275567
107	0x3f885902	1.0652163
108	0x3f829e3e	1.0204542
109	0x3f876159	1.0576583
110	0x3f84a1d3	1.0361885
111	0x3f84843a	1.0352852
112	0x3f85b977	1.0447224
113	0x3f818e1d	1.0121495
114	0x3f86f5be	1.0543745
115	0x3f854c26	1.0413864
116	0x3f858de7	1.043393
117	0x3f867c7d	1.0506741
118	0x3f87d797	1.0612668
119	0x3f85dc8e	1.0457933
120	0x3f851f23	1.0400127
121	0x3f859675	1.0436541
122	0x3f829068	1.0200319
123	0x3f817d6b	1.01164
124	0x3f86f460	1.0543327
125	0x3f8555f8	1.041686
126	0x3f84255c	1.0323901
127	0x3f83cf9d	1.0297734

features.11.bias f4 [128]
0	0x3bd1d274	0.006403262
1	0xbc008c5a	-0.007845962
2	0x3c91949b	0.017771056
3	0x3d0aa687	0.03385022
4	0x3cc9504a	0.024574418
5	0x3c86ded4	0.016463675
6	0xbbbeb1e1	-0.0058195447
7	0x3c818bb8	0.015813693
8	0x3b0bf612	0.0021356386
9	0xbc437b56	-0.011931261
10	0x3d3ec3d8	0.04657349
11	0x3c16cdeb	0.009204368
12	0x3cb71dd7	0.022353096
13	0x3d1043a3	0.035220753
14	0x3be4cb27	0.0069822255
15	0x3d38332d	0.04497068
16	0x3d4406bb	0.04785798
17	0x3d50ac07	0.050945308
18	0x3ca1cec2	0.01975191
19	0x3cfd041e	0.030885752
20	0xbba981b1	-0.005172931
21	0x3b908933	0.0044108867
22	0xbb549106	-0.0032435074
23	0x3cb2ed3b	0.021841636
24	0x3d37e8a0	0.044899583
25	0x3c95f279	0.018304097
26	0x3c6405bc	0.013917383
27	0x3ce6264b	0.028094431
28	0x3c6562f5	0.014000644
29	0xbb9f209d	-0.0048561827
30	0x3d4172ac	0.0472285
31	0x3d1e8521	0.03870118
32	0x3d0cb63a	0.034353472
33	0x3ba37ac3	0.0049889996
34	0xbc3bbc68	-0.011458494
35	0x3aca614e	0.0015440376
36	0x3cfacce1	0.030615272
37	0xba8720c7	-0.0010309451
38	0x39832492	0.00025013514
39	0x3be4de28	0.006984491
40	0x3bc237e4	0.005927073
41	0xbc398a09	-0.011324414
42	0xba8e04ed	-0.0010835208
43	0x3cf06278	0.029343829
44	0xbb0f09b4	-0.0021825852
45	0x3a86dadc	0.0010288614
46	0x3cb9851a	0.022646476
47	0x3d34cad3	0.04413874
48	0x3d0054e0	0.031330943
49	0x3d0e937e	0.03480863
50	0x3c766fa9	0.01504127
51	0x3c783c25	0.015151058
52	0xbc963a88	-0.018338457
53	0xbc946eb3	-0.018119192
54	0x3c870730	0.01648292
55	0x3c99c5b4	0.01877103
56	0x3b2903f1	0.0025789703
57	0x3c7e2923	0.015512737
58	0x3c50dda5	0.012748157
59	0x3c17d52c	0.009267133
60	0x3d0c813a	0.034302928
61	0x3c92c361	0.01791543
62	0xbc6e82f5	-0.01455759
63	0x39aa1f36	0.0003244818
64	0x3cc5249a	0.024065305
65	0x3cdb0e79	0.0267403
66	0x3c817909	0.015804784
67	0xbab49701	-0.0013777913
68	0x3cc92e71	0.024558278
69	0x3c5f1bd9	0.013617479
70	0x3c349976	0.011022916
71	0x3d04e95e	0.03244912
72	0x3bf890d9	0.0075856266
73	0xbb99d204	-0.0046942253
74	0xbcda0a5d	-0.02661627
75	0x3cbe6ea1	0.023246111
76	0x3bbdee18	0.0057962053
77	0x3b6698de	0.003518633
78	0x3cbb6034	0.022873022
79	0x3cc97de4	0.024596162
80	0x3a690d2d	0.0008890208
81	0xba2021a8	-0.0006108531
82	0x3c5efa14	0.013609428
83	0xbc15c2ee	-0.009140713
84	0xbc1b5bf2	-0.009482371
85	0x3bcd1b73	0.0062593757
86	0x3b5329d8	0.0032220986
87	0x3b0cdac5	0.0021492701
88	0x3cc558c5	0.02409018
89	0xbca40cee	-0.020025697
90	0x3d238207	0.039918926
91	0x3caacedb	0.02085059
92	0x3c28b691	0.0102974335
93	0x3a354863	0.00069153885
94	0xbba726ad	-0.005101046
95	0x3cc0db2a	0.023542006
96	0x3d33078f	0.04370838
97	0xbc3f52af	-0.011677428
98	0x3bf0c5ea	0.007347812
99	0xbc43545e	-0.01192197
100	0x3ce16dec	0.027518235
101	0x3cda13b1	0.026620718
102	0x3d15cf84	0.036574855
103	0x3ca15d03	0.019697672
104	0x3ce01a45	0.027356276
105	0x3d7eec4e	0.062237076
106	0xbb9fac93	-0.0048728674
107	0x3d69aea3	0.057051312
108	0x3c508566	0.012727117
109	0x3bc5c9ff	0.0060360427
110	0xbc0380fe	-0.00802636
111	0x3c7c57e8	0.015401818
112	0x3c54aba3	0.0129803745
113	0x3b1bee6c	0.0023793234
114	0x3c672810	0.014108673
115	0x3be62239	0.0070231226
116	0x3c6611c4	0.014042322
117	0x3cf721a9	0.030167418
118	0x3d198280	0.03747797
119	0x3ce7a955	0.028278986
120	0x3c52c392	0.01286401
121	0x3c89e6c9	0.01683368
122	0x3ac3260a	0.0014888656
123	0x3a3450c9	0.0006878493
124	0x3cc92ea3	0.024558371
125	0x3cbf678c	0.023364805
126	0x3c61e7bf	0.013788163
127	0xbbf53022	-0.0074825445

features.11.running_mean f4 [128]
0	0xbf983f19	-1.1894256
1	0xbfcbff1a	-1.5937226
2	0xbff1db0b	-1.8894972
3	0xbf8d7354	-1.105082
4	0xbfa2d28a	-1.2720501
5	0xbff0eafd	-1.8821713
6	0xbf63e205	-0.89016753
7	0xbfba73aa	-1.4566548
8	0xbfc03148	-1.501504
9	0xbfaf64be	-1.3702619
10	0xbfc9f563	-1.5778011
11	0xbfcf6439	-1.620246
12	0xbfa7c67f	-1.3107451
13	0xbf98f0f2	-1.1948531
14	0xbfd8e6f8	-1.6945486
15	0xbf7452f1	-0.9543906
16	0xbf35d38c	-0.7102592
17	0xbf63e0a7	-0.8901467
18	0xbfc8af32	-1.5678465
19	0xbfc9b79a	-1.5759156
20	0xbf7fb50f	-0.9988565
21	0xbf862f07	-1.0483102
22	0xbf2a7eea	-0.66599905
23	0xbfd6db38	-1.678565
24	0xbf64b24d	-0.89334565
25	0xbf76a1b8	-0.96340513
26	0xbf0666bd	-0.52500516
27	0xbfc15026	-1.5102584
28	0xbf96e783	-1.1789402
29	0xbe44cbe3	-0.19218402
30	0xbf1af569	-0.60530716
31	0x3ff2bddc	1.896419
32	0xbf85b530	-1.0445919
33	0xbf852e45	-1.0404745
34	0xbf91b72d	-1.1384026
35	0xbf395b19	-0.7240463
36	0x3eb81b0f	0.35958144
37	0xbfbfb784	-1.497788
38	0xbfc48783	-1.5353855
39	0x3ee0d801	0.43914798
40	0xbfc0cd98	-1.5062742
41	0xbe99da9f	-0.30049607
42	0xbf92f2d6	-1.1480358
43	0xbfe7d478	-1.8111715
44	0xbf718334	-0.94340825
45	0xbfd35992	-1.651171
46	0xbfcf947c	-1.6217189
47	0xbf583ef2	-0.84471047
48	0xbe872c5d	-0.26401034
49	0x3e436aff	0.19083785
50	0xbf5886fd	-0.84580976
51	0xbfaecca5	-1.3656203
52	0xbe8f8fd0	-0.28039408
53	0xbd948765	-0.07252387
54	0xbf4dbb77	-0.80364174
55	0xbff339f1	-1.9002057
56	0xbff26776	-1.8937824
57	0xbfa8e259	-1.3194076
58	0xbfc19cf5	-1.5126024
59	0xbf2380ed	-0.638686
60	0xbfa62f0c	-1.2983108
61	0xbf760d40	-0.9611397
62	0xbf2dafef	-0.6784658
63	0xbfa4cb02	-1.2874453
64	0xbf81cfea	-1.0141575
65	0xbf35eb3a	-0.7106205
66	0x3f6b08ae	0.9181012
67	0xbf024951	-0.5089312
68	0xbfc55717	-1.5417203
69	0xbee034d5	-0.43790308
70	0xbf96283c	-1.1731029
71	0xbfbe79c7	-1.4880913
72	0xbf4c13ce	-0.7971772
73	0xbf8e4fc7	-1.1118096
74	0xbfaa146f	-1.3287486
75	0xbec4be1a	-0.38426286
76	0xbe8537cc	-0.26019132
77	0x3e6cc352	0.23121384
78	0xbf53ba72	-0.8270637
79	0xbf72fd52	-0.94917786
80	0xbf7c6dc8	-0.9860501
81	0xbf660bca	-0.8986174
82	0xbf8065a6	-1.0031021
83	0xbf44ab42	-0.7682382
84	0xbf92668c	-1.1437545
85	0xbf0a4734	-0.540149
86	0x3f6f3671	0.93442446
87	0xbfd0c3d7	-1.6309766
88	0xbf8f005d	-1.1171986
89	0xbfcd3c06	-1.6033943
90	0xbfcde731	-1.6086179
91	0xbfe277c4	-1.76928
92	0xbfcdfd69	-1.609296
93	0xbf6dfed9	-0.9296699
94	0xbf139108	-0.57643175
95	0xbfe07880	-1.7536774
96	0xbfa1dca2	-1.2645457
97	0xbee5044f	-0.4472985
98	0xbfc4f4fe	-1.5387266
99	0xbf8912a8	-1.0708818
100	0xbf9a4fdb	-1.205562
101	0xbfa53d36	-1.2909305
102	0xbf1893c3	-0.59600466
103	0x3e3e6fa3	0.18597274
104	0xbfa45bd7	-1.2840527
105	0xbfa4c42b	-1.2872366
106	0xbf99b8ee	-1.2009561
107	0xbfc00d68	-1.5004091
108	0xbf92fb78	-1.1482992
109	0xbfe64c2b	-1.7991995
110	0xbfeacd5c	-1.8343921
111	0xbfb0ad92	-1.380297
112	0xbe956c0f	-0.29184005
113	0xbf30bcef	-0.6903829
114	0xbf8ab535	-1.083655
115	0xbfad2d11	-1.3529378
116	0xbf8dbbd4	-1.1072946
117	0xbfaf5690	-1.3698292
118	0xbfbc1363	-1.4693416
119	0xbeb9bfc4	-0.36279118
120	0xbf4c098b	-0.7970206
121	0xbfe07907	-1.7536935
122	0xbf8ab18f	-1.0835437
123	0x3f8c59b8	1.096488
124	0xbf4ee14c	-0.80812526
125	0xbfaaad08	-1.3334055
126	0xbfb03faa	-1.3769429
127	0xbd9f7ff5	-0.07788078

features.11.running_var f4 [128]
0	0x3f6d27c3	0.92638797
1	0x3f41116b	0.754172
2	0x3f56be8b	0.83884495
3	0x3f46cd0b	0.7765662
4	0x3f33eba8	0.7028146
5	0x3f3d3c6e	0.73920333
6	0x3f22a293	0.6352932
7	0x3f89765d	1.0739247
8	0x3f28d94a	0.65956557
9	0x3f172981	0.59047705
10	0x3f6987bc	0.9122274
11	0x3f70578c	0.93883586
12	0x3f7ef8a9	0.99598175
13	0x3f47092d	0.77748376
14	0x3f50ce59	0.8156486
15	0x3f5a97e9	0.85388047
16	0x3f67b5f9	0.90512043
17	0x3f5b9be0	0.8578472
18	0x3f6a5649	0.9153791
19	0x3f16c7a6	0.5889839
20	0x3f4dfebb	0.8046681
21	0x3f4d8eae	0.80295837
22	0x3f5baee4	0.85813737
23	0x3f8a8a79	1.0823509
24	0x3fab2d4a	1.3373196
25	0x3f9d2867	1.2277955
26	0x3f829139	1.0200568
27	0x3f653f71	0.8954993
28	0x3f697e41	0.91208273
29	0x3f425621	0.7591267
30	0x3f971271	1.1802503
31	0x3f830bdc	1.0237994
32	0x3fa6f363	1.3043026
33	0x3f10f632	0.56625664
34	0x3f052104	0.520035
35	0x3f21d767	0.632193
36	0x3f70a753	0.94005316
37	0x3f4b7d33	0.79487914
38	0x3f0e6e5d	0.5563715
39	0x3f46a2bf	0.7759208
40	0x3f7fc50f	0.9991006
41	0x3f27ff84	0.6562426
42	0x3f15deed	0.5854328
43	0x3f49c5f7	0.78817695
44	0x3f4da6d7	0.803327
45	0x3f625ee1	0.88426024
46	0x3f74165d	0.95346624
47	0x3f830781	1.0236665
48	0x3f6adb25	0.9174064
49	0x3f8140f8	1.0097952
50	0x3f08f7ee	0.5350331
51	0x3f57757c	0.8416364
52	0x3f1e6716	0.61876047
53	0x3f4d8871	0.8028632
54	0x3f805bef	1.0028056
55	0x3f5fa24a	0.8735701
56	0x3f7279d1	0.9471713
57	0x3f5f9200	0.87332153
58	0x3f5d7c6e	0.8651799
59	0x3f0fd680	0.56186676
60	0x3f6eefd6	0.9333471
61	0x3f6d1da3	0.9262335
62	0x3f297b62	0.6620389
63	0x3f38c8a6	0.72181165
64	0x3f418d41	0.7560616
65	0x3f53ac2e	0.826846
66	0x3f5ff4c5	0.87482864
67	0x3f175c50	0.5912523
68	0x3f505727	0.81382984
69	0x3f5b5417	0.85675186
70	0x3f5802dd	0.8437937
71	0x3f7658b7	0.9622912
72	0x3f49577b	0.7864911
73	0x3f61a426	0.88141096
74	0x3f254639	0.64560276
75	0x3f630153	0.88673896
76	0x3f577450	0.84161854
77	0x3f3f08e1	0.74622923
78	0x3f82340d	1.0172135
79	0x3f693d9f	0.9110965
80	0x3f676ee3	0.90403575
81	0x3f79c358	0.97563696
82	0x3f089a97	0.53360885
83	0x3f0e2a22	0.5553304
84	0x3f1cf599	0.6131225
85	0x3f797a9a	0.974527
86	0x3f3dba53	0.74112433
87	0x3f1dee2a	0.61691535
88	0x3f481f06	0.7817234
89	0x3f38d9c4	0.72207284
90	0x3f6f519c	0.934839
91	0x3f6aa5fc	0.9165952
92	0x3f3fec26	0.7496971
93	0x3f54b6ee	0.8309163
94	0x3f65fb86	0.8983692
95	0x3f35847f	0.709053
96	0x3f8d3558	1.1031904
97	0x3f2e1797	0.68004745
98	0x3f1c7ccc	0.61127925
99	0x3f0fa62f	0.5611295
100	0x3f443795	0.7664731
101	0x3f292823	0.6607687
102	0x3f65914b	0.89674824
103	0x3f5efcd8	0.8710456
104	0x3f5d808f	0.8652429
105	0x3f3e962c	0.74447894
106	0x3f2f2b3c	0.68425345
107	0x3f5f2146	0.87160146
108	0x3f68302f	0.9069852
109	0x3f42efa1	0.76146895
110	0x3f443848	0.7664838
111	0x3f62ac11	0.885438
112	0x3f2af143	0.66774386
113	0x3f284532	0.65730584
114	0x3f541782	0.8284837
115	0x3f2978e2	0.6620008
116	0x3f18812c	0.595721
117	0x3f6337d7	0.8875708
118	0x3f72f317	0.94902176
119	0x3f716f95	0.94310886
120	0x3f45c638	0.7725558
121	0x3f2e86fe	0.6817473
122	0x3f52b185	0.82302123
123	0x3f26d69e	0.6517123
124	0x3fa5049d	1.2892033
125	0x3f480211	0.78128153
126	0x3f6d2726	0.9263786
127	0x3f8356ea	1.0260899

fc.weight f4 [5, 128]
0	0xbdf11af6	-0.117727205
1	0x3caaf8a4	0.020870514
2	0x3d2d3217	0.042284098
3	0xbc838415	-0.016054193
4	0xbd22b68c	-0.03972487
5	0xbdc039e6	-0.09386043
6	0xbd7be9de	-0.06150233
7	0xbd45e1c3	-0.048311006
8	0xbdaa8346	-0.0832582
9	0x3d6a1452	0.057148285
10	0x3db1458d	0.08655844
11	0xbd649bf8	-0.055812806
12	0xbbe81533	-0.0070826053
13	0x3dceff63	0.10107305
14	0xbd08da53	-0.033411335
15	0xbd63bc48	-0.05559948
16	0xbdbd8eeb	-0.09255775
17	0xbe050941	-0.12991811
18	0x3da33978	0.07969946
19	0x3d78af0b	0.06071381
20	0x3ca5ef16	0.020255607
21	0x3dcfb990	0.10142815
22	0xbdccbc43	-0.099968456
23	0x3d648889	0.055794273
24	0xbdd5440c	-0.104133695
25	0xbcc527ec	-0.024066888
26	0xbce15add	-0.027509147
27	0xbd49d9c2	-0.049279936
28	0x3b9c0473	0.0047612726
29	0x3de24f9d	0.11050341
30	0xbe284b6b	-0.1643502
31	0xbe112f72	-0.14178255
32	0xbe1222c6	-0.14271078
33	0x3cbf8eea	0.023383576
34	0x3d45601e	0.048187368
35	0x3ddb7e24	0.10717419
36	0xbe040d97	-0.12895809
37	0xbb50bd87	-0.0031851248
38	0x3d83a990	0.06428826
39	0xbc934ee4	-0.017981954
40	0xbcb89af1	-0.02253482
41	0x3dc9a1b8	0.098452985
42	0xbdf0cf4e	-0.1175829
43	0x3d533d8f	0.05157238
44	0xbdca49ce	-0.098773584
45	0x3dfea7db	0.1243436
46	0x3d077b3a	0.033076502
47	0xbdf68d8a	-0.12038715
48	0xbdad26ba	-0.08454652
49	0xbddcbfe0	-0.10778785
50	0x3d90d939	0.07072682
51	0x3c2f81df	0.010712116
52	0xbdb0b24c	-0.086277574
53	0x3d9af40d	0.0756608
54	0x3d29be0a	0.041441
55	0xbdd444e9	-0.10364706
56	0xbdc17dec	-0.09447846
57	0x3cbf38ee	0.023342576
58	0x3cc5473e	0.024081822
59	0xba9767ec	-0.0011551357
60	0x3d1fae57	0.038984623
61	0xbe135402	-0.14387515
62	0x3cb73550	0.022364289
63	0x3de03264	0.10947111
64	0x3da9e49e	0.082955584
65	0xbcb99a62	-0.022656623
66	0xbd078e2f	-0.03309458
67	0x3a80c118	0.0009823171
68	0x3d42c5bd	0.04755186
69	0xbd849635	-0.06473962
70	0xbd2c6d3f	-0.042096373
71	0x3de443fd	0.1114578
72	0x3dd52acc	0.104085535
73	0x3cc06b2f	0.02348861
74	0x3d979eb1	0.07403315
75	0xbde9fbb5	-0.114249624
76	0xbde4c034	-0.11169472
77	0x3cdf2510	0.027239352
78	0xbd3370ae	-0.04380863
79	0xbb513a6e	-0.0031925696
80	0xbd5e5010	-0.054275572
81	0xbd74bea3	-0.059752118
82	0xbd7353d7	-0.059406128
83	0x3c7caaf4	0.015421618
84	0x3df4cb5d	0.11952851
85	0xbdd472c1	-0.1037345
86	0xbd63bd9c	-0.055600747
87	0x3d06ba5c	0.03289257
88	0xbdeac759	-0.11463804
89	0x3cc980ad	0.02459749
90	0xbdc96658	-0.09833974
91	0xbdfbb21e	-0.122898325
92	0xbd90153e	-0.070353016
93	0xbd423e88	-0.047422916
94	0xbddb21c6	-0.10699801
95	0x3d9aabcf	0.07552301
96	0xbdc3d914	-0.09562889
97	0x3db03fc0	0.08605909
98	0x3de13970	0.109972835
99	0x3d96e869	0.073685475
100	0x3d1e39a0	0.038629174
101	0xbd83c8fc	-0.06434819
102	0xbd206d52	-0.039166756
103	0xbde869e7	-0.11348324
104	0x3db186e1	0.08668304
105	0x3df7821d	0.12085364
106	0x3dadc95e	0.08485673
107	0x3d2f05d6	0.042730175
108	0xbda10212	-0.07861723
109	0xbd83856d	-0.06421933
110	0xbd10df43	-0.03536917
111	0xbde35449	-0.111000605
112	0xbdb09c00	-0.08623505
113	0x3d8de9a8	0.06929332
114	0x3dd8f451	0.10593475
115	0xbdcae5e5	-0.0990713
116	0x3d810d6c	0.06301388
117	0xbdceb023	-0.10092189
118	0xbd53aa7f	-0.05167627
119	0xbdeb05ca	-0.114757136
120	0xbd3f9756	-0.046775185
121	0x3e05559e	0.13020942
122	0x3db91957	0.09038036
123	0x3d956afd	0.07295797
124	0x3d81da4a	0.063404635
125	0x3ddb9d04	0.10723308
126	0x3d10bb01	0.03533459
127	0xbda1b5e9	-0.07896025
128	0xbd90ade5	-0.07064418
129	0xbd0fe8ea	-0.035134234
130	0xbdb6ee02	-0.08932115
131	0x3dc08429	0.094002075
132	0x3d3c2d58	0.04594168
133	0xbd927be7	-0.07152539
134	0xbd4f2e90	-0.050581515
135	0xbcfb3474	-0.03066466
136	0xbc1dcddf	-0.009631603
137	0x3c38ec3e	0.011286793
138	0x3b6ea95b	0.0036416862
139	0xbd04d605	-0.032430667
140	0x3ce33695	0.027735988
141	0x3de42fc1	0.11141921
142	0xbdd7c8a3	-0.10536315
143	0x3dc530dc	0.0962846
144	0x3dd54d9d	0.10415194
145	0x3e080f97	0.13287197
146	0xbdc9e8fb	-0.098588906
147	0xbe00c8c8	-0.12576592
148	0xba20ded8	-0.0006136722
149	0xbd2980e3	-0.04138268
150	0xbdc0e600	-0.09418869
151	0xbd5a045b	-0.05322681
152	0x3c2b9964	0.010473583
153	0x3d17306a	0.036911406
154	0xbdfa6cbb	-0.1222777
155	0xbdaa02b8	-0.083013
156	0x3d56d7d5	0.052451927
157	0xbdf26247	-0.11835151
158	0x3d532f5e	0.051558845
159	0x3d8f86e0	0.07008147
160	0x3cfcb43b	0.03084766
161	0xbd5b3f6c	-0.05352728
162	0xbb7ef4bc	-0.0038903197
163	0xbd25a5ea	-0.04044143
164	0x3d647bd7	0.055782165
165	0xbdd107bb	-0.102065526
166	0x3dc93fcb	0.09826621
167	0xbe0b4fea	-0.13604704
168	0xbcedd7a0	-0.029033482
169	0xbcd0a678	-0.025470003
170	0x3d71dd3b	0.059048872
171	0x3d74b624	0.059744015
172	0xbd922efe	-0.07137869
173	0xbdd6b598	-0.10483855
174	0xbd439313	-0.047747683
175	0x3d198edd	0.03748976
176	0x3d1cde46	0.038297914
177	0x3c202f78	0.009776942
178	0xbdc4e7d6	-0.09614532
179	0x3d3bc7f1	0.045844976
180	0xbd6f3bab	-0.058406513
181	0xbdf50494	-0.11963764
182	0xbde3b9b0	-0.111194015
183	0x3c2f4d04	0.010699514
184	0xbd80bc60	-0.0628593
185	0x3c26f157	0.010189376
186	0xbd5d6e4b	-0.05406026
187	0x3df42051	0.11920226
188	0xbbba161e	-0.005678906
189	0xbd1d4038	-0.038391322
190	0xbcb30411	-0.021852525
191	0xbd2c3074	-0.042038396
192	0x3d859a29	0.06523544
193	0x3d89cc69	0.06728441
194	0x3d2d69bb	0.04233716
195	0xbd91c79f	-0.07118153
196	0xbda67014	-0.08126846
197	0x3dbb73b9	0.09152932
198	0xbddde268	-0.10834199
199	0xbd9ebff3	-0.07751455
200	0xbd6d9e5c	-0.05801235
201	0xbaa582e7	-0.0012627513
202	0xbc926d94	-0.017874517
203	0x3db55ed2	0.08855976
204	0xbc6052d6	-0.013691625
205	0x3e034e4b	0.12822835
206	0x3d9d45c7	0.076793246
207	0x3dda09bb	0.10646387
208	0xbcf5a478	-0.029985651
209	0xbd91f3b5	-0.071265616
210	0x3dcb2ce6	0.09920673
211	0xbdb1c938	-0.086809576
212	0x3d91bf27	0.071165375
213	0xbdb0d9ba	-0.08635278
214	0x3dcbfebb	0.09960695
215	0x3dbce360	0.09223056
216	0xbbbdefff	-0.005796432
217	0xbd901e39	-0.070370145
218	0x3d5b481a	0.05353556
219	0xbce9c832	-0.028537843
220	0xbd9ef591	-0.07761682
221	0xbdd6e7be	-0.1049342
222	0xbdaed659	-0.08536977
223	0xbde7ec81	-0.113244064
224	0x3dc1a633	0.09455528
225	0xbbf31f85	-0.007419529
226	0xbc4c2fe4	-0.01246259
227	0x393a07e8	0.00017741288
228	0x3dc3b537	0.09556048
229	0x3da612ff	0.08109092
230	0x3e011b41	0.12608053
231	0x3c1373bb	0.00899976
232	0xbd91599e	-0.07097171
233	0x3d0f0dbe	0.034925215
234	0xbc69af16	-0.014262935
235	0x3e06e7e7	0.13174401
236	0xbdce83aa	-0.10083707
237	0xbce2d693	-0.027690208
238	0xbdac4c6c	-0.08413014
239	0xbd1855a6	-0.037191056
240	0x3d78248b	0.060581725
241	0x3dca8c86	0.09890084
242	0xbdf008c0	-0.11720419
243	0x3d032461	0.032017116
244	0x3b40893f	0.002937868
245	0x3d2fcab1	0.04291791
246	0x3da22539	0.07917256
247	0x3dc97f75	0.098387636
248	0x3dcb0266	0.09912567
249	0xbd0b296f	-0.03397506
250	0xbda5f18a	-0.081027105
251	0x3d42147f	0.047382828
252	0xbdc230af	-0.09481942
253	0xbd28f665	-0.041250605
254	0xbda1d43d	-0.07901809
255	0xbdb19fef	-0.08673083

fc.bias f4 [5]
0	0x3cdf8aa8	0.027287796
1	0xbd584c71	-0.052807275
2	0xbd968a13	-0.07350554
3	0xbcf6f857	-0.030147715
4	0xbbf3b512	-0.0074373567
