artifacts/model_cnn_fold_3.pth (torch, 141777 bytes, 17 tensors)

features.0.weight f4 [32, 8, 5]
000000 6d 36 fd 3d 23 95 b8 3b c4 af 7a be a7 cb 31 be
       0.123638965 0.005633013 -0.24481112 -0.17362843
000010 24 0b 23 3d cd 67 8f 3d 90 52 e3 3d a8 09 32 bc
       0.039805546 0.0700222 0.11099732 -0.01086656
000020 d6 1e 57 bd 92 45 82 3d 71 4a ac ba 8b 1c 8e bd
       -0.05251964 0.06360926 -0.0013144744 -0.06939038
000030 f3 b2 bb bc 3d 5f 71 bd a6 01 a1 3b 0b 79 92 bc
       -0.022912478 -0.058928717 0.0049135266 -0.017879983
000040 f9 cc 12 bd 57 09 90 3e 78 46 00 3e cb 49 0c 3d
       -0.03584001 0.28132126 0.12526882 0.034250062
000050 25 3e 7f be 11 4f f9 3b eb 7d 75 3e fa 70 62 3e
       -0.2492605 0.0076083024 0.23973815 0.2211341
000060 ec 64 66 3c 17 78 06 3e 8f 08 05 be 93 10 6f bc
       0.014062148 0.13131748 -0.12991546 -0.014591354
000070 7e 40 23 3d 05 1e 5c bd 62 08 a4 bc 48 0f 07 3e
       0.039856426 -0.053739566 -0.020023528 0.13189423
000080 f3 ce 77 bd 9f 59 c9 ba f4 62 9c 3c 1d e8 a3 bc
       -0.060500097 -0.0015361792 0.019090153 -0.020008141
000090 aa 77 80 bd f9 3f 8c bc 85 f5 ca bd 3f fd 8c bd
       -0.06272824 -0.017120348 -0.099101104 -0.0688424
0000a0 7e 9d b0 bd c7 19 44 be 26 73 dd bc 46 6e d9 3d
       -0.08623789 -0.19150458 -0.027032446 0.10616736
0000b0 29 13 4b 3b 84 cd 7f 3d a5 3d 74 bd 6b da 99 3d
       0.0030986762 0.062451854 -0.0596291 0.07512363
0000c0 f0 78 94 bc e4 f7 5d 3d f8 a9 25 bd d5 2d d3 3c
       -0.018124074 0.054191485 -0.040445298 0.02577869
0000d0 cc 0e 45 3c f6 15 2b bd 4f 1c 0d bc bf 42 73 bd
       0.012027454 -0.04176899 -0.008612706 -0.059389826
0000e0 75 e7 7f 3d 4a 8c ad bc 55 a1 ab 3c a2 71 88 3c
       0.062476594 -0.02118506 0.020950953 0.016655747
0000f0 a7 85 67 3c 7f 81 3a 3d 03 21 af bd 54 ee 2d 3d
       0.014130986 0.045533653 -0.08551218 0.042463616
000100 69 24 80 bd 22 be e0 bd 7b 95 2a be 59 36 47 3e
       -0.06256945 -0.10973765 -0.16658585 0.19454326
000110 3b f2 64 3a 78 72 bb 3c 4c 9a 88 3e 3b f2 ea bd
       0.0008733605 0.022881731 0.2668022 -0.11471983
000120 f8 a6 7a be 73 dc 18 bd 9c 3b 79 3e 73 cd 64 3d
       -0.24477756 -0.03731961 0.24339145 0.055859994
000130 0b e8 92 3e 32 57 bb 3d 3d 7a c2 bd e2 45 33 be
       0.2869266 0.091474906 -0.09495971 -0.17507127
000140 79 21 1c 3e 85 06 6d bc 1a 55 1f 3d dd 1c 2d 3d
       0.15247144 -0.014466886 0.03889952 0.042263854
000150 7e 65 1b bc 77 ca 74 be e0 78 5d bd 44 59 87 3e
       -0.009484647 -0.23905359 -0.054070354 0.26435292
000160 cc 22 32 be ad 3e 82 bd 82 75 9d bd db 36 9e bd
       -0.17396086 -0.06359611 -0.076884285 -0.077253066
000170 ef 20 ea bc c8 95 05 be 96 58 1b bd 0f b9 a1 3c
       -0.028580157 -0.13045418 -0.03792628 0.019741563
000180 4a 3e 7f 3d 74 fc a0 3b 7e 04 31 3e b2 35 78 bd
       0.062315263 0.0049129073 0.1728687 -0.060598083
000190 b0 fc 90 ba 0a 84 c7 bd ce 2b e8 3d 75 18 cb bd
       -0.0011061635 -0.09741981 0.1133648 -0.09916774
0001a0 92 e4 c5 3d 1f 62 0f bd 2f 9c 16 3e 72 53 a5 3d
       0.09662737 -0.035005685 0.14708017 0.080725566
0001b0 d2 3a 0b 3b 68 53 af 3c 09 02 a9 bc da 3d 64 bd
       0.0021244776 0.021402076 -0.020630853 -0.05572305
0001c0 c6 25 c0 bd 0b 55 10 3e 79 7e be bd 27 cd 0c 3e
       -0.09382205 0.14094941 -0.093014665 0.13750134
0001d0 ee 95 d7 3d 0e 5c b1 be af ea c5 3d c1 78 6d 3d
       0.10526644 -0.34640545 0.09663903 0.057976488
0001e0 87 5a 33 3d 9d 80 24 bd c1 49 af bd 1a c7 2f 3d
       0.043787505 -0.040161718 -0.08558989 0.042914487
0001f0 85 f2 d9 bd 8b 50 28 3c b1 33 ed 3d 2a 2b a0 3d
       -0.1064196 0.010273109 0.11582125 0.07820733
000200 bf b3 1d be 65 50 64 bd bf 3a e8 bd cd 93 7c 3b
       -0.15400599 -0.055740733 -0.1133933 0.0038540245
000210 a4 78 38 bc 6c 14 8d bb 31 60 bf 3d 95 62 58 bd
       -0.011259232 -0.004305413 0.09344519 -0.05282839
000220 ab 2e c8 3d 98 af 35 3d c5 d7 7a 3e 74 16 8f 3d
       0.09774526 0.044356912 0.24496372 0.069867045
000230 cd 72 d7 3d 17 57 ea 3b 3b 56 91 3c 04 c4 38 3c
       0.105199434 0.007151495 0.017741313 0.0112772025
000240 8a 90 03 bd 4b 84 80 bd f5 88 84 be 35 6c 23 be
       -0.032120265 -0.06275233 -0.2588574 -0.15959246
000250 d7 bd 89 3e 5c 40 a5 bc 25 8b 10 3e 09 07 73 bd
       0.2690265 -0.02017229 0.1411558 -0.05933288
000260 78 b8 2f be ee e3 0b 3e 58 a9 b3 3a f3 8d fe bd
       -0.17160213 0.13661167 0.0013707085 -0.124294184
000270 be ab bd bc 23 18 33 3e d9 97 07 3e 4e 3c 67 3d
       -0.023153182 0.17489676 0.13241519 0.056453995
000280 69 7c 21 be f8 6f bb 3b c4 94 07 3e e7 55 cd bd
       -0.15770115 0.005720135 0.13240343 -0.1002615
000290 db f0 b0 3d 84 80 9b 3e fe ce 22 be 84 d2 d4 bd
       0.086396895 0.30371487 -0.15899274 -0.10391715
0002a0 34 2e c0 3e 06 d7 a0 bd 5c 5c 1b 3e 68 ef 95 3e
       0.3753525 -0.078535125 0.15171951 0.29284215
0002b0 7f 26 bf 3d 33 71 f5 3b 1d 9c 33 3e d5 fc 4c be
       0.093335144 0.007490301 0.17540021 -0.20018323
0002c0 87 a5 5f bd a0 53 a1 bd 7f 0f e7 bd 94 ea 0c be
       -0.05460122 -0.07877278 -0.112822525 -0.1376136
0002d0 db f3 61 3b 57 ca d3 bc da c2 9d ba 8b 51 c8 bb
       0.0034477625 -0.02585332 -0.001203622 -0.0061132363
0002e0 db 3a a0 3c 3a f8 3b 3c f4 4b bd 3c 0a 7c c4 3c
       0.019559314 0.011472756 0.023107506 0.023984928
0002f0 cc c2 15 bd 5a d0 20 3d 5d ff d3 3b 96 79 61 bc
       -0.036562726 0.0392612 0.0064696507 -0.0137618985
000300 2a a5 a0 3c a3 27 0e bd 6f d3 c4 bc 10 8b 48 bd
       0.019610006 -0.03470577 -0.0240266 -0.048960745
000310 2f 89 0f bd b0 e8 5d bd d2 da 67 bd 46 6e 64 bd
       -0.035042938 -0.054176986 -0.056605168 -0.055769227
000320 93 79 eb 3c 3e 52 17 bb 52 0d d3 bd e3 db fc bc
       0.028744495 -0.0023089792 -0.10305275 -0.030866569
000330 7e 88 5e be 78 0e ce 3b a6 fb 23 3d c9 bc 39 3d
       -0.21731755 0.006288346 0.040034913 0.045346055
000340 3b 55 a3 bd 57 af 45 3e 6c 94 80 3d de 28 3d bd
       -0.07975241 0.19305168 0.06278309 -0.046181552
000350 d0 40 b9 3c 22 00 7c 3d 2d 38 b0 3d ea 2f 31 3e
       0.022613913 0.061523564 0.08604465 0.17303434
000360 fe 2f 58 3e 9e 4b 2d be 88 e7 88 be 3b 18 6d bc
       0.21112058 -0.16923377 -0.26739144 -0.014471109
000370 1b 81 1d 3d 9e fa 9e bd fb 36 97 3d 07 42 ac bd
       0.038453203 -0.07762645 0.073835336 -0.08411031
000380 75 0b 73 be a1 ea 67 3d 62 b7 36 3e e9 c9 0a 3e
       -0.2373484 0.056620244 0.17843392 0.13553585
000390 df 67 3b 3e a1 89 a3 3d ee 62 5d bd fd 54 25 be
       0.18301342 0.07985235 -0.054049425 -0.16145702
0003a0 78 01 7f bc f1 34 21 3d e2 cc a7 3d d6 e8 2b be
       -0.015564315 0.03935713 0.08193375 -0.16788039
0003b0 bc ca a4 3d c3 a4 fc 3d d3 06 0e 3d e8 2a 7c be
       0.08046481 0.12336113 0.034674477 -0.24625742
0003c0 1e f1 c7 bd 8b 51 9c 3e b8 ad 98 be b8 eb 50 3e
       -0.09762786 0.30530962 -0.29820037 0.2040242
0003d0 1e 0a ef 3d f3 30 29 bc 21 a7 e2 3c c2 c2 8d bd
       0.116718516 -0.010326612 0.027667584 -0.06921913
0003e0 c3 60 1f 3e f7 83 1b be b0 dd f3 bb a3 92 bd 3d
       0.15564255 -0.1518706 -0.0074421987 0.09256484
0003f0 bc f7 b2 bd 85 e8 49 3d 30 42 74 3d 3a 96 1c bd
       -0.08738658 0.049294014 0.059633434 -0.038229205

features.1.weight f4 [32]
000000 44 c2 83 3f 4e 76 80 3f 9b 72 69 3f 87 72 69 3f
       1.029366 1.0036104 0.911905 0.9119038
000010 7c 54 86 3f fd d5 7f 3f e9 b1 7b 3f 28 2a 80 3f
       1.0494533 0.99935895 0.98318344 1.0012865
000020 37 48 73 3f 7e 98 86 3f 35 0c 7a 3f ad c5 68 3f
       0.95032066 1.0515287 0.97674876 0.9092663
000030 4b 27 80 3f a7 6b 73 3f 6d 90 80 3f ca 1a 7b 3f
       1.0011991 0.9508614 1.0044075 0.9808775
000040 42 98 7d 3f d4 52 71 3f a3 e2 7b 3f 3d 29 7d 3f
       0.9906045 0.9426701 0.98392695 0.9889105
000050 ce 5e 76 3f f6 f7 7c 3f 33 02 82 3f f7 3e 75 3f
       0.9623841 0.9881586 1.0156921 0.957992
000060 45 85 74 3f 9f e9 85 3f 96 d2 74 3f d3 e0 80 3f
       0.95515853 1.046192 0.9563383 1.0068611
000070 bc c8 8a 3f 53 b7 7b 3f 47 c3 7f 3f 83 01 80 3f
       1.0842509 0.98326606 0.99907345 1.0000461

features.1.bias f4 [32]
000000 24 33 d1 bd 4b 02 3c be 55 9a 85 be 53 1a 13 be
       -0.102148324 -0.1836025 -0.26094308 -0.1436551
000010 99 1f f2 bd 59 07 20 be 3c a0 6b be d0 87 10 be
       -0.11822433 -0.15627803 -0.23010343 -0.14114308
000020 65 4e 79 be 9c cf cd bd a9 95 20 be e6 15 e7 bd
       -0.24346311 -0.10049364 -0.15682091 -0.11283474
000030 ab e2 51 bd 80 9f 94 be f4 46 20 be ac a3 40 be
       -0.051241558 -0.2902794 -0.15652066 -0.18812436
000040 f4 64 9f bd 9a 60 90 bd ad 7e 27 be e7 4e 22 be
       -0.07782927 -0.07049675 -0.16356917 -0.15850411
000050 dd f3 51 be 48 8d 40 be 93 ed ee bd a4 ab 48 be
       -0.20503183 -0.18803895 -0.116664074 -0.19596726
000060 3c 0a 81 bd 2c 98 67 be 84 cc 5e bd a8 ce 7f be
       -0.0630078 -0.22616643 -0.05439426 -0.24981177
000070 cd 05 7d bd 83 2d ad bd 0b 9b e3 bd e4 22 25 be
       -0.06177311 -0.08455946 -0.111135565 -0.16126591

features.1.running_mean f4 [32]
000000 5e fa a7 bb 67 6d 28 bb 33 fb 27 3a 6e a8 2d bc
       -0.0051262816 -0.0025699975 0.0006407976 -0.010599239
000010 e7 79 91 bb 62 9f 61 bb 99 48 b0 bb 19 ab ec ba
       -0.0044395807 -0.0034427275 -0.005379748 -0.0018056362
000020 e9 e1 71 bc 88 f0 9e 3a d0 b3 70 bb 6d 99 30 bc
       -0.014763334 0.0012126127 -0.003672827 -0.010778767
000030 da 06 d3 bb 4c a2 00 bb f5 9b da bb 4a be 25 bd
       -0.0064400258 -0.0019627986 -0.0066714236 -0.040464677
000040 21 ca a1 3b 7a 15 31 ba 75 73 74 bb 78 41 09 3d
       0.0049374257 -0.00067552144 -0.0037300263 0.0335097
000050 cb 7c 83 3b 3b c6 09 bb 0d a3 62 3b ec cc 40 bb
       0.004012679 -0.0021022696 0.003458205 -0.0029419018
000060 51 4f 97 ba 92 e6 58 39 9a fa 2e 3b 35 9e 20 bb
       -0.0011544024 0.0002068526 0.0026699663 -0.0024508361
000070 c8 a8 ee ba 2c 5a ac 39 eb 7a 3b 3b 6a d4 e1 bc
       -0.001820826 0.0003287358 0.00286072 -0.027567107

features.1.running_var f4 [32]
000000 e2 36 7b 3e 36 77 fb 3d 2b 9a f1 3d cc a1 26 3f
       0.24532655 0.12278597 0.11796983 0.6509063
000010 b1 28 f9 3d c9 0b 1f 3f ce 00 6a 3e fc 6c d4 3d
       0.121659644 0.6212736 0.2285187 0.103723496
000020 11 3d 9f 3e f8 b8 57 3e e0 f1 7c 3e 32 dc e5 3e
       0.31101277 0.21066654 0.24701643 0.44894558
000030 87 46 67 3e 38 7c ee 3d f6 31 58 3e 1f 07 3a 3f
       0.22585498 0.116447866 0.21112809 0.72667116
000040 5f ff a9 3e 88 d8 12 3e 5b d6 9a 3e 62 af 17 3f
       0.33202645 0.14340413 0.30241665 0.5925199
000050 45 b5 b0 3e 0d 11 9e 3d 68 32 06 3e 54 fb 94 3e
       0.34513298 0.07718096 0.13105166 0.29097998
000060 0e a2 d7 3d 45 19 64 3d 54 3b 53 3e 3b 94 b9 3e
       0.10528956 0.05568816 0.206281 0.36245903
000070 91 bc f3 3e 65 b4 2d 3e 4f 36 f3 3d 08 35 db 3e
       0.47604802 0.16963346 0.11875593 0.42813897

features.5.weight f4 [64, 32, 3]
000000 1f d0 8b 3c 4f 9a 0b 3d e9 e2 11 3d 35 21 20 3e
       0.017067013 0.034082707 0.03561679 0.15637667
000010 f6 87 bb 3d bb 8d be 3d 78 1d e2 3d 47 a6 93 3d
       0.09156792 0.09304377 0.11040777 0.07209449
000020 de 84 24 3d 1f b3 f2 bd c7 46 a8 bd af 23 f3 bd
       0.040165775 -0.11850571 -0.08216625 -0.118720405
000030 17 62 e7 3d 5a d8 2a 3d 10 7d 5a 3d 78 fb 78 bd
       0.11298006 0.041710235 0.053341925 -0.060786694
000040 95 ad 7c bc f6 be 70 bd 70 87 0e 3e 93 af 07 3e
       -0.015422245 -0.058775865 0.13918853 0.1325057
000050 2f 1e 45 3d 5b fa fc 3d 78 1a 46 3d df 75 f1 bc
       0.04812449 0.12352439 0.048365086 -0.02947515
000060 bf bc e2 bc 0c ed e1 bc c8 78 21 be 66 fc 52 3d
       -0.027677892 -0.027578853 -0.1576873 0.051510237
000070 32 7c a1 3d 98 c5 81 3d 0a ab 18 bd da 3a 23 3e
       0.078850165 0.06336516 -0.03727249 0.15940419
000080 c8 5a c9 3d 7e e1 06 be b9 1d 34 be d7 5d db bd
       0.09831768 -0.13171956 -0.17589463 -0.10711258
000090 6c 8f 49 3d 64 d2 fe bd 08 0a da bd d0 70 df 3d
       0.049209043 -0.124424726 -0.106464446 0.10910189
0000a0 2c 80 8c 3d 0d 0e 56 3d 74 b5 3b bb 42 31 2f bd
       0.06860384 0.052259494 -0.002864209 -0.042771585
0000b0 b3 1c 8c bd 1f a1 e5 bd 04 04 a9 bd 6c cb 33 be
       -0.068414114 -0.11212372 -0.08252719 -0.17558068
0000c0 bc aa be bc a6 bc 02 bc e7 ed d7 bc 0b e6 f6 3b
       -0.023274772 -0.007979548 -0.026358558 0.0075347475
0000d0 28 65 c3 bd c0 14 d6 bd 40 05 19 3e fd 1b 00 3e
       -0.095407784 -0.104531765 0.14943409 0.12510677
0000e0 7a c1 2b 3c e4 f7 0b be 7c 53 0d be f2 0f 26 be
       0.01048314 -0.13668782 -0.13801378 -0.1621702
0000f0 d3 c8 e6 bd 3e c9 e7 3c 4e 15 5e bd 27 34 37 bd
       -0.11268773 0.028294202 -0.054219536 -0.04472747
000100 7e 58 c1 3d 03 ed 06 3d b4 4a 1e bd 58 36 b3 bd
       0.09440707 0.032940876 -0.03864546 -0.087505996
000110 d0 a9 21 be fa 0d c5 bc e8 26 59 3d bb d4 42 bd
       -0.15787435 -0.024054516 0.05301562 -0.047566157
000120 1e 58 e9 bd d5 da 6c bd 71 c6 84 bd ba 30 80 3d
       -0.1139376 -0.057825882 -0.06483162 0.06259294
000130 41 3e fa 3d c0 36 27 3e 6c 41 79 bd ff ee f7 bd
       0.12218905 0.16329479 -0.060853407 -0.12106132
000140 a6 6a fe bd 93 08 57 bd 9f 01 de 3c fe 65 04 3d
       -0.12422685 -0.05249841 0.027100382 0.03232383
000150 4d e5 9e bd cf 4d 89 bd 37 c7 5d bd 8c 4b a0 3d
       -0.077585794 -0.06704294 -0.054145064 0.078269094
000160 25 a9 60 ba 7c bd 6c bc 53 f1 0b 3d 00 4d 23 bd
       -0.00085701264 -0.0144494735 0.03416569 -0.039868355
000170 b5 fe a6 bd a1 47 0c be e0 6c f1 bd c0 18 ee bd
       -0.0815405 -0.136992 -0.117883444 -0.116258144
000180 cd 28 98 bd 98 86 65 bc 79 73 b9 3c 52 b5 7d bb
       -0.07429657 -0.01400914 0.02263807 -0.0038712812
000190 22 19 85 ba f4 01 7d 3d 28 28 9d 3d 17 81 c6 3d
       -0.0010154585 0.06176944 0.07673675 0.09692591
0001a0 e8 29 62 3d 11 77 05 3d 2d cf ee bd 9d e2 74 3c
       0.055215746 0.032584254 -0.116606094 0.014946607
0001b0 87 7f f6 3a 29 77 78 bd f2 5a c7 3c 6e e8 8a bd
       0.0018806317 -0.060660515 0.024335358 -0.06782614
0001c0 ef b9 cc bd 0e 9f 0f bd 3c be c3 bd 3b 9d 8f bd
       -0.099964015 -0.035063796 -0.09557769 -0.07012411
0001d0 a9 af 21 be 2e 5c 5b be 88 6c 32 be a5 12 0f be
       -0.15789665 -0.21421883 -0.17424214 -0.13971956
0001e0 2c 46 e4 3d a4 0e 41 3e 25 d2 58 3d 2c 53 ca bc
       0.11146197 0.18853241 0.052934784 -0.024697863
0001f0 d4 53 02 be 61 5d 09 bc 86 e0 9a bc bf 3d 4b bd
       -0.1272729 -0.00838408 -0.01890589 -0.049619433
000200 7d 18 14 be f6 64 c0 bd 39 83 ca bd 7f 5c fe bb
       -0.14462467 -0.09394257 -0.0988831 -0.0077624912
000210 ce a9 91 3d 85 89 07 bc 54 a0 26 3e 59 80 73 3d
       0.07112466 -0.008272533 0.16272098 0.059448574
000220 4a f1 c7 bb d8 d9 d1 bc 4a 58 12 3c 68 f1 d4 bc
       -0.006101762 -0.025616571 0.008932183 -0.025994018
000230 3d d2 1d 3d 43 bb 34 be 52 65 56 be 13 a3 3e be
       0.038530577 -0.1764956 -0.20937088 -0.18616895
000240 b1 46 f6 3c 59 cc 27 bd 24 ab 0a bd c7 62 ac 3d
       0.030063005 -0.040966365 -0.03385462 0.08417278
000250 6b 34 d2 bc 94 03 ab 3d 7b 2f 49 be 26 4c e0 bd
       -0.02565976 0.08350292 -0.19647019 -0.10952024
000260 d7 0a ab bc a9 73 a6 bd 83 76 fe bc f0 5f 06 3d
       -0.020879192 -0.08127529 -0.03106237 0.032806337
000270 d9 68 ea bd 3c a2 23 bd 04 bc 8e bd 93 33 8f 3c
       -0.11445779 -0.03994964 -0.06969455 0.017480647
000280 87 d6 24 bd 8f b6 6c 3c 95 e0 c8 3d de 7f cb 3d
       -0.04024365 0.014447822 0.098084606 0.09936498
000290 43 10 dc 3b 08 9a 16 be 6d 97 10 be 3c 57 f7 bd
       0.0067158057 -0.14707196 -0.14120264 -0.120771855
0002a0 27 97 31 bd 72 03 ab bd b5 8e 9a bd cc d2 2b 3d
       -0.04335704 -0.083502665 -0.075467505 0.04194908
0002b0 3e d8 31 3e 20 7d 73 3d 3f 9d 80 3d dc 74 e7 3d
       0.17367646 0.0594455 0.06279992 0.11301586
0002c0 e2 72 99 3d 35 29 b8 bd c0 19 93 bd 98 ab 99 bd
       0.07492615 -0.089922346 -0.07182646 -0.07503432
0002d0 cd 74 ad 3b 17 d7 cb bd ce 5e 8d bd c8 19 85 3d
       0.0052934648 -0.099531345 -0.06902848 0.06499058
0002e0 6c 41 f1 bd e7 00 dd 3d df bb 0c bd fb f4 a8 3d
       -0.11780056 0.10791188 -0.034358855 0.08249851
0002f0 24 82 83 3d 72 2d 12 3e 32 69 01 3d 3c 11 00 3e
       0.06421307 0.14275149 0.031594463 0.12506574
000300 75 46 2c bd 37 69 f3 bd ab a2 00 be e0 c0 a7 bc
       -0.04205938 -0.118853025 -0.12562053 -0.020477712
000310 c0 f3 cd bb 12 6c fa bd dd a6 c2 3c 45 4d 0c bd
       -0.006285161 -0.12227644 0.023761207 -0.034253377
000320 0b 7b af 3d 2a 42 43 3c 45 45 ca 3d f7 95 d4 3c
       0.085683905 0.01191763 0.09876493 0.025950415
000330 c4 7b 7a 3d 30 0f a7 3d df 61 cb 3d 1f 94 e0 bc
       0.06115319 0.08157194 0.09930777 -0.02741438
000340 99 2e e2 3d 04 4e 07 3e db 14 ac 3c f7 fd ba 3d
       0.11044044 0.13213354 0.021006038 0.09130471
000350 c0 51 1c bd 50 03 c1 3d 0b c0 50 3d 2d d3 5f bc
       -0.0381639 0.0942446 0.050964396 -0.013661188
000360 27 0c 51 3c 6a bb 56 3d e5 3d f3 3c b1 29 e4 bc
       0.012759245 0.052424826 0.0296926 -0.027851911
000370 26 b3 5f bd 25 90 0f bd ad b0 9a bd 83 96 f3 bd
       -0.05461421 -0.035049576 -0.075532295 -0.11893942
000380 03 3a 91 bb 06 07 1e 3d 6b 59 e0 bc 91 7c c5 3d
       -0.0044319644 0.038580917 -0.027386388 0.096429
000390 86 8f 1b be ac a9 7f be 82 0c 4e be ca e6 3f 3d
       -0.15191469 -0.24967068 -0.20121959 0.046850957
0003a0 ed d1 9c 3d 13 f6 52 bb 71 da 99 3c 4d 08 e0 3d
       0.07657228 -0.0032190129 0.018780919 0.10939083
0003b0 24 fb 00 3e 3e c8 3f bd 37 e8 00 bc 01 f1 08 be
       0.12595803 -0.046821825 -0.007867864 -0.13373186
0003c0 d8 37 69 bc 24 91 86 3d f1 68 52 3d 3c f0 2e be
       -0.014234506 0.06570652 0.05136961 -0.1708383
0003d0 fd 45 58 be 52 5f 99 bd 9a 2b 93 bd 63 c5 61 3d
       -0.21120448 -0.07488884 -0.07186051 0.055119883
0003e0 47 14 99 bb ec 1b 35 be 91 80 79 bd fd 0f cd 3c
       -0.0046716067 -0.17686433 -0.060913626 0.025032038
0003f0 2d cd 9c bd 92 00 e8 bd 6b e3 32 3d 36 46 75 bd
       -0.07656322 -0.11328234 0.043673914 -0.05988141

features.6.weight f4 [64]
000000 ce b5 82 3f cd 6c 71 3f ac e2 75 3f 81 c6 58 3f
       1.0211732 0.9430664 0.96049 0.8467789
000010 79 82 80 3f da a3 78 3f af 8b 83 3f 96 c4 8b 3f
       1.0039817 0.9712502 1.0277003 1.0919368
000020 3b cc 66 3f 86 07 71 3f 12 a4 68 3f eb 25 89 3f
       0.9015538 0.94152105 0.9087535 1.0714697
000030 e3 af 66 3f 10 b5 7e 3f ab 28 80 3f 66 7e 6c 3f
       0.9011213 0.9949503 1.0012411 0.9238037
000040 fd 8f 71 3f 67 9f 74 3f 7d 9b 7d 3f 3f 63 83 3f
       0.94360334 0.9555573 0.9906538 1.0264663
000050 66 23 77 3f 26 da 81 3f 8f 22 82 3f a2 df 75 3f
       0.9653839 1.0144699 1.0166796 0.9604436
000060 b8 ee 73 3f ae 96 76 3f c9 9e 65 3f 14 6f 5c 3f
       0.9528613 0.9632367 0.8969541 0.8610699
000070 25 62 76 3f e8 ac 7d 3f 98 50 6b 3f e2 b5 87 3f
       0.96243507 0.9909196 0.9191985 1.0602381
000080 ac 14 68 3f 06 08 6e 3f 4c c1 84 3f 15 da 79 3f
       0.9065654 0.9298099 1.037149 0.9759839
000090 e0 c3 6b 3f c9 93 78 3f 53 05 65 3f e2 d7 72 3f
       0.92095757 0.971005 0.8946125 0.9486066
0000a0 e7 1c 5c 3f 8b 5e 78 3f e7 26 81 3f 78 51 6a 3f
       0.859816 0.9701926 1.0089997 0.9153056
0000b0 3e d1 5a 3f 9e c8 6c 3f 90 6f 72 3f fa 28 81 3f
       0.8547553 0.9249362 0.9470148 1.009063
0000c0 1e 76 84 3f 9a 2c 7c 3f 8b db 76 3f d2 da 8e 3f
       1.0348547 0.98505557 0.96428746 1.1160529
0000d0 cc 9f 67 3f ce 2c 6d 3f 67 64 6d 3f 8b 10 77 3f
       0.90478206 0.9264649 0.92731327 0.9650962
0000e0 b4 1c 8a 3f 42 27 7d 3f ff 44 74 3f 18 0f 68 3f
       1.079001 0.9888803 0.9541778 0.9064803
0000f0 63 ed 7c 3f 3e e0 80 3f 36 f1 73 3f d8 17 7b 3f
       0.98799723 1.0068433 0.95289934 0.9808326

features.6.bias f4 [64]
000000 14 07 59 be e6 23 8a be cc 1a ca bd bb b3 22 be
       -0.21194106 -0.26980513 -0.09868392 -0.15888874
000010 ff 1d 36 be 20 fa 81 be 2e 56 d2 bd b7 bf 2b be
       -0.1778488 -0.25386143 -0.10270344 -0.16772352
000020 9a 3f a2 be fb 32 70 be fe 17 91 be 7d 7b 1e bd
       -0.3168915 -0.23456948 -0.28338617 -0.038691986
000030 8d 7f 8e be 05 a1 da bd cc 66 55 be bd 9c c8 bd
       -0.2783169 -0.10675243 -0.20839995 -0.097955205
000040 da b1 9c bd e4 89 81 be 7e 45 81 be 60 a5 7e be
       -0.0765111 -0.25300515 -0.2524833 -0.24867773
000050 2d 29 42 be 09 c1 9f bd be d2 69 be 28 96 12 be
       -0.1896102 -0.078004904 -0.22834298 -0.14315093
000060 7b dd 92 be 24 68 87 be 3c 13 40 be 37 46 83 be
       -0.286846 -0.2644664 -0.18757337 -0.25639507
000070 04 72 e6 bd 55 07 52 be 96 fc 9e be 05 ee c6 bd
       -0.112522155 -0.2051061 -0.31052083 -0.097133674
000080 0b 65 56 be 3b 49 09 be 59 95 79 be 30 96 e1 bd
       -0.20936982 -0.13406841 -0.24373378 -0.11014974
000090 eb c1 19 be e2 cb ba bd ec 00 85 be d2 cc aa be
       -0.1501538 -0.09120919 -0.25977266 -0.3335939
0000a0 23 e5 4a be 4a 96 89 be a0 14 c0 bd d1 46 a6 be
       -0.19813971 -0.26872474 -0.09378934 -0.32475904
0000b0 5d cf a2 be 41 84 83 be ca b1 98 be d3 ef fd bd
       -0.3179883 -0.2568684 -0.29823142 -0.123992585
0000c0 59 f2 33 be 2a 91 88 be 97 88 8a be 32 67 71 be
       -0.17572917 -0.2667325 -0.27057335 -0.23574522
0000d0 d9 5e 32 be a8 0b 3c be 58 5d 27 be bd c7 2a be
       -0.17418994 -0.18363822 -0.16344202 -0.16677757
0000e0 1a 9d 2c be c5 cf 3f be 7a 58 0e be 67 08 0c be
       -0.16856804 -0.18731602 -0.13900939 -0.1367508
0000f0 89 67 01 be 00 5a 50 be ab f7 3a be ff a3 62 be
       -0.12637152 -0.20346832 -0.1825854 -0.22132872

features.6.running_mean f4 [64]
000000 67 2d 10 bf c0 c2 48 bf c4 7b 34 bf f7 0f 2d bf
       -0.5631928 -0.78422165 -0.7050135 -0.67602485
000010 d5 59 8e bf 93 44 6f bf dd ff 62 bf b7 48 11 bf
       -1.1121165 -0.9346401 -0.88671666 -0.5675158
000020 1a 57 4d bf 61 aa 53 bf d6 14 63 bf 82 66 02 bf
       -0.8021103 -0.8268185 -0.8870367 -0.50937665
000030 d9 99 0c bf b1 3e 47 bf b3 aa 48 bf 20 72 15 bf
       -0.5492225 -0.77830034 -0.78385466 -0.58377266
000040 16 38 3d bf 13 79 ad bf b5 a8 37 bf 79 61 e1 bf
       -0.73913705 -1.3552574 -0.717418 -1.7607871
000050 b6 d4 89 bf a8 d1 37 bf e5 0f 39 bf 86 0c 26 bf
       -1.0768039 -0.71804285 -0.7228988 -0.6486286
000060 a4 cd e7 bf ae d8 2a bf 05 0b 45 bf 71 e3 e8 3e
       -1.8109632 -0.66736877 -0.7696994 0.45486024
000070 3f cb c2 bf dc 85 73 bf 0d 14 64 bf d6 84 e0 be
       -1.5218276 -0.9512613 -0.89093095 -0.43851346
000080 b2 13 12 bf 68 39 22 bf 56 ae 4e bf ed b7 f6 3e
       -0.570613 -0.63368845 -0.80734766 0.481872
000090 e7 67 e3 be d6 d9 af bf 1b 0a 08 bf 5f 0e 82 bf
       -0.4441521 -1.3738353 -0.5314042 -1.0160636
0000a0 4e 6d 11 bf 38 a6 85 bf 0c 39 88 bf 1b 43 6b be
       -0.5680741 -1.0441351 -1.0642409 -0.22974817
0000b0 84 46 e4 be a9 7f 26 bf e9 45 5b bf 28 14 95 bf
       -0.4458505 -0.65038544 -0.8565355 -1.1646776
0000c0 51 2f 2d bf fc 7e 3f bf 6e f6 87 bf f5 60 11 bf
       -0.67650324 -0.7480314 -1.0622079 -0.5678857
0000d0 bf 55 21 bf 8d 13 21 bf 5a 39 57 bf ea 42 5b bf
       -0.63021463 -0.6292046 -0.84071887 -0.8564898
0000e0 0f 5e 29 bf df 08 41 bf 3a 23 2c bf d6 11 39 bf
       -0.6615915 -0.7540416 -0.6724125 -0.7229284
0000f0 d2 b9 1b bf 34 e3 3d bf da b7 05 bf 12 7d 96 bf
       -0.60830414 -0.7417481 -0.5223366 -1.1756918

features.6.running_var f4 [64]
000000 c8 84 66 3f 40 02 70 3f 1c 4c 96 3f 5a 1d 3a 3f
       0.9004636 0.93753433 1.1741977 0.72701037
000010 e1 e2 d7 3f 83 50 8a 3f 98 02 b8 3f 07 1f 88 3f
       1.6866113 1.080582 1.4375792 1.0634469
000020 a3 42 b3 3f c2 d2 81 3f 36 38 a2 3f cc a4 79 3f
       1.4004711 1.0142443 1.2673404 0.97517085
000030 38 81 50 3f 04 99 c6 3f d4 01 6e 3f 9a f0 63 3f
       0.8144717 1.5515447 0.9297154 0.89039004
000040 f0 8f 9b 3f 01 06 0c 40 09 21 4b 3f ad 15 0e 40
       1.2153301 2.1878664 0.7934728 2.220073
000050 62 f8 b6 3f 51 e5 a6 3f 4c a3 73 3f bf 2c 72 3f
       1.429455 1.3038732 0.95171046 0.9459953
000060 7b 1a 12 40 2c 61 7a 3f 6e d5 97 3f c8 c5 5e 3f
       2.2828662 0.9780452 1.1862009 0.8702054
000070 2e b7 e0 3f d2 95 a6 3f 82 43 b8 3f a8 42 95 3f
       1.7555902 1.3014472 1.4395602 1.1660967
000080 ff 91 66 3f 7d b1 5a 3f b7 81 7c 3f da 29 8c 3f
       0.9006652 0.85427076 0.9863543 1.0950272
000090 42 45 67 3f 19 f5 c1 3f 95 56 4a 3f 46 7e c0 3f
       0.90340054 1.5152923 0.79038364 1.5038536
0000a0 e5 af 7c 3f 7f b3 b1 3f 71 02 b6 3f 6e 4c 74 3f
       0.98705894 1.3882903 1.4219495 0.9542912
0000b0 0c a8 71 3f 07 47 8b 3f 8a eb 73 3f f0 e4 cf 3f
       0.94397044 1.0881051 0.9528128 1.6241741
0000c0 2d 92 ab 3f 7f 5d 88 3f ae 67 b6 3f ac 99 7f 3f
       1.3403984 1.0653533 1.425039 0.9984386
0000d0 74 e7 50 3f 89 0d 82 3f 09 e7 55 3f ab ad c5 3f
       0.8160317 1.0160381 0.83555657 1.5443624
0000e0 45 b0 6f 3f f8 d8 60 3f 1f 44 94 3f 88 b5 57 3f
       0.9362834 0.8783107 1.1583289 0.8426137
0000f0 be c0 84 3f d4 fb 83 3f 6a b9 5a 3f 9c b8 b1 3f
       1.037132 1.0311227 0.8543917 1.3884463

features.10.weight f4 [128, 64, 3]
000000 53 c6 ba bc 4c 47 a6 bd 4a 89 db bd da b5 b0 3d
       -0.022799646 -0.081190675 -0.10719545 0.086284354
000010 66 3d 2f 3e 13 f0 ad 3c 2c 59 f4 bd 30 4c 5b be
       0.17113265 0.02123264 -0.11931071 -0.21415782
000020 29 21 24 be 03 a5 02 3c 35 02 3b 3d 2d 5d 35 bb
       -0.16028275 0.007973912 0.0456564 -0.0027673945
000030 12 2f 8e bc 9d 1c 17 3e 34 cf d7 3d 50 3c 08 bc
       -0.01735643 0.14757009 0.10537568 -0.008315161
000040 37 a2 a4 bb b7 8f 88 bc 54 7a 35 bd e4 bf 83 3c
       -0.0050242203 -0.016670091 -0.044306114 0.016082712
000050 a5 8f 72 bd 35 da cc bc 57 2c 6f 3d b1 0b 52 3d
       -0.05921902 -0.025006393 0.058391895 0.05128068
000060 62 b1 51 3c d2 2b 84 bc 6d a4 8a 3d 5c 17 9b 3d
       0.012798639 -0.016134176 0.06769643 0.07572815
000070 ae 53 09 be 40 f9 90 bc 69 5c c4 bd 2d 05 4b 3d
       -0.13410828 -0.017696977 -0.09587938 0.049565483
000080 4c 85 00 bd d9 5a f4 bd 90 71 1f be b9 09 96 bd
       -0.03137712 -0.1193139 -0.15570664 -0.07326073
000090 e6 60 b8 3c 9b bd 7c bd d7 d0 f0 bc 6b fd fe bd
       0.022507142 -0.06170426 -0.029396458 -0.124506794
0000a0 cf 55 39 be bb 65 61 be 01 1a 21 3d 59 ed 04 3e
       -0.1809914 -0.22011463 0.03933144 0.12981166
0000b0 a1 e3 8b bd 58 63 18 be ce 49 6f bd a1 df 27 bc
       -0.06830526 -0.14881647 -0.058419995 -0.010246188
0000c0 01 96 c0 bd f9 d2 21 bd 13 01 0a be 8c 86 89 3d
       -0.09403611 -0.03950784 -0.13476972 0.06715116
0000d0 53 8b 21 3e 77 8b 3b 3e fd 84 6e bc 5f bf 9b bd
       0.15775804 0.1831492 -0.014558074 -0.076048605
0000e0 74 f2 0e bd 07 a4 04 3e cd b9 e7 3d e7 76 13 3e
       -0.03489919 0.12953196 0.113147356 0.14400826
0000f0 62 b5 51 3d 1e 30 2b bc ee f6 0b 3e 6e 51 2e bd
       0.05119837 -0.010448484 0.13668415 -0.042558126
000100 82 42 86 bd a6 5f d1 bd a6 81 86 bc b9 95 78 bd
       -0.06555654 -0.102233216 -0.016419243 -0.06068966
000110 c5 b0 4f bc fe fd c2 bd 3b 39 a2 bd 6f 9c b3 bd
       -0.0126764225 -0.095211014 -0.07921072 -0.08770072
000120 3b 27 59 bd 21 77 89 3d 7c fd e8 3d 4b 26 60 bd
       -0.05301593 0.06712175 0.11376473 -0.05472402
000130 8e b1 04 be 71 6f d2 bd e6 37 03 be 20 bb 3a bd
       -0.12958357 -0.10275162 -0.12814292 -0.045588613
000140 ed 44 d3 bc 20 5d 6b 3d 8d 8f aa 3c 34 af 89 3d
       -0.025789702 0.057461858 0.020820403 0.067228705
000150 d9 c5 3b bd 47 13 07 3d f3 be 8e 3c 83 a0 66 bd
       -0.04584298 0.03297737 0.017425036 -0.05630542
000160 66 07 04 3c cc e0 bf bc fc 51 26 bc 37 1a f4 3c
       0.008058405 -0.023422621 -0.010151383 0.029797656
000170 7e fc 0c 3d 2e f7 1d 3e 0e bd 12 3d 55 0d ad 3d
       0.034420483 0.15426323 0.035824828 0.084498085
000180 ed d7 23 bd 00 7d 27 bd 95 3c 3a bd 71 b9 dc bd
       -0.040000845 -0.040890694 -0.04546793 -0.10777558
000190 af 2c 82 bd b5 a2 50 bc f0 3f 4a bb cc bb df 3d
       -0.06356179 -0.012734105 -0.0030860864 0.10924491
0001a0 50 16 92 3c 2a 5e 09 be 74 ec 2d be 65 0b 11 be
       0.017832905 -0.13414827 -0.16984731 -0.14164503
0001b0 65 87 ad bd 73 14 a3 bd 86 d8 2b bd e2 0d 96 bd
       -0.0847309 -0.07962885 -0.04195454 -0.07326867
0001c0 8b 9d 11 bc 2a 6a 1f 3d b0 e3 2e bc 52 ee e3 3d
       -0.008887659 0.038919605 -0.010674402 0.1112944
0001d0 6b 5e 86 bd f7 5d 09 3e 14 07 2f ba 14 e5 a9 3d
       -0.065609775 0.13414751 -0.0006676775 0.08295646
0001e0 b3 b2 43 bd d4 40 ae bd 63 ce de bd ba 76 2b 3e
       -0.047777843 -0.08508459 -0.10879209 0.1674451
0001f0 64 a8 2f bb 5e 3f ce bd 03 cc 97 bd 5f cb 83 bd
       -0.002680325 -0.1007068 -0.07411959 -0.06435274
000200 e1 dc 17 bd 93 fa 9e 3c 25 3f 6a 3d 57 70 81 3a
       -0.03707588 0.019406592 0.057189126 0.0009875399
000210 5d 73 22 3b ec 00 ed bc 97 b2 44 bd e9 54 3e 3d
       0.0024788 -0.028931104 -0.04802188 0.046467695
000220 bc e5 2c 3c a8 0d 93 bb da c3 94 bd 80 26 ea bd
       0.01055282 -0.004487712 -0.07263918 -0.114331245
000230 d2 65 16 bd e1 f1 f0 3c 52 3b 3a 3a 53 9b d7 3d
       -0.036718197 0.029412212 0.00071041763 0.105276726
000240 7f 1b 2c be 56 53 ea bd ea b7 25 be 9f 65 00 bd
       -0.16807364 -0.11441676 -0.16183439 -0.031346913
000250 a8 50 f3 bc a1 7e 97 bb 68 5c 98 bc 0c aa 4c 3d
       -0.029701546 -0.0046232496 -0.01859875 0.049966857
000260 d4 ab c5 3d 6a 45 f1 bc 5a 7c 00 bd 65 88 9c bc
       0.09651914 -0.029452045 -0.03136859 -0.019108007
000270 b2 f7 a2 3d 56 20 f2 bd 6c 7f 7a 3d 23 45 96 3c
       0.079574004 -0.11822574 0.061156675 0.018343514
000280 ee 02 38 bd f9 a2 27 bc e2 a9 ca bd 9a 84 61 bd
       -0.04492467 -0.010231727 -0.09895684 -0.0550581
000290 61 a7 72 bd ec 1e 76 bd 4a 34 5c 3c d4 6d 01 be
       -0.059241656 -0.060088083 0.013440201 -0.12639552
0002a0 eb a4 ec bd 58 ef e2 bd 22 d1 f3 bd 0d 54 83 bd
       -0.11554893 -0.110808074 -0.11905123 -0.06412516
0002b0 21 28 2d 3d 02 48 9e bd 42 5e 1f bd d4 9f a1 bd
       0.042274598 -0.07728578 -0.03890825 -0.07891813
0002c0 e3 ce 24 be 82 cf ea bd d5 d8 43 bd 20 0d f3 bc
       -0.16094546 -0.1146536 -0.04781421 -0.029669344
0002d0 1a 44 f1 3d 60 da 58 bc bd 3d c0 bb 37 01 39 bc
       0.117805675 -0.013235658 -0.005866735 -0.011291794
0002e0 01 23 06 bd ca 11 5d 3a 7b 83 c3 3c 71 41 80 3b
       -0.032748226 0.0008433132 0.023866406 0.003914051
0002f0 a7 6e e8 bd ec 69 42 bd 74 21 80 bd fd f3 48 bd
       -0.1134923 -0.047464296 -0.06256381 -0.04906081
000300 01 22 36 3c b2 a7 87 bd aa a7 ce 3c 95 0e da 3b
       0.011116506 -0.06623782 0.025226433 0.0066545703
000310 17 a2 3e 3d 05 cc 77 bd cc ba 00 3e 2c 4e 87 bd
       0.0465413 -0.060497303 0.12571257 -0.06606707
000320 b2 f6 fa 3d 88 73 0e bd 78 6f a6 bc 05 6a 62 bc
       0.12254085 -0.034778148 -0.020316824 -0.013819222
000330 cf 6a d7 bd ad 50 99 bd d3 ed 89 bd 02 ab 6b bc
       -0.10518419 -0.07486091 -0.067348145 -0.014384033
000340 a8 f3 a4 3c 4b f2 28 3d ed ee 4b bd e8 66 96 bb
       0.020135716 0.041246694 -0.049788404 -0.004589904
000350 a1 23 86 3d 57 e3 09 be 2d 3b 50 be 14 0c 13 be
       0.065497644 -0.1346563 -0.20335074 -0.14360076
000360 a4 7d 9e bd ab 49 ee bd 5d 6e 4f bc cb 02 1b bc
       -0.07738808 -0.11635145 -0.01266059 -0.009461115
000370 7e 2e 8c bc ea 90 dc bb 87 df 01 3d e3 bf 51 bd
       -0.017112013 -0.0067311423 0.031707313 -0.051208388
000380 95 60 1d 3c bd 90 ac bd af d1 c4 bd 95 9e 77 3b
       0.0096055465 -0.08426044 -0.096103065 0.0037783731
000390 8c 1c 50 3c 93 3b 09 3d c7 26 21 bd 49 1b 0b bc
       0.012702119 0.03350408 -0.03934362 -0.008490392
0003a0 6b 81 3f bd c3 b4 cd 3d fb e5 8f 3c 54 ea 48 3d
       -0.046754282 0.10044243 0.017565718 0.049051598
0003b0 17 cf 9a 3d d2 3b 3c bd ba 48 76 bc 2f 9a 86 bd
       0.075590305 -0.045955487 -0.015031988 -0.06572377
0003c0 6e d5 c7 3a 15 c8 1d 3c 0e ee 8a 3c b0 8c bf bd
       0.0015246102 0.009630223 0.016959216 -0.09353006
0003d0 86 57 fc bb 2e 81 d2 bc 96 b4 49 3d e3 d5 85 3d
       -0.0077008633 -0.025696363 0.049244486 0.06534936
0003e0 58 f4 87 3d 6b 69 03 bd 68 b6 f6 3d 39 10 06 3e
       0.06638402 -0.032082956 0.1204651 0.13092126
0003f0 4b 61 da bd 31 75 d1 bc 4b e8 0e bd 25 21 72 bc
       -0.106630884 -0.025568577 -0.0348895 -0.01477841

features.11.weight f4 [128]
000000 d9 dd 8c 3f f3 d4 89 3f 79 31 86 3f 77 c8 89 3f
       1.1005203 1.0768112 1.0483848 1.0764302
000010 35 ad 87 3f e4 db 87 3f 43 cf 8b 3f e6 f9 88 3f
       1.0599734 1.061398 1.0922626 1.0701263
000020 e3 21 84 3f d4 47 89 3f 82 84 92 3f 93 ab 87 3f
       1.0322841 1.0725045 1.1446688 1.0599235
000030 11 54 88 3f 9b c3 8a 3f fb 4e 89 3f d5 84 81 3f
       1.0650655 1.0840944 1.0727228 1.0118662
000040 46 6e 8b 3f f6 b2 81 3f 8f 29 8f 3f bb 7a 84 3f
       1.0893028 1.013274 1.1184558 1.0349954
000050 f6 5c 84 3f 5b 55 8b 3f ab 07 85 3f 35 ba 82 3f
       1.034087 1.0885423 1.0392965 1.0213076
000060 6e 87 88 3f 99 41 8a 3f 74 db 8c 3f 8a 1f 8e 3f
       1.066633 1.0801269 1.1004472 1.1103375
000070 64 fb 84 3f 88 4d 88 3f 48 dd 86 3f 55 6a 81 3f
       1.0389218 1.0648661 1.053628 1.0110575
000080 89 b1 8d 3f 81 fc 87 3f 14 0a 8d 3f a3 6b 7f 3f
       1.1069804 1.0623933 1.1018701 0.99773616
000090 a8 86 8a 3f ff 04 88 3f 55 0c 88 3f c0 4f 8b 3f
       1.0822344 1.0626525 1.0628763 1.0883713
0000a0 4e 03 8c 3f 4d 7e 81 3f be 61 85 3f 41 38 85 3f
       1.0938509 1.0116669 1.0420454 1.0407792
0000b0 cb a7 8b 3f d7 7d 85 3f 5a 7f 84 3f 86 62 8f 3f
       1.0910581 1.0429028 1.0351365 1.1201942
0000c0 ac 8b 88 3f 54 5b 89 3f 58 f2 87 3f b8 c8 8c 3f
       1.0667624 1.0730996 1.0620832 1.0998755
0000d0 e2 47 8c 3f a9 94 84 3f 0e 4f 88 3f 64 34 86 3f
       1.0959437 1.0357867 1.0649126 1.0484738
0000e0 29 c3 88 3f 19 07 88 3f 16 0c 89 3f 7a 3b 87 3f
       1.0684558 1.0627166 1.0706813 1.0565026
0000f0 07 f6 88 3f 85 8a 8a 3f d9 3b 72 3f de 9a 92 3f
       1.0700082 1.0823523 0.9462257 1.1453512
000100 98 2d 83 3f 27 c0 87 3f e8 30 7f 3f 12 6f 8c 3f
       1.0248289 1.0605515 0.99684 1.0971396
000110 4e 07 86 3f 2a cd 8a 3f e7 3f 8d 3f e4 58 8a 3f
       1.0470979 1.0843861 1.1035126 1.0808377
000120 18 64 8a 3f 80 7a 88 3f cf 2d 86 3f 48 dc 8b 3f
       1.0811796 1.0662384 1.048273 1.09266
000130 f3 a0 87 3f d6 53 87 3f f3 79 89 3f cd 20 90 3f
       1.0595993 1.057246 1.0740341 1.126001
000140 a7 7c 8b 3f c2 7a 89 3f ec 4a 8f 3f 51 d6 84 3f
       1.0897416 1.0740588 1.1194739 1.0377904
000150 2c 50 8a 3f 5d 87 8b 3f 01 58 89 3f 9a 4f 84 3f
       1.0805717 1.0900685 1.0729982 1.0336792
000160 9e bc 85 3f dc 60 88 3f 80 1b 8b 3f 5b 23 8d 3f
       1.0448186 1.0654559 1.0867767 1.1026415
000170 c8 df 87 3f 5d 2a 8d 3f ec bf 8b 3f 1f fa 88 3f
       1.0615168 1.1028553 1.0917945 1.0701331
000180 a6 3d 8a 3f 8b 20 88 3f a5 82 87 3f 21 ab 90 3f
       1.0800064 1.0634931 1.0586745 1.1302224
000190 7c 62 89 3f d8 4c 7e 3f 92 71 89 3f e3 49 87 3f
       1.073318 0.99336004 1.0737784 1.0569423
0001a0 31 e7 82 3f da 8b 85 3f 50 c5 8a 3f 0e ae 90 3f
       1.0226804 1.0433304 1.0841465 1.1303117
0001b0 b8 e7 87 3f d8 32 89 3f b0 51 83 3f 4c eb 86 3f
       1.061759 1.0718641 1.0259304 1.0540557
0001c0 e7 e6 84 3f 74 6e 87 3f 3c 4c 84 3f 38 bd 87 3f
       1.0382966 1.0580583 1.0335765 1.060462
0001d0 6a 78 89 3f f4 33 86 3f 60 50 8b 3f 44 db 84 3f
       1.0739872 1.0484605 1.0883904 1.0379415
0001e0 06 40 8b 3f c0 46 89 3f b7 8d 89 3f 18 d8 87 3f
       1.0878913 1.0724716 1.0746373 1.0612822
0001f0 df f9 88 3f 65 31 85 3f 0c 75 87 3f 06 b0 8b 3f
       1.0701255 1.0405699 1.0582595 1.0913093

features.11.bias f4 [128]
000000 56 5a a8 bb 67 d8 55 bd 39 cb 61 bd 4a 7a 19 bd
       -0.005137722 -0.05220833 -0.05512545 -0.03747014
000010 3b 91 78 bd 6f 57 44 bd 6a 47 bc bc 61 1a 13 3d
       -0.060685378 -0.047934946 -0.022983272 0.03591383
000020 5a a5 de bd 15 04 e1 bc 9d 18 32 bd eb 87 fc bc
       -0.10871382 -0.027467767 -0.043480504 -0.03082653
000030 de bd 8e bc 35 02 a5 bd 62 39 ea bc 65 46 e1 bd
       -0.01742452 -0.080570616 -0.028591815 -0.10999755
000040 91 f8 7a bd 8e ee a1 bd ea 0f a5 bc 6d 61 ce bc
       -0.061272208 -0.07906829 -0.02014919 -0.02519294
000050 57 a7 d4 bc de ef 87 bc a7 4b 58 bd bc 47 02 bd
       -0.0259587 -0.01659387 -0.052806523 -0.031806692
000060 b9 f2 66 3a 02 3a cc 3c 65 b8 68 bd c5 63 da ba
       0.0008809972 0.024930004 -0.056816477 -0.0016661814
000070 d3 5b 4b bc 65 a5 bf bc 43 0b 10 bc d2 18 c7 bc
       -0.012412029 -0.023394296 -0.0087917475 -0.024303827
000080 89 ed c2 bb c7 9d 12 bd e0 7f 26 bd 2d 22 e5 bd
       -0.0059487266 -0.035795 -0.040649295 -0.11188159
000090 e3 d3 62 bd 3a ae 38 bd 1b c6 ba bc e8 a5 19 3d
       -0.055377852 -0.04508803 -0.022799542 0.037511736
0000a0 20 62 aa bc f5 ce 34 bc 13 91 d8 bd 6e a8 56 bd
       -0.020798743 -0.0110356705 -0.10574546 -0.05240672
0000b0 1c 43 5c 3d 5d 93 73 bd 07 97 a5 bd 34 e9 eb 3a
       0.053774938 -0.05946671 -0.08085447 0.0017998577
0000c0 bd 79 77 bc 0e 02 30 bd 63 11 14 bd d2 1a 07 3d
       -0.015104708 -0.04297071 -0.036149394 0.032984562
0000d0 ca d9 d4 ba 0e 93 02 bd 95 ed 6c bd 12 be 0b bd
       -0.0016239223 -0.031878524 -0.057843763 -0.034116812
0000e0 cf 15 0b be 7c ae 77 bc 83 4f 83 bb 85 2a 09 bd
       -0.13582538 -0.015117284 -0.0040072813 -0.033487815
0000f0 b4 23 94 bd 45 90 a5 bd 46 c3 35 bd 54 eb ad bb
       -0.07233372 -0.08084158 -0.04437568 -0.0053075943
000100 f0 d8 a1 bd d7 cf 8b 3a 04 08 8d bd 9e d9 6a 3a
       -0.07902706 0.00106668 -0.068862945 0.0008958819
000110 20 0c 66 bc 34 2f 90 bc a9 20 9e bd 26 75 e8 bd
       -0.014040977 -0.017600633 -0.07721073 -0.11350469
000120 bd 11 28 bd 71 f5 bf 3c 4f be ac bd 64 16 7d 3c
       -0.04103254 0.023432465 -0.08434736 0.015447233
000130 6f 7a df bd ea 78 2e bd cb 25 3d bd b5 54 d7 bc
       -0.10912024 -0.04259578 -0.04617862 -0.026285509
000140 9a 70 c8 ba 33 53 95 bd e1 32 a2 3d 68 e3 72 bd
       -0.0015292347 -0.072912596 0.07919861 -0.059298903
000150 5f 01 22 3d 6d c3 8c bd a8 97 98 bd 74 c0 4c bd
       0.03955209 -0.06873212 -0.07450801 -0.049988225
000160 7c 6b 8c bc f5 b4 de bc b0 ef 06 3c ae 01 6d 3d
       -0.017141096 -0.027185896 0.008235857 0.05786293
000170 97 c6 b7 bd 1c 48 01 bd d1 0a ed bc 60 39 28 bd
       -0.08973425 -0.03156291 -0.028935822 -0.041070342
000180 d5 81 6a 3d db 47 80 3c a2 17 65 bd 53 7e f2 bc
       0.057252724 0.015659263 -0.05593074 -0.029601252
000190 fd ad 07 bd 72 6f 59 bd 2a bf 1c bd a3 35 c9 bd
       -0.033124913 -0.0530848 -0.038268246 -0.098246835
0001a0 c0 1f 93 bd 1b 5e a1 bd 5d e2 24 3d f8 8e 15 3c
       -0.0718379 -0.07879277 0.04025494 0.009128325
0001b0 00 6c 55 bd 21 88 03 bd 5c 81 6a bd 75 db 12 bd
       -0.05210495 -0.032112245 -0.057252273 -0.03585382
0001c0 ed 25 82 bd 0a 25 02 bd e0 18 6a bd 95 17 06 bb
       -0.0635489 -0.031773604 -0.05715263 -0.0020460833
0001d0 42 a0 a7 bc a8 ea 3c bd cf af 6d 3c 57 33 1f bd
       -0.020462159 -0.046122223 0.014507248 -0.03886732
0001e0 cc 05 34 bd 61 c1 1c bd 47 a8 81 bd fb cc a6 bc
       -0.04395084 -0.038270358 -0.063309245 -0.020361414
0001f0 08 fa 8b bd e1 0c 8d bd d7 20 00 bd cf 72 e9 3c
       -0.06834799 -0.06887222 -0.03128132 0.028497128

features.11.running_mean f4 [128]
000000 ff 04 dc bf db 9b f2 bf ae b7 c4 bf df 24 87 3e
       -1.7189025 -1.8953813 -1.5368555 0.26395318
000010 da c2 00 c0 91 37 c7 be 7f 5a 08 c0 ef 06 d5 3e
       -2.0118928 -0.3890958 -2.1305234 0.41606852
000020 2e 45 eb be 08 20 c8 bf 9b b4 86 bf 37 66 01 c0
       -0.45951217 -1.5634775 -1.0523866 -2.0218637
000030 d1 7f ff bf e4 a3 27 bf f3 cf fd bf a2 8b 06 c0
       -1.9960881 -0.6548445 -1.9829086 -2.1022725
000040 43 d6 c9 bf aa 9e bc bf 7e e5 7c 3f 3a cc 7e bf
       -1.5768512 -1.473592 0.9878768 -0.99530375
000050 6f 79 00 c0 33 40 75 bf 12 25 c8 bf 04 66 32 3f
       -2.0074117 -0.95801085 -1.5636313 0.69686913
000060 89 53 00 c0 69 2a 98 bf 4d 1a 01 c0 6c 10 06 bf
       -2.0050986 -1.1887943 -2.0172303 -0.5236881
000070 a4 e9 8e 3f 1b dd 00 c0 55 31 ae bf 1d ed 75 be
       1.1165051 -2.0134952 -1.3608805 -0.24016233
000080 d1 3d 12 c0 49 59 61 bf b3 7c 08 c0 7a d2 b3 bf
       -2.285023 -0.88026863 -2.132611 -1.4048607
000090 13 4b 2a c0 29 c3 ce bf 51 8f bf bf aa 04 d8 bf
       -2.6608322 -1.6153308 -1.4965612 -1.6876423
0000a0 44 22 dc bf 0b a4 ff bf 9c 87 bd bf 69 af e0 bf
       -1.7197957 -1.9971937 -1.480701 -1.7553531
0000b0 44 eb e7 bf a8 65 f8 bf bf e7 d5 3e 08 c9 e4 bf
       -1.8118672 -1.9406023 0.4177837 -1.787385
0000c0 e3 aa 38 3f 09 96 da 3e 00 17 77 bf 7b 7d c6 bf
       0.7213575 0.42692593 -0.9651947 -1.5507044
0000d0 23 69 b5 bf 20 0b 78 bf 34 b7 54 bf 26 62 75 be
       -1.417271 -0.96891975 -0.83092046 -0.23963222
0000e0 c0 53 b3 bf 21 2e 89 bd 06 bd cd 3f 30 b1 02 c0
       -1.4009933 -0.066982515 1.607331 -2.0420647
0000f0 bc 21 c6 bf 60 d3 dd bf 00 a2 94 bf 2b c4 4f be
       -1.5479045 -1.7330132 -1.1611938 -0.20289676
000100 02 05 a2 bf b8 a7 08 bf 20 03 29 bf 7d 00 e4 bf
       -1.2657778 -0.5338092 -0.66020393 -1.7812649
000110 ef ff 91 3e 94 15 1e c0 3c de 06 c0 60 e0 3d 3f
       0.28515574 -2.470067 -2.107314 0.74170494
000120 59 8a b2 bf c2 db 83 bf 2a a3 ac bf 60 62 f4 3e
       -1.394847 -1.030144 -1.3487294 0.47731304
000130 d8 73 1c bf a1 73 e3 bf 1f 4d 04 c0 cc f3 de bd
       -0.61114264 -1.7769662 -2.067207 -0.10886344
000140 6b a4 f4 bf 36 76 03 c0 da 46 b7 bf 00 04 05 c0
       -1.9112676 -2.05409 -1.4318497 -2.0783691
000150 bc a8 b0 3e 0a 58 84 bf 7a 97 de 3e 1a 2a eb bf
       0.34503734 -1.0339367 0.43474942 -1.8372223
000160 cf 72 9f bf da 63 fa bf 1f 28 5c bf 80 81 d6 bf
       -1.2456912 -1.9561722 -0.8599872 -1.675827
000170 27 ba 40 3f 15 78 f5 bb 64 a5 01 c0 45 cc 01 c0
       0.75284046 -0.0074911215 -2.0257196 -2.0280926
000180 58 9e f1 bf 62 0d 04 c0 51 2f e4 bf 0a c7 0d be
       -1.8876448 -2.0633168 -1.782694 -0.13845459
000190 8a b8 ea 3e b3 81 ca bf 7d 38 ff bf 3b 5f 89 bf
       0.45843917 -1.5820831 -1.9939114 -1.0732187
0001a0 53 ab 8f be 1e 83 f5 3e 68 bb 9e bf 54 44 01 3e
       -0.28060398 0.47951597 -1.2400942 0.12623721
0001b0 bf 03 cf 3f 2e 95 5d bf 0b 18 cd 3e 76 4a a2 bf
       1.6173018 -0.86555755 0.40057406 -1.2678974
0001c0 35 ec b6 3f d8 c4 5e bf 1d 42 56 3e 2c 12 06 bf
       1.4290835 -0.8701911 0.20923658 -0.5237148
0001d0 cd c1 82 bf 33 c2 08 bf e6 9b 2f bf c5 98 80 bf
       -1.0215393 -0.53421324 -0.6859726 -1.0046622
0001e0 94 a7 0d c0 f0 68 2f be 26 76 08 c0 73 d9 33 3f
       -2.2133532 -0.17129874 -2.1322112 0.70253676
0001f0 ff 77 47 3f d7 07 d1 bf 9f 9e b9 bf 9d 12 c4 bf
       0.77917475 -1.6330518 -1.4501532 -1.531818

features.11.running_var f4 [128]
000000 68 b4 64 3f d2 ab 7d 3f 77 4f b0 3f e3 ed 8d 3f
       0.8933778 0.990903 1.3774251 1.1088222
000010 17 41 8f 3f 9a 00 83 3f cf 39 5a 3f 9c 32 9c 3f
       1.1191739 1.0234559 0.8524446 1.2202945
000020 49 11 62 3f 76 ca 50 3f a3 ef 86 3f 6d 6c 9f 3f
       0.88307625 0.8155893 1.0541881 1.2454964
000030 b3 bd 85 3f 93 c0 8f 3f cb 59 c2 3f 64 37 66 3f
       1.0448517 1.1230644 1.5183653 0.8992827
000040 2b 38 5a 3f 3c df 4e 3f 46 3e 74 3f dc 51 7c 3f
       0.85241956 0.8080938 0.9540752 0.9856241
000050 43 7a 68 3f ca 07 aa 3f f7 3e ac 3f af 2c a5 3f
       0.90811557 1.3283627 1.3456715 1.2904261
000060 c1 54 83 3f c0 3a a3 3f 1f c9 a4 3f a0 08 11 3f
       1.026024 1.2752304 1.2873877 0.56653786
000070 ca 02 60 3f 1f 64 a6 3f c1 7f 8d 3f 8a 5b 88 3f
       0.87504256 1.2999305 1.1054612 1.0652936
000080 b9 03 64 3f 93 ab 97 3f dd c5 b7 3f 5b 96 81 3f
       0.8906818 1.1849235 1.4357258 1.012401
000090 93 2f a0 3f cf f7 47 3f e2 df 82 3f a1 46 d2 3f
       1.2514518 0.781125 1.0224574 1.6427804
0000a0 13 74 61 3f cd 58 99 3f 06 0f 9b 3f 3a a6 58 3f
       0.8806774 1.1980225 1.211396 0.8462864
0000b0 14 87 67 3f d7 8b 8a 3f 98 84 25 3f 7d 7f 87 3f
       0.9044049 1.0823926 0.64655447 1.0585781
0000c0 67 c3 97 3f 0f bc c7 3f 3d de a2 3f a6 d1 cb 3f
       1.1856507 1.5604266 1.2724072 1.5923355
0000d0 43 de 71 3f 4c 5b 81 3f 44 2e 8e 3f f5 3a b1 3f
       0.9447977 1.0105987 1.1107869 1.3846117
0000e0 b8 52 3b 3f 6d 0f 8e 3f 04 d1 90 3f 55 c3 83 3f
       0.73173094 1.1098458 1.1313787 1.0293986
0000f0 9f 11 54 3f 2e f7 64 3f f2 86 86 3f d9 d2 80 3f
       0.8283939 0.89439666 1.0509932 1.0064346
000100 e0 09 37 3f 6b f3 a3 3f ea 2d 78 3f 21 f2 94 3f
       0.71499443 1.280866 0.9694506 1.1636392
000110 c8 90 a6 3f d3 cb 84 3f 7a 4d 5a 3f e6 e1 83 3f
       1.3012934 1.0374702 0.8527447 1.0303314
000120 90 f2 a5 3f 39 17 f3 3f d8 b5 7e 3f 84 a4 b6 3f
       1.2964649 1.8991462 0.9949622 1.4268956
000130 f2 74 4e 3f e2 ee 58 3f 89 d5 8f 3f e7 49 6a 3f
       0.80647194 0.84739506 1.1237041 0.91519016
000140 d8 e2 6c 3f 1b 6d 80 3f ed 0e f4 3f db 2d 25 3f
       0.92533636 1.0033296 1.9067055 0.64523095
000150 6b 47 d1 3f ec f5 6b 3f 3b c5 8a 3f 15 dc 55 3f
       1.634992 0.9217212 1.084144 0.83538944
000160 00 0e 83 3f f2 4b 7f 3f 14 0a 7e 3f 6c f3 d1 3f
       1.0238647 0.9972526 0.9923413 1.6402411
000170 7d 9f 30 3f 06 39 7c 3f 98 e8 48 3f 60 b3 77 3f
       0.6899336 0.9852451 0.7847991 0.9675808
000180 55 f8 8d 3f 26 eb e0 3f c8 d6 96 3f 1b 9d 97 3f
       1.109141 1.7571762 1.1784296 1.184482
000190 c5 9c ae 3f 14 6c 73 3f 0f 89 8b 3f 12 60 5f 3f
       1.3641592 0.9508679 1.0901202 0.87255967
0001a0 a9 1b 5d 3f 1f 77 82 3f af 75 da 3f 5d b0 52 3f
       0.8637033 1.0192603 1.7067164 0.8230036
0001b0 93 9e 86 3f c0 76 8d 3f 90 e2 ad 3f 64 5a 8c 3f
       1.0517143 1.1051865 1.3584766 1.0965085
0001c0 73 44 9d 3f 63 c6 b6 3f aa be 9c 3f a2 8e 87 3f
       1.2286514 1.4279293 1.2245686 1.0590403
0001d0 7f 0c 8a 3f 90 0d a1 3f 20 ec 8c 3f 25 15 85 3f
       1.0785064 1.2582264 1.100956 1.0397078
0001e0 a5 81 5e 3f 41 f7 63 3f 73 9c 37 3f c4 98 a5 3f
       0.8691657 0.89049155 0.717231 1.2937245
0001f0 51 22 9b 3f 98 66 9d 3f 84 e6 62 3f af 37 cc 3f
       1.2119848 1.2296934 0.8863299 1.5954493
