artifacts/model_resnet_fold_4.pth (torch, 472227 bytes, 47 tensors)

stem.0.weight f4 [32, 8, 5]
0	0xbdbf917b	-0.0935392
1	0x3e339248	0.1753627
2	0x3d40c294	0.047060564
3	0xbe913c4c	-0.28366315
4	0x3dcab018	0.098968685
5	0x3c1f3531	0.009717272
6	0xbd9d5e1d	-0.07683966
7	0xbcb65e0b	-0.02226164
8	0x3c97ddf1	0.018538447
9	0x3df5cc0e	0.12001811
10	0x3db3b85b	0.087753974
11	0x3e0d423a	0.13794795
12	0x3e291eba	0.16515628
13	0x3d8aca92	0.067769185
14	0x3e167b8b	0.14695565
15	0x3e030aca	0.12797084
16	0x3de7b967	0.113146596
17	0x3e2ed7bc	0.17074484
18	0x3dca84a9	0.09888584
19	0x3dd3b6f4	0.1033763
20	0xb9ff758e	-0.00048724975
21	0xbdcf670b	-0.10127076
22	0xbdf3b5f6	-0.11899941
23	0x3d07a387	0.033114936
24	0x3c917680	0.0177567
25	0x3d872931	0.065996535
26	0x3ba29eb2	0.0049627656
27	0xbc551fb7	-0.01300805
28	0xbd6a8fbc	-0.057265982
29	0xbdf0ccce	-0.117578134
30	0xbe1e4734	-0.1545685
31	0xbdd5c7db	-0.1043851
32	0xbc0d261c	-0.008615043
33	0x3c7f4982	0.0155814905
34	0xbd6af850	-0.057365716
35	0xbe1f1e4c	-0.15538901
36	0xbe2eb505	-0.17061241
37	0x3e550931	0.20804287
38	0xbe3d9d52	-0.18517044
39	0xbddb543d	-0.107094266
40	0xbd458bcc	-0.048229024
41	0xbc4e6f4d	-0.012599778
42	0xbd821a6e	-0.06352697
43	0x3d7aac15	0.061199266
44	0xbd2fad2b	-0.042889755
45	0x3cad0c27	0.021123959
46	0x3d74db8e	0.059779696
47	0xbd09a260	-0.03360212
48	0x3d1bc3ad	0.038028408
49	0x3c684530	0.014176652
50	0xbc98cd5b	-0.018652609
51	0xbdc71e3e	-0.09722565
52	0x3d66ee4e	0.05637961
53	0x3ccad0c1	0.024757745
54	0xbd39bf82	-0.04534865
55	0xbd08dc3a	-0.03341315
56	0x3c39247d	0.011300203
57	0x3d27538e	0.04085117
58	0xbd4eacbc	-0.0504577
59	0xbd594e75	-0.053053338
60	0xbd1b3e8e	-0.037901454
61	0x3da81f37	0.08209079
62	0xbd0be0f4	-0.03415008
63	0xbd0dd8d8	-0.034630626
64	0x3d7d3bc2	0.061824568
65	0x3cf55c64	0.029951282
66	0xbe10b5da	-0.14131871
67	0x3ddab92d	0.10679851
68	0x3e72732c	0.23676747
69	0xbe27e535	-0.1639603
70	0x3e93c69a	0.28862458
71	0x3e3d865d	0.18508287
72	0xbeb15f24	-0.346429
73	0xbe1c92bd	-0.15290351
74	0x3eb9e5ca	0.36308128
75	0xbb3acb97	-0.0028502697
76	0xbd833d8a	-0.06408222
77	0x3e4594ef	0.19295095
78	0xbe0a2633	-0.13491134
79	0x3b312a5f	0.0027033312
80	0xbe873d5b	-0.26413998
81	0x3e00f332	0.12592772
82	0x3e366ed3	0.17815714
83	0xbe0442ce	-0.12916109
84	0xbc797af0	-0.0152270645
85	0x3eb01dff	0.34397885
86	0xbea7a4b6	-0.32742852
87	0xbdd0bb78	-0.10192007
88	0x3e18d3e0	0.14924574
89	0xbd672d2e	-0.05643957
90	0x3d26af78	0.040694684
91	0xbc8a3aab	-0.016873678
92	0xbdc9945f	-0.09842753
93	0x3bd79bbe	0.006579845
94	0xbde1b39a	-0.110205844
95	0xbb71e55e	-0.0036910395
96	0x3ae6827a	0.0017586492
97	0x3e06cd37	0.13164221
98	0x3d79a269	0.060945902
99	0x3da4b33a	0.08041997
100	0x3d3bbe4f	0.04583579
101	0x3cf2ba84	0.029629953
102	0xbd80c97c	-0.0628843
103	0x3d948032	0.07251014
104	0xbc64c3ea	-0.013962725
105	0xbc7793bf	-0.015110909
106	0xbd3e4a38	-0.0464575
107	0xbc9da3e3	-0.019243186
108	0xbd1bdb77	-0.038051095
109	0xbdae3cc4	-0.08507684
110	0x3e0dfdf8	0.13866413
111	0xbde551a7	-0.111972146
112	0x3d88b880	0.066758156
113	0x3ace1a54	0.0015724399
114	0x3e12e6b8	0.14345825
115	0xbe278aa1	-0.16361476
116	0x3e4d8220	0.2006917
117	0x3c220492	0.009888785
118	0xbe5599a1	-0.20859386
119	0x3e1407cf	0.14456104
120	0x3e094c08	0.1340791
121	0xbd930cd4	-0.07180181
122	0xbc461edb	-0.012092317
123	0x3e1cf94b	0.15329473
124	0xbddd073c	-0.107923955
125	0x3dd145e0	0.10218406
126	0xbe0c16df	-0.136806
127	0xbbf0755b	-0.0073382086
128	0xbd13cd21	-0.036084298
129	0xbd93b761	-0.07212711
130	0x3c3104ae	0.010804338
131	0xbe089958	-0.13339746
132	0xbdbf8550	-0.09351599
133	0xbdd01018	-0.1015932
134	0x3c8bc4af	0.01706156
135	0xbb8c3119	-0.004278314
136	0xbe20ce4c	-0.15703696
137	0xbe17268a	-0.14760795
138	0xbdaee223	-0.08539226
139	0xbd612ccb	-0.05497436
140	0xbc4a78e6	-0.012357926
141	0xbcd8f61b	-0.02648454
142	0xbd70c041	-0.058777098
143	0xbd7016d8	-0.058615535
144	0xbc954a25	-0.018223831
145	0xbc1836b5	-0.009290387
146	0xbce27ceb	-0.027647456
147	0x3df2c62e	0.11854206
148	0x3cd17713	0.025569474
149	0xb99601f6	-0.0002861169
150	0xbe71d5f1	-0.23616768
151	0x3e80c58a	0.2515071
152	0x3e1a95b4	0.1509617
153	0xbdcde566	-0.1005352
154	0x3d344caa	0.044018425
155	0xbe1ce19a	-0.15320435
156	0x3ea88ec4	0.32921422
157	0x3c8a435a	0.016877819
158	0x3e060de5	0.13091238
159	0x3e30e851	0.17276122
160	0x3b464385	0.0030252647
161	0x3acdc5af	0.0015699173
162	0xbe9056d7	-0.28191254
163	0x3e35909c	0.17730945
164	0x3df69bde	0.12041448
165	0x3d307133	0.043076705
166	0xbdcf7f8a	-0.10131748
167	0x3d7946be	0.06085848
168	0xbdc48051	-0.09594787
169	0x3d102537	0.03519174
170	0x3a2fe64c	0.0006710037
171	0x3cb01137	0.021492584
172	0xbc6b8b05	-0.014376407
173	0xbc0cdb7c	-0.008597251
174	0x3c5fac41	0.013651908
175	0xbd50a4c0	-0.050938368
176	0xbdfa8a85	-0.12233452
177	0x3dbc8679	0.09205336
178	0xbda00a8c	-0.07814512
179	0xbc0400d1	-0.008056835
180	0xbc1c9ac4	-0.009558383
181	0x3e558987	0.20853244
182	0xbda6e479	-0.081490465
183	0x3d33dc7c	0.043911442
184	0x3ca63e4f	0.020293383
185	0x3db1d3b5	0.08682958
186	0xbe3c8a25	-0.18412073
187	0x3d810e1d	0.0630152
188	0x3d957f35	0.072996534
189	0x3d291d1d	0.04128753
190	0xbe4b9a57	-0.19883095
191	0xbc6da698	-0.014505051
192	0xbce40876	-0.027836066
193	0xbcb0c96e	-0.021580424
194	0x3c674244	0.01411492
195	0xbe104023	-0.14086966
196	0x3ee384cf	0.44437262
197	0x3e5b3c62	0.21409753
198	0xbe359864	-0.17733914
199	0xbe4a661f	-0.19765519
200	0xbe01131e	-0.12604949
201	0xbdfd5132	-0.123690024
202	0x3dd616f6	0.10453598
203	0x3dc32185	0.09527878
204	0x3df96873	0.12178125
205	0xbe601304	-0.21882254
206	0xbb98432a	-0.0046466785
207	0x3e14c007	0.14526378
208	0x3cc4b06d	0.024009908
209	0x3d9387fb	0.072036706
210	0x3e440fc2	0.19146636
211	0x3dabc4db	0.083871566
212	0xbe9f8152	-0.3115335
213	0xbd910c3b	-0.07082411
214	0x3e136af3	0.14396267
215	0x3e7744fc	0.24147409
216	0xbe4b7d75	-0.19872077
217	0xbdc938e2	-0.09825303
218	0x3d99df41	0.075132854
219	0xbe3520dc	-0.17688316
220	0xbdd07467	-0.10178452
221	0xbcfce6c7	-0.030871762
222	0x3de8289e	0.11335872
223	0x3cc61875	0.024181584
224	0x3d1db239	0.038500044
225	0xbe26959c	-0.16268009
226	0x3e085ab6	0.13315853
227	0xbddf964d	-0.109173395
228	0xbdeefb87	-0.11669069
229	0x3d1b8e67	0.037977602
230	0x3c79cff1	0.015247331
231	0xbe031b8b	-0.12803476
232	0x3d9d74b1	0.07688273
233	0xbcb20ab9	-0.021733629
234	0xbcb5c624	-0.022189207
235	0x3d3040d8	0.04303059
236	0x3e736af8	0.23771274
237	0x3e266ece	0.16253206
238	0x3d758320	0.059939504
239	0xbdee2c5a	-0.11629553
240	0xbda4ca6d	-0.08046422
241	0xbd4ae1c5	-0.049531717
242	0x3df6d453	0.120522164
243	0x3d754af1	0.059885923
244	0xbd3dcf05	-0.046340007
245	0x3d14546d	0.036213327
246	0xbdaa05da	-0.08301897
247	0x3df82954	0.12117258
248	0xbd967673	-0.07346811
249	0x3c78d8e2	0.015188428
250	0xbe25fe47	-0.1621028
251	0x3e679030	0.22613597
252	0xbd968988	-0.07350451
253	0xbdeb5f6b	-0.11492809
254	0x3e00a808	0.12564099
255	0x3e21d6eb	0.15804641

stem.1.weight f4 [32]
0	0x3f7a813c	0.97853446
1	0x3f87348a	1.0562909
2	0x3f87631d	1.0577122
3	0x3f88d83c	1.069099
4	0x3f8bdf25	1.0927473
5	0x3f85eb46	1.0462425
6	0x3f8c317f	1.0952605
7	0x3f82500e	1.0180681
8	0x3f8b5273	1.0884537
9	0x3f88617e	1.0654752
10	0x3f7f8824	0.9981711
11	0x3f889f95	1.06737
12	0x3f8235c9	1.0172664
13	0x3f820f97	1.0161008
14	0x3f810ae8	1.0081453
15	0x3f83e35c	1.030376
16	0x3f8be306	1.0928657
17	0x3f76068b	0.96103734
18	0x3f86fdf3	1.0546249
19	0x3f8142f9	1.0098563
20	0x3f854f8f	1.0414904
21	0x3f7d07e0	0.9884014
22	0x3f83a597	1.0284909
23	0x3f8855be	1.0651166
24	0x3f79cba3	0.9757635
25	0x3f744e0d	0.95431596
26	0x3f853ea2	1.0409739
27	0x3f8364f5	1.0265185
28	0x3f6f8258	0.93558264
29	0x3f7deca7	0.9918923
30	0x3f8e31f9	1.1109
31	0x3f867fc0	1.0507736

stem.1.bias f4 [32]
0	0x3e1dc776	0.1540812
1	0xbd15f64c	-0.03661184
2	0x3ca133dd	0.01967805
3	0xbb55e8b7	-0.003263993
4	0x3d9396c4	0.07206491
5	0xbcbf14e3	-0.02332539
6	0xbd9a766e	-0.0754212
7	0x3d6ffe39	0.058592055
8	0xbd67ba1b	-0.05657397
9	0xbd6a9779	-0.05727336
10	0x3d1835ce	0.037160687
11	0x3e102259	0.14075603
12	0xbdfe137c	-0.1240606
13	0x3e82df69	0.25561073
14	0x3df6d138	0.12051624
15	0x3d89d820	0.06730676
16	0xbe1cb6e0	-0.15304136
17	0xbcedd782	-0.029033426
18	0x3d826fa5	0.06368951
19	0x3d98b230	0.074558616
20	0x3dc5d1bc	0.09659144
21	0x3db1778a	0.086653784
22	0x3d9700de	0.07373212
23	0xbd907b1f	-0.070547335
24	0x3e02bcdf	0.12767361
25	0x3aba563b	0.0014216373
26	0xbd34f659	-0.044180248
27	0x3e6d9a38	0.23203361
28	0xbdad9acf	-0.08476793
29	0x3d21e8f3	0.0395288
30	0x3da45368	0.08023721
31	0xbb04cc0e	-0.0020263228

stem.1.running_mean f4 [32]
0	0xba9fe6ae	-0.0012199485
1	0xbc17d1d4	-0.0092663355
2	0xbb6ea4a1	-0.0036414044
3	0x3b939c48	0.004504714
4	0x3ad54f83	0.0016274307
5	0xbacc66fe	-0.0015594659
6	0xbb6067a2	-0.0034241457
7	0x3caf9240	0.021432042
8	0xbb1b8cc1	-0.002373502
9	0x3b84ef2c	0.004056832
10	0xbc016b73	-0.007899153
11	0x3b004099	0.0019569753
12	0x3c7409bf	0.014894902
13	0xbaf32125	-0.0018549307
14	0xbaf8f7f3	-0.0018994793
15	0x3a162379	0.0005727332
16	0xbb8a1a38	-0.0042145513
17	0xbc60d81a	-0.013723398
18	0xbcc29e9d	-0.023757273
19	0x3b58559f	0.0033010019
20	0xbc8b6661	-0.017016592
21	0x3c2f70b9	0.0107080275
22	0x3b0eed6c	0.0021808995
23	0x3aec7135	0.001803911
24	0x3c0eacf6	0.008708229
25	0x3a29df1c	0.0006480084
26	0x3bc55ce7	0.0060230377
27	0xba383467	-0.00070268515
28	0xbba98d58	-0.00517432
29	0x3c69bf30	0.014266774
30	0x3a84dc4e	0.0010136457
31	0x3a835aea	0.0010021601

stem.1.running_var f4 [32]
0	0x3eb256d7	0.3483188
1	0x3e3324a7	0.1749445
2	0x3e02d800	0.1277771
3	0x3e8ceaad	0.27522793
4	0x3e336fa8	0.17523062
5	0x3e51688c	0.20450038
6	0x3e1399e2	0.1441417
7	0x3eacb048	0.33728242
8	0x3e70997d	0.23496051
9	0x3e819326	0.25307578
10	0x3e128d04	0.14311606
11	0x3e7b76de	0.24557063
12	0x3efce292	0.4939161
13	0x3e4128fa	0.18863288
14	0x3e2c6f74	0.16839391
15	0x3de6146b	0.11234363
16	0x3e125dac	0.14293545
17	0x3f1a37f2	0.60241616
18	0x3ebc39a6	0.36762732
19	0x3da506a0	0.08057904
20	0x3eb154aa	0.34634906
21	0x3ecff32c	0.40615213
22	0x3e29199c	0.16513675
23	0x3e1950b0	0.14972186
24	0x3eb6c4ec	0.35697114
25	0x3f32e680	0.69882965
26	0x3ed93ae1	0.42427734
27	0x3e08d286	0.13361558
28	0x3f3825bd	0.71932584
29	0x3ea32768	0.31866002
30	0x3e8852e9	0.26625755
31	0x3ec3b731	0.382257

layer1.conv1.weight f4 [32, 32, 3]
0	0x3dc18a18	0.094501674
1	0x3ddd3e88	0.108029425
2	0x3e192bd3	0.14958124
3	0xbe335996	-0.17514643
4	0xbdca80de	-0.09887861
5	0xbda05b13	-0.07829871
6	0xbcf04659	-0.02933042
7	0x3e386d3e	0.18010423
8	0x3df979a0	0.12181401
9	0x3c13e582	0.009026887
10	0x3daa62b8	0.0831961
11	0xbd52889c	-0.051399812
12	0x3d688aa3	0.05677284
13	0x3aa6bac7	0.0012720459
14	0xbdc9e0af	-0.09857308
15	0xbdfb3589	-0.122660704
16	0xbd36c674	-0.044622853
17	0xba98dfe1	-0.0011663401
18	0xbde69f92	-0.11260904
19	0xbce4b760	-0.027919471
20	0xbe35745a	-0.17720166
21	0x3b070a56	0.0020605526
22	0x3dfed3ef	0.12442767
23	0x3e6f68e6	0.2337986
24	0xbd7a09bc	-0.06104444
25	0xbde83590	-0.11338341
26	0xbdc02eb1	-0.09383906
27	0xbd628112	-0.055298872
28	0xbcb20000	-0.021728516
29	0xbe0130be	-0.1261625
30	0xbe125bfd	-0.14292903
31	0xbd8fec6e	-0.07027517
32	0xbd28f71a	-0.04125128
33	0x3d3d82dc	0.046267375
34	0xbcdfb097	-0.027305884
35	0x3d17477f	0.03693342
36	0x3d60b17c	0.054856762
37	0x3d9dc3a3	0.0770333
38	0xbd6c615b	-0.057710033
39	0xbe02b48d	-0.12764187
40	0x3ce9a5db	0.028521469
41	0xbd0ec569	-0.034856234
42	0x3db340ab	0.08752569
43	0x3d0f4ce2	0.03498543
44	0x3e38c3fc	0.18043512
45	0x3b75113e	0.003739431
46	0xbc7c294a	-0.015390703
47	0xbd9d809f	-0.07690548
48	0xbdd3a663	-0.1033447
49	0x3d06b535	0.032887656
50	0xbdb0d6d8	-0.08634728
51	0xbd603107	-0.054734256
52	0x3d49e1ba	0.049287535
53	0x3db49e03	0.08819201
54	0x3dc740ac	0.09729132
55	0x3e0698f2	0.13144282
56	0x3e414962	0.1887565
57	0xbc4cc23b	-0.01249748
58	0x3d4302a1	0.04760993
59	0x3d322fd3	0.04350264
60	0x3deb1ddf	0.11480307
61	0x3bc475ab	0.0059954724
62	0xbd942b72	-0.07234849
63	0xbe30d933	-0.17270355
64	0xbe15d87d	-0.14633365
65	0xbde63030	-0.1123966
66	0xbdc6f4e3	-0.09714677
67	0xbdd53381	-0.10410214
68	0xbd192ad5	-0.037394363
69	0xbde8a401	-0.11359406
70	0xba98ae67	-0.0011648656
71	0x3cb66515	0.022264997
72	0xbbe28420	-0.006912723
73	0xbb0d0762	-0.0021519293
74	0xbe17553b	-0.14778607
75	0x3cf425be	0.029803153
76	0x3cfa7977	0.030575497
77	0x3ca0181c	0.019542746
78	0xbe04af15	-0.12957413
79	0xbe25c8cc	-0.16189879
80	0xbd00fbc9	-0.03149012
81	0xbcd762f7	-0.026292307
82	0x3de006d2	0.10938801
83	0x3e3a88e6	0.18216285
84	0x3d8474bf	0.0646758
85	0x3dfdf99b	0.12401124
86	0x3d9861ff	0.07440566
87	0x3d43f507	0.0478411
88	0xbd88de14	-0.06682983
89	0xbd81539b	-0.063147746
90	0xbda8f11d	-0.08249114
91	0xbe071ea7	-0.13195287
92	0x3ca9e44e	0.020738747
93	0xbdd46651	-0.10371078
94	0xbe1b48b1	-0.15164448
95	0x3d8d203c	0.06890914
96	0x3d612913	0.054970812
97	0xbd7caa8f	-0.061686095
98	0xbb5ba695	-0.0033516039
99	0x3d263788	0.040580302
100	0xbd48c473	-0.049015474
101	0xbdc4bbb0	-0.09606111
102	0xbdfbd6b4	-0.12296811
103	0xbe178f71	-0.14800812
104	0xbe7b5d2f	-0.24547265
105	0xbd8ee616	-0.06977479
106	0xbdd94423	-0.10608699
107	0xbe5a8e50	-0.2134335
108	0xbd890822	-0.06691004
109	0xbd8da7da	-0.06916781
110	0xbdc040df	-0.09387373
111	0x3d8c5a86	0.068532035
112	0x3da5a9e4	0.08089045
113	0x3e11726d	0.14203806
114	0x3e492ebf	0.19646738
115	0x3e450dd9	0.19243564
116	0x3c960822	0.018314425
117	0x3e235329	0.15949692
118	0x3c77eddf	0.0151323965
119	0x3d096991	0.03354794
120	0x3d282751	0.04105312
121	0xbd2ab489	-0.041676078
122	0xbd46bddf	-0.04852092
123	0x3dc6613b	0.09686514
124	0x3def368c	0.11680326
125	0x3de751da	0.11294909
126	0x3d416bbf	0.047221895
127	0xbbfdfb87	-0.0077509317
128	0xbda52b1d	-0.08064864
129	0xbc84f7e9	-0.016231494
130	0xbda28805	-0.079361
131	0xbce31a65	-0.027722547
132	0x3c397642	0.011319699
133	0x3dae8ac7	0.085225634
134	0x3d6e5e9d	0.0581957
135	0x3d93079e	0.07179187
136	0x3c846ed2	0.016166124
137	0xbda241ad	-0.07922683
138	0xbcd95aee	-0.026532616
139	0xbdd0c6e9	-0.10194189
140	0xbcf7114f	-0.03015962
141	0xbcaaa770	-0.020831794
142	0x3e304027	0.17211972
143	0x3e1be52b	0.1522414
144	0x3da714ee	0.08158289
145	0xbe124407	-0.14283763
146	0xbe5fafea	-0.2184445
147	0xbd9e1def	-0.07720553
148	0xbd01fe3d	-0.0317366
149	0x3d723a74	0.059137776
150	0x3dd8965e	0.10575555
151	0x3db79785	0.08964447
152	0x3be050f1	0.0068455865
153	0x3d8afc8a	0.06786449
154	0xbdd7219e	-0.10504459
155	0xbdec24a0	-0.11530423
156	0x3dfefa72	0.124501124
157	0x3cf8f75f	0.030391393
158	0xbd598263	-0.053102862
159	0x3dc5d0b1	0.09658945
160	0x3dce16ba	0.100629285
161	0x3e0c29b6	0.13687786
162	0xbde106be	-0.10987614
163	0x3d56c31e	0.052432172
164	0xbdf2f9f9	-0.11864085
165	0xbc2408aa	-0.010011831
166	0xbd534f7e	-0.05158948
167	0xbd89c17c	-0.06726357
168	0xbcf046fe	-0.029330727
169	0xbd472384	-0.048617855
170	0xbdb52503	-0.0884495
171	0x3bf6885b	0.007523579
172	0xbdb585b6	-0.08863394
173	0x3c198901	0.009371043
174	0xbdceaa3c	-0.100910634
175	0x3d89c7ad	0.06727538
176	0x3d8fa153	0.07013192
177	0x3cd591db	0.026070526
178	0x3da73cff	0.08165931
179	0x3d31fd94	0.04345472
180	0x3d57d120	0.05268967
181	0x3db72b0a	0.08943756
182	0xbd04bbb8	-0.032405585
183	0xbde12249	-0.109928675
184	0xbd755605	-0.059896488
185	0xbcf808ba	-0.030277599
186	0x3e8de044	0.27710164
187	0x3d85f758	0.06541318
188	0xbdbb08fc	-0.09132573
189	0x3df5e03a	0.120056584
190	0x3e050e76	0.12993798
191	0x3dc2bfbc	0.09509227
192	0x3db50988	0.088397086
193	0x3c3d8778	0.011567943
194	0x3e424538	0.18971717
195	0xbdc8991a	-0.09794827
196	0xba28d4a1	-0.00064403756
197	0xbe029e1a	-0.12755623
198	0x3cde749a	0.02715521
199	0xbd09a6a4	-0.033606187
200	0xbdd4bf4e	-0.10388051
201	0xbcec701d	-0.028862054
202	0xbdcf8378	-0.101324975
203	0x3d35f7f6	0.044425927
204	0xbd54a68c	-0.051916644
205	0xbdca05de	-0.098644
206	0x3ca1e493	0.019762313
207	0xbdb8d174	-0.09024325
208	0xbd296d04	-0.04136373
209	0xbe163b3b	-0.14671032
210	0xbd8cd7a6	-0.06877069
211	0xbc80584a	-0.0156671
212	0xbda1119a	-0.07864685
213	0x3d9eab5e	0.077475294
214	0xbd002c7a	-0.031292416
215	0xbcaf1fe5	-0.021377513
216	0xbe175bf9	-0.14781179
217	0xbd72c031	-0.05926532
218	0xbd31b83a	-0.043388583
219	0x3d1fdc8f	0.0390287
220	0x3d804ee5	0.06265048
221	0xbc5ce046	-0.013481205
222	0x3ae3e7ce	0.0017387809
223	0x3bb4ece1	0.005521402
224	0x3d87b0a4	0.066254884
225	0xbc044d86	-0.008075124
226	0x3ddae8cc	0.10688934
227	0xbdbb55e2	-0.0914724
228	0xbdb4be06	-0.088253066
229	0xbddc442c	-0.1075519
230	0x3bfc346f	0.0076966803
231	0x3da10d1c	0.078638285
232	0xbde71316	-0.11282937
233	0x3bd6715d	0.0065442757
234	0x3da22196	0.07916562
235	0x3da1c214	0.078983456
236	0x3d2c9246	0.042131685
237	0x3c5e57b9	0.013570719
238	0x3d556e15	0.052106936
239	0x3c81f743	0.015864974
240	0xbd95e789	-0.073195525
241	0xbdeadfb3	-0.114684485
242	0xbe4d148c	-0.2002737
243	0xbe440cb5	-0.19145472
244	0xbe16bbab	-0.14720027
245	0xbe4fcf30	-0.2029388
246	0x3d5afd94	0.053464487
247	0x3da7bd32	0.08190383
248	0xbd16bcdd	-0.036801208
249	0x3dfc3236	0.123142645
250	0x3d3a3239	0.045458052
251	0x3ab74811	0.001398327
252	0x3dbeb40e	0.093116865
253	0x3d8edf28	0.069761574
254	0x3d963ba2	0.07335593
255	0x3d2959d1	0.04134542

layer1.bn1.weight f4 [32]
0	0x3f7f2f85	0.99681884
1	0x3f84f817	1.0388211
2	0x3f6847c2	0.90734494
3	0x3f6b3c60	0.91889
4	0x3f80ed17	1.0072354
5	0x3f85268d	1.040239
6	0x3f762de2	0.9616376
7	0x3f6f9e7d	0.9360121
8	0x3f6cee05	0.9255069
9	0x3f82c523	1.0216411
10	0x3f7b1ed6	0.98093927
11	0x3f6eefa0	0.9333439
12	0x3f7dbe72	0.9911872
13	0x3f8c153c	1.094398
14	0x3f6fc83a	0.93664896
15	0x3f6e779d	0.93151265
16	0x3f66b624	0.90121675
17	0x3f781fe5	0.9692367
18	0x3f6ef819	0.93347317
19	0x3f7081d3	0.93948096
20	0x3f6a8bea	0.9161974
21	0x3f688c68	0.9083924
22	0x3f76a2ff	0.9634246
23	0x3f6831d6	0.90701044
24	0x3f7e584e	0.9935349
25	0x3f83759e	1.0270269
26	0x3f925233	1.1431335
27	0x3f71b899	0.944223
28	0x3f5b9fdc	0.857908
29	0x3f773589	0.96566063
30	0x3f6163de	0.8804301
31	0x3f819bb1	1.0125638

layer1.bn1.bias f4 [32]
0	0xbdd5fc3b	-0.104485
1	0xbe04cdab	-0.12969081
2	0xbe3e7141	-0.1859789
3	0xbe6a4a6c	-0.22879952
4	0xbe2b60ba	-0.16736117
5	0xbdba6963	-0.09102132
6	0xbe50a4d1	-0.20375372
7	0xbe46e5e3	-0.19423632
8	0xbe377587	-0.17915927
9	0xbe87488b	-0.26422533
10	0xbe1360db	-0.14392416
11	0xbe9cbee1	-0.3061438
12	0xbe036e21	-0.1283498
13	0xbe5b22dc	-0.21400017
14	0xbe76ba67	-0.24094544
15	0xbe35e543	-0.17763238
16	0xbe8f7a3f	-0.28022954
17	0xbe3c1450	-0.18367124
18	0xbe55194e	-0.20810434
19	0xbe0a0b85	-0.13480957
20	0xbe6a42a4	-0.22876984
21	0xbe2f5f0b	-0.171261
22	0xbe18b812	-0.14913967
23	0xbe85feb0	-0.26170874
24	0xbdc334f5	-0.09531585
25	0xbe649ffc	-0.22326654
26	0x3cbf86c0	0.023379683
27	0xbe0f604c	-0.14001578
28	0xbe065d93	-0.13121633
29	0xbe29cdfb	-0.16582482
30	0xbe557a82	-0.20847514
31	0xbdb77708	-0.0895825

layer1.bn1.running_mean f4 [32]
0	0xbf013f90	-0.50487614
1	0x3e3aae5e	0.18230578
2	0xbedcb3ab	-0.43105826
3	0xbf5976e9	-0.8494707
4	0xbf2614ac	-0.6487529
5	0x3f44b39f	0.7683658
6	0xbf680054	-0.906255
7	0xbecc3548	-0.398844
8	0xbeef47ba	-0.4673441
9	0xbee3f2f5	-0.445213
10	0xbf0e1563	-0.55501384
11	0xbe8017dd	-0.25018206
12	0xbe402ad6	-0.1876634
13	0x3f435c2a	0.76312506
14	0xbf7c3914	-0.98524594
15	0xbf0e0564	-0.55476975
16	0xbf1291dc	-0.57253814
17	0xbe6f26c2	-0.23354629
18	0xbe2ef1ef	-0.17084478
19	0xbed48538	-0.41507888
20	0x3ee9d641	0.45671275
21	0xbf1f1f3f	-0.6215705
22	0x3ef54b98	0.47909236
23	0xbeba7846	-0.36419886
24	0xbe10d4ab	-0.14143626
25	0xbf6834c8	-0.9070554
26	0x3fe8cb2f	1.8187007
27	0xbc5089b5	-0.012728144
28	0xbefcace0	-0.49350643
29	0xbf039ce4	-0.5141127
30	0xbf90229f	-1.1260566
31	0x3db03778	0.0860433

layer1.bn1.running_var f4 [32]
0	0x3f378451	0.71686274
1	0x3f0a779a	0.5408875
2	0x3f0d5c85	0.552193
3	0x3f804927	1.0022324
4	0x3f1f9dd8	0.62350225
5	0x3f123511	0.5711222
6	0x3f60b08c	0.8776939
7	0x3eea8cf9	0.4581068
8	0x3f041a78	0.5160289
9	0x3f1bd279	0.6086803
10	0x3f1426e4	0.5787184
11	0x3ef59ab9	0.47969607
12	0x3f2f83a4	0.6856024
13	0x3f47562c	0.7786586
14	0x3f2d61dc	0.67727447
15	0x3f42456b	0.75887173
16	0x3eec5ba4	0.46163666
17	0x3f1603f7	0.585998
18	0x3ee66b6e	0.45003837
19	0x3f2a34fe	0.6648711
20	0x3f1b348d	0.6062706
21	0x3ef6b136	0.48182076
22	0x3ee7bd6b	0.45261702
23	0x3f1db91d	0.61610585
24	0x3f023198	0.50856924
25	0x3f51ffeb	0.82031125
26	0x3fc01eee	1.5009439
27	0x3f1136c9	0.5672422
28	0x3ee8af86	0.45446414
29	0x3f24c94b	0.6436965
30	0x3f38bfa3	0.72167414
31	0x3ea67779	0.32513025

layer1.conv2.weight f4 [32, 32, 3]
0	0x3da5ba69	0.080921955
1	0x3ce0b47d	0.027429814
2	0x3daa6814	0.083206326
3	0xbdc2dbcd	-0.0951458
4	0xbcf0bba6	-0.029386353
5	0xbdc7cb5b	-0.09755584
6	0xbc78f42e	-0.015194936
7	0x3d225ee0	0.03964126
8	0xbd031e5c	-0.032011375
9	0x3d8400a7	0.06445437
10	0x3c502ac7	0.012705511
11	0x3d529f48	0.051421434
12	0x3cdacd6f	0.026709286
13	0x3c8244f0	0.015902013
14	0xbc736a24	-0.014856849
15	0xbe0bed66	-0.13664779
16	0xbd2287e1	-0.039680365
17	0xbd5424aa	-0.051792778
18	0x3dbf9d8d	0.09356222
19	0x3b96de6e	0.0046041524
20	0x3d8dd3b3	0.06925144
21	0x3c9082a6	0.017640423
22	0xb9694011	-0.00022244478
23	0xbd56d88d	-0.052452613
24	0xbcaa7f90	-0.02081278
25	0x3d3947f5	0.04523464
26	0x3d5ef815	0.05443581
27	0xbda65c3c	-0.08123061
28	0xbebdfd60	-0.37107372
29	0xbe2c7921	-0.16843082
30	0xbdd75804	-0.105148345
31	0xbe09099b	-0.1338257
32	0x3ca2d3d7	0.019876404
33	0xbe5e86aa	-0.21731058
34	0xbddcd516	-0.107828304
35	0xbdbf471c	-0.09339735
36	0xbd8540c8	-0.06506497
37	0xbd1f4381	-0.038882736
38	0x3e192310	0.14954782
39	0xbe4d1357	-0.20026909
40	0xbe1707df	-0.14749096
41	0xbd872020	-0.06597924
42	0xbe4a01f8	-0.19727314
43	0xbb2f328c	-0.002673301
44	0x3c8f1723	0.017467087
45	0x3cdd9170	0.027046889
46	0xbd856d31	-0.06514967
47	0xbdfcd45c	-0.12345192
48	0xbd7bca39	-0.06147215
49	0xbe2933e5	-0.16523702
50	0x3d7acc1b	0.061229806
51	0xbe17ae46	-0.14812574
52	0xbdd83b92	-0.10558237
53	0xbc95ea5e	-0.018300232
54	0xbc95d4de	-0.01828998
55	0xbdc7bca1	-0.09752775
56	0xbe40964a	-0.1880733
57	0x3ce2dff4	0.02769468
58	0xbd3bd9cc	-0.045862004
59	0x3dee0311	0.116216786
60	0xbc07c488	-0.008286603
61	0x3e1c693c	0.15274519
62	0xbcb18dff	-0.021674154
63	0xbd4ada49	-0.04952458
64	0x3bfc2f71	0.007696085
65	0x3c13a9e5	0.009012674
66	0xbe43e3c9	-0.19129862
67	0xbddfd60a	-0.109294966
68	0xbdeff649	-0.11716897
69	0x3d535f6d	0.051604677
70	0xbda5bd1b	-0.0809271
71	0xbdbe728c	-0.09299192
72	0x3d612bb7	0.05497333
73	0x3dfdd938	0.12394947
74	0xbda25db3	-0.07928028
75	0x3d0d18a6	0.034447335
76	0x3d66b8dc	0.05632864
77	0x3d8d4ce6	0.06899433
78	0xbd1eca91	-0.0387674
79	0xbc763d5f	-0.01502928
80	0xbc161e16	-0.0091624465
81	0xbddccd77	-0.10781377
82	0xbe2f18b2	-0.17099264
83	0xbe76592c	-0.24057454
84	0xbe04fe35	-0.12987597
85	0x3c982e3b	0.018576732
86	0xbcba8531	-0.022768589
87	0xbd1b4486	-0.037907146
88	0xbd0f8bf1	-0.035045568
89	0x3d520156	0.051270805
90	0xbc8295fa	-0.015940655
91	0xbe14fe8c	-0.14550227
92	0x3ca9c556	0.02072398
93	0x3d8c7653	0.06858506
94	0x3c852c41	0.016256453
95	0x3dbf6c9f	0.0934689
96	0x3ddaf135	0.10690538
97	0x3e17d44a	0.14827076
98	0x3df107b9	0.11769051
99	0x3cd3ad28	0.025839403
100	0xbd6a2687	-0.05716565
101	0xbd87a935	-0.066240706
102	0xbdb94a4a	-0.09047373
103	0x3e49e877	0.19717585
104	0x3c87a1c1	0.016556622
105	0x3d665121	0.056229714
106	0x3d8c1b97	0.068412
107	0xbdabc1db	-0.08386584
108	0x3d03401a	0.032043554
109	0xbc806532	-0.015673254
110	0x3c2932ec	0.010327082
111	0xb97e92e6	-0.00024278052
112	0x3c23fe54	0.010009367
113	0xbddb5b5d	-0.107107855
114	0x3e0f283e	0.13980195
115	0x3c2841b8	0.010269575
116	0x3d77abf8	0.060466737
117	0x3ddc510e	0.107576475
118	0xbe721b2a	-0.23643175
119	0xbd560a50	-0.05225593
120	0xbdd364c1	-0.10321952
121	0xbe259186	-0.16168794
122	0xbdccdaf3	-0.10002699
123	0x3cbaed54	0.022818245
124	0x3d04dc12	0.032436438
125	0x3ddd15f7	0.10795205
126	0xbe940786	-0.2891199
127	0x3e65a6fc	0.2242698
128	0xbda18fff	-0.07888793
129	0x3d7ffce9	0.062497053
130	0x3d57ea73	0.052713823
131	0x3e037321	0.12836887
132	0xbe921417	-0.28530952
133	0x3cf13e60	0.029448688
134	0xbe5af2a7	-0.21381627
135	0xbca04768	-0.0195653
136	0xbdd46aaf	-0.10371911
137	0xbd427a34	-0.047479823
138	0x3d71d616	0.05904206
139	0x3e1c9288	0.15290272
140	0x3d4baf51	0.04972774
141	0x3d3744b5	0.04474326
142	0x3d97b11c	0.07406828
143	0xbdccb2fc	-0.09995076
144	0xbd3d3e9e	-0.046202295
145	0xbdb9607f	-0.09051608
146	0xbd3a0a42	-0.04541994
147	0xbd1b811a	-0.037964918
148	0x3d5acd9a	0.053418733
149	0xbbcf580d	-0.006327635
150	0xbdc73932	-0.09727706
151	0x3e39589e	0.18100211
152	0xbe00fe6f	-0.12597059
153	0x3d830148	0.06396729
154	0xbcc227a2	-0.023700539
155	0x3df7e1ae	0.12103592
156	0xbd981730	-0.07426298
157	0xbdd73a5f	-0.1050918
158	0x3d82f2d2	0.063939705
159	0x3ca3aef7	0.01998089
160	0x3de9d5e7	0.11417752
161	0x3c92fd61	0.017943086
162	0x3dc7ae55	0.09750048
163	0x3d0f6e90	0.03501755
164	0x3df14fdf	0.11782812
165	0x3e1c965a	0.1529173
166	0x3dcf241b	0.101143084
167	0x3e28b62e	0.16475746
168	0x3b839a7b	0.0040162182
169	0xbd26007c	-0.040527806
170	0x3d8b8bc5	0.06813768
171	0xbcced4fe	-0.025248047
172	0x3d235a24	0.039880887
173	0xbe06a578	-0.13149059
174	0xbc9a0923	-0.018803185
175	0xbdbc3160	-0.09189105
176	0x3d0f3228	0.034959942
177	0xbc701624	-0.014653716
178	0x3e1bb53e	0.15205857
179	0x3e1ac75e	0.15115115
180	0xbe25368e	-0.16134092
181	0x3d1e763c	0.038686976
182	0xbd4a8d22	-0.049451
183	0x3e02ebfe	0.12785336
184	0xbe0eb2e3	-0.13935427
185	0x3d1e946b	0.03871576
186	0x3ce2a3f2	0.027666066
187	0x3dc0b863	0.09410169
188	0x3d8724b3	0.06598797
189	0xbdb3e398	-0.087836444
190	0xbc975da9	-0.018477278
191	0x3e182f6b	0.14861839
192	0xbdcc1d3b	-0.09966513
193	0x3e09db18	0.13462484
194	0x3e68b86d	0.22726603
195	0xbdcb9eb6	-0.09942381
196	0xbdac01d6	-0.08398788
197	0xbdebfb6b	-0.115225635
198	0xbce40c05	-0.027837763
199	0x3d537c45	0.051632185
200	0x3dc3ae36	0.095547125
201	0x3d980694	0.0742313
202	0xbd30e34d	-0.04318552
203	0xbe0e2e62	-0.13884881
204	0xbd5abcf8	-0.05340287
205	0xbda13369	-0.07871134
206	0xbd032805	-0.032020587
207	0xbdeeffcb	-0.116698824
208	0xbcfc3e61	-0.030791463
209	0x3d26afd7	0.040695038
210	0xbe033c98	-0.12816083
211	0xbe312caf	-0.17302202
212	0xbe1ec398	-0.155043
213	0xbd21badb	-0.03948484
214	0xbe2e3aed	-0.17014666
215	0xbe2f7224	-0.17133385
216	0x3dddef67	0.10836678
217	0xbcb859f7	-0.022503836
218	0x3c90fc90	0.017698556
219	0xbdaac41a	-0.08338185
220	0x3e07e8a5	0.1327234
221	0x3cd19a93	0.025586402
222	0x3cac5230	0.021035284
223	0xbdafb879	-0.08580107
224	0xbd699885	-0.05703022
225	0x3d80d24c	0.06290111
226	0x3d289730	0.04115981
227	0xbd01ee03	-0.031721126
228	0xbe235163	-0.15949015
229	0xbd8f2174	-0.069888026
230	0xbd4e8456	-0.050419174
231	0xbe0eae33	-0.13933639
232	0xbe21de83	-0.15807538
233	0xbe270efd	-0.16314311
234	0xbdd8093c	-0.10548636
235	0xbe63931a	-0.22224084
236	0xbd3de78d	-0.046363402
237	0x3dbdfab0	0.092763305
238	0x3dda183f	0.10649156
239	0xbda00eb9	-0.07815308
240	0x3db52e95	0.088467754
241	0xbd8118e1	-0.063035734
242	0xbd9d9f68	-0.0769642
243	0xbd83e0a8	-0.06439334
244	0xbd9ea638	-0.077465475
245	0x3dc72746	0.09724288
246	0x3bb5d4b5	0.0055490383
247	0x3ca4fd3f	0.020140288
248	0x3d5a7e7f	0.053343292
249	0xbe93d2e4	-0.28871834
250	0xbda67044	-0.08126882
251	0xbc6e6326	-0.014550006
252	0xbb808dab	-0.003923138
253	0x3dc2154d	0.09476719
254	0x3d020265	0.031740565
255	0x3dbdfd2c	0.09276804

layer1.bn2.weight f4 [32]
0	0x3f5807cd	0.84386903
1	0x3f3608e4	0.71107316
2	0x3f6465e3	0.89217967
3	0x3f519eba	0.8188282
4	0x3f378ed0	0.7170229
5	0x3f58d7b4	0.84704137
6	0x3f53bb76	0.8270792
7	0x3f2ba9c4	0.67055917
8	0x3f4b5679	0.7942882
9	0x3f3de47b	0.7417676
10	0x3f586d5e	0.8454188
11	0x3f30cf0a	0.69065917
12	0x3f6b3d6c	0.918906
13	0x3f2e7cc8	0.6815915
14	0x3f56fca8	0.8397927
15	0x3f676ae7	0.90397495
16	0x3f739292	0.95145524
17	0x3f66a648	0.90097475
18	0x3f613586	0.87972295
19	0x3f59c881	0.8507157
20	0x3f2f4d18	0.6847701
21	0x3f5bc699	0.8584991
22	0x3f7ac267	0.97952884
23	0x3f5b90f7	0.85768074
24	0x3f6585c0	0.8965721
25	0x3f71d1af	0.94460577
26	0x3f5d2d97	0.8639769
27	0x3f520d42	0.8205148
28	0x3f6c6854	0.9234669
29	0x3f570dc9	0.8400541
30	0x3f1fdf21	0.6244984
31	0x3f2c70a5	0.6735938

layer1.bn2.bias f4 [32]
0	0xbdc26b60	-0.094931364
1	0xbe8b2258	-0.2717464
2	0xbdffdc85	-0.12493233
3	0xbe8987b0	-0.26861334
4	0x3d024d8d	0.03181224
5	0xbe7adbf5	-0.2449797
6	0xbdf61933	-0.12016525
7	0xbe1589c9	-0.14603342
8	0xbd4939bc	-0.049127325
9	0xbc905a61	-0.017621221
10	0xbe651124	-0.2236982
11	0xbdebaba2	-0.11507346
12	0xbe18786a	-0.14889684
13	0xbe587616	-0.21138796
14	0xbda79160	-0.08182025
15	0xbdf9a9d5	-0.12190596
16	0xbd800e33	-0.06252708
17	0xbd3cd7a9	-0.046104107
18	0xbde1f03c	-0.11032149
19	0xbe132a1b	-0.1437153
20	0xbde7e76a	-0.113234356
21	0xbe846226	-0.2585613
22	0xbe43ef4f	-0.19134258
23	0xbe33bbc6	-0.17552099
24	0xbde508ae	-0.11183296
25	0xbdaa5955	-0.0831782
26	0xbe7d947a	-0.2476367
27	0xbdf4786e	-0.11937033
28	0xbd8a29d3	-0.067462586
29	0xbe5d0813	-0.21585111
30	0xbd621a58	-0.055200905
31	0xbe0c4a89	-0.13700308

layer1.bn2.running_mean f4 [32]
0	0xbf5c5212	-0.8606273
1	0x3e053dc2	0.1301184
2	0xbf65fc7f	-0.89838403
3	0xbf05ea0d	-0.5231026
4	0xbf1db557	-0.6160483
5	0xbf4b796e	-0.7948216
6	0xbf4f5018	-0.8098159
7	0x3ec2c2a2	0.38039118
8	0xbf64ba00	-0.89346313
9	0xbf45ab0e	-0.77214134
10	0xbe02fa61	-0.12790824
11	0xbe58fbc0	-0.21189785
12	0xbf58b5e1	-0.84652525
13	0xbef154ac	-0.47134912
14	0xbf0640d9	-0.524427
15	0xbef348e1	-0.4751654
16	0xbedb21e0	-0.42799282
17	0xbf3c3a62	-0.73526585
18	0xbf361d25	-0.7113822
19	0xbf695b7c	-0.9115522
20	0xbf84c430	-1.0372372
21	0xbf3fa26f	-0.7485723
22	0xbf2712e8	-0.65263224
23	0xbf345a4e	-0.70450294
24	0xbf846080	-1.034195
25	0xbf8c58b0	-1.0964565
26	0xbf4394f6	-0.7639917
27	0xbf28b4bc	-0.6590078
28	0xbf4857ec	-0.7825916
29	0xbf2d731d	-0.67753774
30	0xbe7c2afb	-0.24625771
31	0xbeedd797	-0.46453544

layer1.bn2.running_var f4 [32]
0	0x3f63810a	0.88868773
1	0x3f09b26c	0.53787875
2	0x3f55c381	0.8350144
3	0x3f38a39d	0.72124654
4	0x3f52d672	0.8235847
5	0x3f388d10	0.72090244
6	0x3fa2b26c	1.27107
7	0x3ecc9862	0.3996001
8	0x3f874c54	1.0570168
9	0x3f893ade	1.072109
10	0x3f23428b	0.6377341
11	0x3f37e430	0.7183256
12	0x3f8cb54d	1.0992829
13	0x3f23f19e	0.64040554
14	0x3f181f8a	0.59423125
15	0x3f4c568b	0.79819554
16	0x3f7c25a6	0.98494947
17	0x3f962124	1.1728864
18	0x3f563f82	0.83690655
19	0x3f70daf1	0.9408408
20	0x3f15c0b9	0.58497196
21	0x3f2455c1	0.6419335
22	0x3f9a9367	1.2076234
23	0x3faa89af	1.3323268
24	0x3f36c26f	0.7139043
25	0x3f96cb7d	1.178085
26	0x3f25d8c8	0.64783907
27	0x3f820a5b	1.015941
28	0x3f4c8d5b	0.7990319
29	0x3f3f09cc	0.74624324
30	0x3f238940	0.638813
31	0x3f27bd00	0.65522766

layer2.conv1.weight f4 [64, 32, 3]
0	0xbcd55724	-0.026042528
1	0xbdcec5dd	-0.10096333
2	0xbd91b831	-0.0711521
3	0x3d614359	0.05499587
4	0xbbc86505	-0.006115558
5	0x3d55fa37	0.052240577
6	0xbdb04ee5	-0.08608798
7	0xbdfc711b	-0.12326261
8	0xbe3c415d	-0.18384309
9	0x3e38c6ef	0.18044637
10	0x3ddb73b3	0.10715427
11	0x3e591634	0.21199876
12	0x3d74cc1f	0.059764978
13	0xbccce350	-0.025010735
14	0x3dc0764d	0.09397564
15	0xbc9ee52a	-0.019396383
16	0xbd6a9d22	-0.05727876
17	0xbc9919a2	-0.01868898
18	0xbb5f09da	-0.0034032972
19	0xbdab0fdc	-0.08352634
20	0xbd6351c7	-0.05549791
21	0xbb023abe	-0.001987144
22	0xbdce117d	-0.100619294
23	0x3d729d62	0.059232123
24	0xbcec5c3d	-0.028852576
25	0x3e09ea9a	0.134684
26	0x3e055af2	0.13022974
27	0x3d99e688	0.075146735
28	0x3dea6cf3	0.11446562
29	0x3e25bb0f	0.16184638
30	0x3d84c701	0.064832695
31	0xbddc7479	-0.10764403
32	0x3cf1c5e8	0.029513314
33	0xbd949e50	-0.07256758
34	0xbdfba807	-0.12287908
35	0xbddf7e3c	-0.10912749
36	0x3d5876ed	0.05284779
37	0xbd79dbb1	-0.06100053
38	0xbd18a815	-0.03726967
39	0x3c71853d	0.014741239
40	0xbd178ed6	-0.037001453
41	0xbc57dbf0	-0.013174996
42	0x3dafecdb	0.085900985
43	0xbdbe06ce	-0.09278642
44	0xbdc2fee0	-0.0952127
45	0xbe1e4289	-0.15455069
46	0xbd877581	-0.06614209
47	0xbd5c104e	-0.053726487
48	0xbd02330e	-0.03178697
49	0x3d73719d	0.059434522
50	0x3e1470ad	0.14496107
51	0x3debe518	0.115183055
52	0x3c863460	0.016382396
53	0xbd6fe68e	-0.058569483
54	0x3e2644c5	0.16237171
55	0x3c263bd5	0.010146101
56	0xbc201d19	-0.009772562
57	0xbd931b2d	-0.07182918
58	0xbe01ff20	-0.12694979
59	0x3d6464a1	0.05576003
60	0xbd41b7ad	-0.047294308
61	0xbe09ce04	-0.13457495
62	0xbea041fd	-0.31300345
63	0xbddf9d07	-0.109186225
64	0xbd039d11	-0.032132212
65	0xbd7db89b	-0.06194363
66	0xbd2bafa1	-0.04191554
67	0x3c0d0cb5	0.008608987
68	0xbc5cb862	-0.013471695
69	0x3e2b4313	0.16724806
70	0x3d90c472	0.07068719
71	0xbd245c4e	-0.04012709
72	0xbc44f53f	-0.012021362
73	0xbcce7d14	-0.025206126
74	0x3dae0c9e	0.084985
75	0x3dfae4a2	0.122506395
76	0xbd79a3fc	-0.060947403
77	0x3e19cbb4	0.15019113
78	0x3df310e3	0.11868455
79	0x3e555bd5	0.20835812
80	0xbdadf123	-0.08493259
81	0xbd2a31ad	-0.04155128
82	0xbc21c937	-0.0098746335
83	0xbdf01b5b	-0.11723968
84	0xbd784214	-0.060609892
85	0xbd89df22	-0.06732012
86	0xbe557b7f	-0.20847891
87	0xba8b05c5	-0.0010606578
88	0xbdbd8bde	-0.09255193
89	0x3e05e69a	0.13076249
90	0xbd1b02e1	-0.037844542
91	0xbdf93e3d	-0.12170074
92	0xbda4c8f9	-0.08046145
93	0x3e4ae170	0.1981256
94	0x3e002fa4	0.12518173
95	0x3d6e1a2f	0.05813044
96	0xbdc3c926	-0.095598504
97	0xbb70317d	-0.003665059
98	0xbdb56915	-0.088579334
99	0x3d56ccea	0.052441515
100	0x3dedb057	0.116059
101	0x3dc9cd4d	0.09853611
102	0x3ded236c	0.11579022
103	0x3d6dc0ef	0.058045324
104	0xbd7eeb30	-0.06223601
105	0x3b8133f1	0.0039429595
106	0xbdae93f0	-0.085243106
107	0xbdc9ff56	-0.098631546
108	0xbca2be46	-0.01986612
109	0xbd8e6395	-0.069525875
110	0xbdbaa8be	-0.09114216
111	0xbd5e51a3	-0.054277074
112	0xbc47e941	-0.012201608
113	0xbd9c8bf9	-0.07643885
114	0x3c218d64	0.00986037
115	0x3db6b98e	0.089221105
116	0xbd6647bd	-0.05622076
117	0xbd135af4	-0.03597541
118	0x3d9d0d5b	0.07668563
119	0xbde81ff3	-0.11334219
120	0xbe97d519	-0.29654768
121	0xbe87e5d8	-0.26542544
122	0xbebc8207	-0.36817953
123	0xbd203a09	-0.039117847
124	0x3d9e0ac2	0.07716896
125	0x3db57fe7	0.08862286
126	0x3db8af32	0.09017791
127	0x3d95ca54	0.07313982
128	0x3d946c93	0.072472714
129	0xbdf5ac54	-0.119957596
130	0xbd74d649	-0.05977467
131	0xbe262b71	-0.16227509
132	0x3c821787	0.01588036
133	0x3d1fc0ab	0.039002102
134	0x3d2b3627	0.04179969
135	0xbb4a7adf	-0.003089599
136	0x3c286ba2	0.010279568
137	0x3cbd9994	0.02314452
138	0xbd94c796	-0.072646305
139	0xbd954cfa	-0.07290073
140	0x3d21010a	0.03930763
141	0x3d9b2af9	0.07576556
142	0x3d2278b9	0.03966591
143	0x3da1920d	0.07889185
144	0xbbe54479	-0.006996688
145	0xbda19146	-0.07889037
146	0x3dd66805	0.10469059
147	0x3d0013a1	0.03126872
148	0xbdb74978	-0.0894956
149	0x3b5c90aa	0.0033655562
150	0xbcd7db98	-0.026349828
151	0x3d9dcbc3	0.0770488
152	0x3de1afb7	0.11019843
153	0x3cc8ad82	0.024496797
154	0x3d50a79d	0.0509411
155	0xbd6e6d97	-0.05820998
156	0x3b015acf	0.0019737964
157	0x3dcff6eb	0.10154518
158	0x3d96b3ec	0.07358536
159	0xbc9fe768	-0.019519523
160	0xbd6fc67b	-0.058538895
161	0x3d1802c5	0.037112016
162	0x3d9a553a	0.07535787
163	0xbc66a942	-0.01407844
164	0xbd126f20	-0.03575051
165	0xbdc449be	-0.09584378
166	0xbd800b67	-0.06252175
167	0xbe0a79e3	-0.13523059
168	0xbd615bda	-0.055019237
169	0x3d9639b6	0.07335226
170	0xbd6a8b70	-0.057261884
171	0xbbcffbcd	-0.0063471557
172	0x3b8f109d	0.004365994
173	0xbe02dfef	-0.12780736
174	0x3dadb90e	0.08482562
175	0x3d1648b3	0.036690425
176	0x3cfbc05c	0.030731373
177	0xbcd8ee02	-0.026480678
178	0xbb58dd17	-0.0033090764
179	0xbc81c298	-0.01583986
180	0x3de60228	0.1123088
181	0xbd1bd9f2	-0.038049646
182	0x3dd21cd8	0.10259408
183	0xbdfe5167	-0.1241787
184	0xbb0bea47	-0.0021349357
185	0xbd21759f	-0.039418813
186	0xbe6a6cb0	-0.22893023
187	0xbe99ffcd	-0.30077973
188	0xbec2e9b6	-0.38068932
189	0xbe48a134	-0.19592744
190	0xbd2154a8	-0.039387375
191	0xbcbd60cf	-0.023117451
192	0x3cbd7c54	0.023130573
193	0xbe2a8e35	-0.1665581
194	0xbe172de9	-0.14763607
195	0xbe15abdb	-0.14616339
196	0xbdb0b680	-0.08628559
197	0xbe6f8ec3	-0.23394303
198	0x3d852128	0.06500465
199	0xbd85d873	-0.06535425
200	0x3e433588	0.1906339
201	0x3d2e28a0	0.04251921
202	0x3deaff6f	0.11474501
203	0x3d319f94	0.043365076
204	0xbe1e0358	-0.15430963
205	0xbbd08c38	-0.0063643716
206	0xbd829143	-0.06375363
207	0xbd3fa0ef	-0.046784338
208	0x3e26f888	0.16305745
209	0x3e2ed33a	0.17072764
210	0xbe2695fd	-0.16268153
211	0xbc021c97	-0.007941387
212	0x3d80573d	0.062666394
213	0x3ca88c73	0.020574784
214	0xbd176c4c	-0.036968514
215	0x3a96af8d	0.001149641
216	0xbc01fcee	-0.007933838
217	0xbdc522ab	-0.09625753
218	0xbd5f9aa8	-0.05459085
219	0xbe10c92c	-0.14139241
220	0xbe1a5274	-0.15070516
221	0xbe5c19d6	-0.2149423
222	0xbd35bda0	-0.044370294
223	0xbd2066c3	-0.0391605
224	0xbde5f9ff	-0.112293236
225	0xbdac9b56	-0.084280655
226	0xbe054755	-0.13015492
227	0xbe174916	-0.14773974
228	0x3c79f771	0.015256749
229	0xbd24aabe	-0.040201895
230	0x3d577c1f	0.052608605
231	0x3de9da7b	0.11418625
232	0xbd98a678	-0.074536264
233	0xbc09c311	-0.008408324
234	0x3ca3619e	0.019944008
235	0xbb0d516a	-0.002156342
236	0xbbb29b16	-0.0054506166
237	0xba6b715d	-0.0008981431
238	0x3db0788b	0.08616742
239	0x3e17a55f	0.14809178
240	0x3d438489	0.047733817
241	0xbc7dd05e	-0.015491573
242	0xbdde0c1a	-0.10842152
243	0xbd8e528a	-0.06949337
244	0x3b964634	0.0045860056
245	0xbb2f02d2	-0.0026704562
246	0x3dc55203	0.09634783
247	0x3e24be75	0.16088279
248	0xbe0caa82	-0.13736919
249	0xbdec4677	-0.115368776
250	0xbe03dbb6	-0.12876782
251	0xbd9c7d8b	-0.07641133
252	0xbe90b36a	-0.28261882
253	0x3d3ac077	0.045593705
254	0xbdd6c003	-0.10485842
255	0xbda2cca4	-0.07949188

layer2.bn1.weight f4 [64]
0	0x3f7c18b8	0.9847522
1	0x3f825bd1	1.018427
2	0x3f75ba6b	0.95987576
3	0x3f73b1ee	0.95193374
4	0x3f7c17b7	0.98473686
5	0x3f864a9e	1.0491521
6	0x3f812584	1.0089574
7	0x3f7a0ac1	0.9767266
8	0x3f82e751	1.0226842
9	0x3f7ed348	0.9954114
10	0x3f7bcda6	0.9836067
11	0x3f880747	1.0627221
12	0x3f7e5fc5	0.9936488
13	0x3f728f9f	0.947504
14	0x3f71f8d7	0.94520324
15	0x3f70562a	0.93881476
16	0x3f7fda0d	0.99942094
17	0x3f7390c8	0.95142794
18	0x3f7ec5a7	0.99520344
19	0x3f768a22	0.96304524
20	0x3f79836a	0.97466147
21	0x3f81fbd1	1.0154973
22	0x3f86803b	1.0507883
23	0x3f6640b4	0.8994248
24	0x3f7f2d7d	0.99678785
25	0x3f8248b0	1.0178432
26	0x3f82affc	1.0209956
27	0x3f6edb7e	0.9330367
28	0x3f7c1cc4	0.9848139
29	0x3f829fac	1.0204978
30	0x3f7dc416	0.9912733
31	0x3f67d217	0.90554947
32	0x3f6cc3ea	0.9248644
33	0x3f654a69	0.89566666
34	0x3f77f500	0.96858215
35	0x3f83e108	1.0303049
36	0x3f71cc5b	0.94452447
37	0x3f7db7a5	0.99108344
38	0x3f66c4de	0.90144145
39	0x3f6cfd74	0.9257424
40	0x3f8a2e00	1.0795288
41	0x3f800d3e	1.0004041
42	0x3f883abf	1.0642928
43	0x3f808e9a	1.0043519
44	0x3f7ffc2b	0.9999415
45	0x3f705694	0.9388211
46	0x3f76165a	0.96127856
47	0x3f901bf8	1.1258535
48	0x3f8c4548	1.0958643
49	0x3f7cc7a4	0.9874213
50	0x3f66f081	0.9021073
51	0x3f787459	0.9705253
52	0x3f8612df	1.0474509
53	0x3f79b6b6	0.9754442
54	0x3f7ff464	0.99982285
55	0x3f75436e	0.95806015
56	0x3f841851	1.0319921
57	0x3f7ea6bb	0.9947316
58	0x3f65872f	0.896594
59	0x3f6d4a05	0.9269107
60	0x3f7b2468	0.98102427
61	0x3f7f59c4	0.99746346
62	0x3f7feb7c	0.99968696
63	0x3f79147f	0.972969

layer2.bn1.bias f4 [64]
0	0xbe02fa5a	-0.12790814
1	0xbdbda10f	-0.09259235
2	0xbe0941c8	-0.13404
3	0xbdf66a6e	-0.120320186
4	0xbe62fb9c	-0.22166294
5	0xbdf5c283	-0.11999991
6	0xbe49554c	-0.19661444
7	0xbde9e475	-0.11420528
8	0x3baebb50	0.005332388
9	0xbe3efe29	-0.18651642
10	0xbe480f80	-0.19537163
11	0xbbf0ec78	-0.007352408
12	0x3ae5f224	0.0017543477
13	0xbeb99d39	-0.36252764
14	0xbe2204cd	-0.15822144
15	0xbe0dcbb1	-0.13847233
16	0xbea0f0cb	-0.3143371
17	0xbe02b866	-0.12765655
18	0xbebc1bf5	-0.3674008
19	0xbe6b8bec	-0.23002595
20	0xbe670f2d	-0.22564383
21	0xbd82578c	-0.063643545
22	0xbdf89915	-0.12138573
23	0xbd8fa0bd	-0.0701308
24	0xbe2ce8cc	-0.1688568
25	0xbe3c01f5	-0.18360122
26	0xbe4becbb	-0.19914524
27	0xbdf576c3	-0.119855426
28	0xbe234804	-0.1594544
29	0xbdffb99a	-0.124865726
30	0xbe5ae9ff	-0.21378325
31	0xbe01d934	-0.12680513
32	0xbe69e05f	-0.22839497
33	0xbe7ba6cb	-0.24575345
34	0xbcdf6444	-0.02726949
35	0xbe5072ac	-0.20356244
36	0xbe6649cc	-0.22489089
37	0xbe9ce075	-0.30639997
38	0xbddca7b9	-0.10774178
39	0xbe78243c	-0.24232572
40	0xbdb39a66	-0.087696835
41	0xbe4c9680	-0.19979286
42	0xbe0664d1	-0.13124396
43	0xbe23f55e	-0.16011569
44	0xbe287975	-0.16452582
45	0xbe79d115	-0.24396165
46	0xbe197a11	-0.14987971
47	0xbe003b8c	-0.12522715
48	0xbe94211b	-0.28931507
49	0xbddf300d	-0.10897837
50	0xbe58c424	-0.21168572
51	0xbe15f03d	-0.14642425
52	0xbe150540	-0.14552784
53	0xbe239f5c	-0.1597876
54	0xbe0fa2a0	-0.1402688
55	0xbe3c5ff8	-0.18395984
56	0xbe5cd75c	-0.21566528
57	0xbe3f100f	-0.1865847
58	0xbe103196	-0.14081416
59	0xbe51993a	-0.20468608
60	0xbe2384d3	-0.15968637
61	0xbdfb1c6d	-0.12261281
62	0xbe2aeea2	-0.16692594
63	0xbd6539e0	-0.055963397

layer2.bn1.running_mean f4 [64]
0	0xbeea5b00	-0.45772552
1	0xbfcddb59	-1.6082565
2	0xbfd7fe93	-1.6874565
3	0xbe3a791f	-0.18210267
4	0x3d8cc481	0.06873418
5	0xbde61d64	-0.112360746
6	0xbf805f08	-1.0029001
7	0xbc13b978	-0.009016387
8	0xbe40afb4	-0.18817025
9	0xbcb9b601	-0.022669794
10	0xbf86bebc	-1.0526958
11	0x3e808186	0.2509882
12	0xc0017216	-2.0225883
13	0xbdbcee6b	-0.09225162
14	0xbf712e3c	-0.94211173
15	0x3e03e349	0.12879671
16	0x3ea56090	0.32300234
17	0xbf0e9124	-0.55690217
18	0xbee30508	-0.44339776
19	0xbf245c90	-0.6420374
20	0xbe28502f	-0.16436838
21	0xbfa551a1	-1.2915536
22	0xbf7bc9b9	-0.9835468
23	0xbf43f3df	-0.7654399
24	0x3e8aed96	0.2713439
25	0xbf895d44	-1.0731587
26	0xbe262a72	-0.16227129
27	0xc00fc22f	-2.246227
28	0xbf838df5	-1.0277697
29	0x3e9e2ca8	0.30893445
30	0x3fa27ce9	1.269437
31	0xbe0b6ae8	-0.13615
32	0xbf11f81a	-0.570192
33	0x3e9e7e2a	0.3095563
34	0xbec3e8f8	-0.3826368
35	0xbf993354	-1.1968789
36	0x3f51dfe3	0.8198225
37	0xbf30605b	-0.68897027
38	0xbfdc9676	-1.7233417
39	0xbe8cd03a	-0.27502614
40	0xbf0300f0	-0.51173306
41	0xbf9404bf	-1.1563948
42	0xbf2f7833	-0.68542784
43	0xbf99bab7	-1.2010106
44	0xbfa3fcd2	-1.281153
45	0x3f6e754b	0.93147725
46	0xbf078734	-0.5294068
47	0x3eb1e7c1	0.34747127
48	0xbf8db64d	-1.1071259
49	0xbfbed9c2	-1.4910204
50	0x3f79a38c	0.9751518
51	0x3fca63b3	1.5811676
52	0xbf918ac2	-1.137047
53	0xbf023870	-0.50867367
54	0xbfb67c7e	-1.4256742
55	0xbee5a5de	-0.4485311
56	0xbf8fc137	-1.123084
57	0xbf87e7ea	-1.061765
58	0xbfbdc1c8	-1.4824762
59	0x3e33805c	0.17529434
60	0xbe85d155	-0.2613627
61	0x3e618f58	0.22027338
62	0xbf81d371	-1.0142652
63	0xbf7a3452	-0.97736084

layer2.bn1.running_var f4 [64]
0	0x3f4c3851	0.7977343
1	0x3f6d5400	0.927063
2	0x3f1b1d81	0.60591894
3	0x3f41cb52	0.7570087
4	0x3f24a652	0.64316285
5	0x3f1f642a	0.62262213
6	0x3f3a7906	0.7284092
7	0x3f2da154	0.6782429
8	0x3f2018a0	0.62537575
9	0x3f4346b2	0.7627975
10	0x3f1d262f	0.6138639
11	0x3f4138ef	0.754775
12	0x3f87aed2	1.0600226
13	0x3f2d7a31	0.67764574
14	0x3f6ce70e	0.9254006
15	0x3f411483	0.75421923
16	0x3f380cef	0.71894735
17	0x3f4bb9a9	0.7958017
18	0x3f29a921	0.66273695
19	0x3f4cafd9	0.7995582
20	0x3f29f5bd	0.6639059
21	0x3f660713	0.89854544
22	0x3f753513	0.9578411
23	0x3f44f7b4	0.76940465
24	0x3f46b566	0.7762054
25	0x3f3650f4	0.71217275
26	0x3f36c66d	0.71396524
27	0x3f4e0de3	0.8048994
28	0x3f57e49f	0.84333223
29	0x3f3d0d04	0.73847985
30	0x3f55f42a	0.8357569
31	0x3f1e3be0	0.6181011
32	0x3f376db3	0.7165176
33	0x3f4fc449	0.8115888
34	0x3f4a67ba	0.79064524
35	0x3f363102	0.7116853
36	0x3f4180d4	0.755872
37	0x3f30aea8	0.69016504
38	0x3f1bf2a9	0.60917145
39	0x3f43f512	0.7654582
40	0x3f3560c0	0.70850754
41	0x3f2c9e54	0.6742909
42	0x3f300101	0.6875153
43	0x3f5164cf	0.81794447
44	0x3f20ec13	0.6286022
45	0x3f34fb7e	0.70696247
46	0x3f3d7075	0.7399972
47	0x3f448eab	0.76780194
48	0x3f33a49f	0.70173067
49	0x3f506de4	0.8141768
50	0x3f120d8f	0.5705194
51	0x3f0bff20	0.54686165
52	0x3f48ce83	0.7844011
53	0x3f4ce093	0.80030173
54	0x3f46f002	0.7770997
55	0x3f155468	0.5833192
56	0x3f78555d	0.97005254
57	0x3f5cd159	0.8625694
58	0x3f3cbf3e	0.7372931
59	0x3f63488f	0.8878259
60	0x3f3d1997	0.7386717
61	0x3f2c7579	0.6736675
62	0x3f371f74	0.7153237
63	0x3f32609a	0.6967865

layer2.conv2.weight f4 [64, 64, 3]
0	0x3dec2846	0.11531119
1	0x3c11e44d	0.008904529
2	0x3e62c0d7	0.22143875
3	0x3cd4e60d	0.025988603
4	0x3d12d65b	0.035848957
5	0xbb79b29d	-0.0038100847
6	0x3dca571e	0.098798975
7	0x3e52201a	0.20520058
8	0x3d42a0c6	0.047516607
9	0x3ac3dbd7	0.0014942837
10	0xbc4be7b8	-0.012445383
11	0xbdd6516f	-0.10464751
12	0x3c9ea193	0.019364154
13	0x3c677ff2	0.014129626
14	0x3e0c3f22	0.13695958
15	0xbe3fba93	-0.18723516
16	0xbd551af0	-0.052027643
17	0xbe10af31	-0.1412933
18	0xbd637570	-0.05553192
19	0xbd11baba	-0.035578467
20	0x3d4284a7	0.04748979
21	0x3e39b208	0.1813432
22	0x3e03fefb	0.12890236
23	0x3d07cb38	0.03315279
24	0x3d5433c3	0.051807176
25	0xbdcaa796	-0.09895246
26	0xbdd5f0d4	-0.10446325
27	0x3d0fc823	0.035102975
28	0x3cb2278c	0.021747373
29	0xbd68ece7	-0.056866553
30	0xbe035d63	-0.12828593
31	0xbdb7b291	-0.08969606
32	0xbe1f92b2	-0.15583304
33	0x3df4a506	0.11945538
34	0x3b6a8708	0.0035786051
35	0xbe337713	-0.17525892
36	0x3da889dd	0.0822942
37	0xbe125192	-0.14288929
38	0xbe309d74	-0.17247564
39	0xbddcfdb0	-0.107905746
40	0xbcd283b2	-0.025697563
41	0xbb1ca8b9	-0.0023904277
42	0x3dcdf63f	0.10056733
43	0xbd40af20	-0.047042012
44	0xbd82e472	-0.06391229
45	0x3cc063d9	0.023485111
46	0x3d0ba837	0.03409597
47	0xbd0aa169	-0.03384534
48	0x3de89b0b	0.11357697
49	0xbe2994dc	-0.16560692
50	0xbdbfaac5	-0.093587436
51	0xbd78ceb1	-0.06074399
52	0xbd8a2ac9	-0.06746442
53	0x3ca1708d	0.019706989
54	0x3e02a284	0.12757307
55	0x3da1cae0	0.079000235
56	0x3e05c3af	0.13062929
57	0xbe4bf513	-0.19917707
58	0xbc86c2cb	-0.016450306
59	0x3d9b5e86	0.07586388
60	0xbcbd4a7d	-0.023106808
61	0xbddeebc2	-0.10884811
62	0xbdc6e748	-0.09712082
63	0x3d54823e	0.05188202
64	0x3abc39ac	0.0014360449
65	0xbc8f03a6	-0.017457794
66	0xbe3f2108	-0.18664944
67	0xbdfb5f7a	-0.1227407
68	0xbd06856e	-0.032842092
69	0x3dfa36c2	0.122174755
70	0xbd01e559	-0.031712864
71	0x3dd71480	0.10501957
72	0x3dbb8034	0.09155312
73	0xbce736f9	-0.028224455
74	0xbdbd79be	-0.09251736
75	0xbd3361d3	-0.043794464
76	0x3d3bc5b3	0.045842838
77	0xbde425f9	-0.11140055
78	0x3e197ba1	0.14988567
79	0xbd0a03d7	-0.03369507
80	0x3d89fbf2	0.06737508
81	0xbe11a4ff	-0.14223097
82	0xbde87d4c	-0.113520235
83	0x3d74b0bb	0.059738856
84	0x3d2c1479	0.04201171
85	0x3d32c6f2	0.04364676
86	0x3e30f764	0.17281872
87	0xbd8d1bb4	-0.068900496
88	0x3d7f4e73	0.062330674
89	0x3d39df1e	0.045378797
90	0x3e21400c	0.15747088
91	0x3d630ea4	0.055433884
92	0xbc557ce6	-0.013030266
93	0x3b60b9e4	0.0034290487
94	0xbd83d56e	-0.06437193
95	0xbda15472	-0.07877435
96	0xbcb71026	-0.022346567
97	0xbca26e58	-0.019828007
98	0xbe41eed6	-0.18938765
99	0xbdda7bde	-0.10668157
100	0xbd38abc0	-0.04508567
101	0xbd959243	-0.07303288
102	0xbdf16d52	-0.11788429
103	0xbc3c83da	-0.011506045
104	0x3bb0f6ce	0.005400515
105	0x3c76c069	0.015060523
106	0xbd0faf2a	-0.03507916
107	0x3dbb4ece	0.0914589
108	0xbca1e15b	-0.019760778
109	0x3d733198	0.05937347
110	0xbd149738	-0.036277026
111	0x3dd016a0	0.101605654
112	0x3ca61a0a	0.020276088
113	0xbd2f937b	-0.042865258
114	0xbbd25a1f	-0.0064194347
115	0xbced992d	-0.029003704
116	0x3dd329b2	0.10310687
117	0xbd6cf183	-0.05784751
118	0x3da785b8	0.08179802
119	0xbc1a0497	-0.009400508
120	0x3c7696d6	0.0150506105
121	0xbd2ea84e	-0.042640977
122	0xbb9806cb	-0.0046394817
123	0xbcdd90d6	-0.027046602
124	0x3d8f1072	0.069855586
125	0x3d244679	0.04010627
126	0x3d686707	0.05673888
127	0xbe090b9c	-0.13383335
128	0xbdf26dcb	-0.118373476
129	0x3df4d636	0.1195492
130	0x3dbf721e	0.09347938
131	0x3d3f6fff	0.046737667
132	0xbdc162c3	-0.094426654
133	0x3d820b80	0.0634985
134	0x3b43da00	0.0029884577
135	0xbc538934	-0.01291113
136	0x3c3d5c08	0.0115575865
137	0x3d6b8633	0.05750103
138	0xbd1a329f	-0.037645932
139	0xbbf29b14	-0.0074037407
140	0xbbe6f23b	-0.007047919
141	0xbcf96178	-0.030441985
142	0xbe2e2b32	-0.17008665
143	0xbe3a98a3	-0.18222289
144	0x3e2f1d98	0.17101133
145	0x3e321e89	0.1739446
146	0x3cc7d459	0.024393247
147	0xbcbc4496	-0.022981923
148	0x3dd61da6	0.10454874
149	0x3d83c28b	0.064335905
150	0xbd42a199	-0.047517393
151	0x3d96a179	0.07355017
152	0xbe1545db	-0.14577429
153	0xbd1fd643	-0.039022695
154	0xbd51f2ee	-0.051257066
155	0xbe111f50	-0.14172101
156	0xbd805328	-0.06265861
157	0xbc861c67	-0.016370965
158	0x3c104040	0.008804381
159	0x3d616c83	0.055035125
160	0xbd3d1f9a	-0.046172716
161	0xbde47940	-0.11155939
162	0xbe46267f	-0.19350623
163	0x3bb45a73	0.0055039464
164	0xbd0fda7c	-0.035120472
165	0xbd236def	-0.039899763
166	0xbde67c3f	-0.11254167
167	0xbda8e0d2	-0.08246006
168	0x3d8feec4	0.07027963
169	0xbdc3582c	-0.09538302
170	0xbdb1daec	-0.08684334
171	0xbe05fa6a	-0.13083807
172	0xbdbe6a50	-0.09297621
173	0xbe40ca3f	-0.18827151
174	0x3d04f228	0.0324575
175	0xbd76b2c8	-0.060229093
176	0x3d83a922	0.06428744
177	0x3d9f25c0	0.07770872
178	0xbd20555a	-0.039143898
179	0xbdecb446	-0.11557822
180	0x3e7083b8	0.23487747
181	0xbd652ba9	-0.05594984
182	0xbd9a57aa	-0.07536252
183	0xbda2ceb9	-0.079495855
184	0xbd821e65	-0.063534535
185	0xbb85ff92	-0.0040893042
186	0x3dbc30a3	0.09188964
187	0x3d8383e2	0.06421639
188	0x3d5d2e00	0.053998947
189	0x3e068d76	0.131399
190	0x3bfb2f36	0.00766554
191	0x3e13f6f8	0.1444968
192	0x3d8d4d28	0.06899482
193	0xbc7bb968	-0.0153640285
194	0xbde07f8a	-0.10961826
195	0xbe224552	-0.15846756
196	0xbc645003	-0.013935092
197	0x3d86eba7	0.06587916
198	0xbdcac5c2	-0.099010006
199	0xbd530c35	-0.051525313
200	0xbc915394	-0.017740048
201	0xbca3f403	-0.020013815
202	0xbd4f2a56	-0.050577484
203	0xbccda3e0	-0.025102556
204	0xbdef9800	-0.116989136
205	0xbe086e10	-0.13323236
206	0xbe0a7870	-0.13522506
207	0x3df21e14	0.11822143
208	0xbd767a51	-0.060175244
209	0x3d72d2c4	0.059283033
210	0x3e59c9e7	0.21268426
211	0x3dd5ada7	0.10433512
212	0x3d95b8a4	0.07310608
213	0x3d64b7ce	0.055839352
214	0xbd2073f5	-0.039173085
215	0xbe495527	-0.1966139
216	0x3c027a83	0.007963779
217	0x3e0001fa	0.12500754
218	0xbd9b04a7	-0.07569247
219	0x3ddc5d83	0.107600234
220	0xbd3a9fb7	-0.045562472
221	0xbe478dee	-0.19487736
222	0xbd4c8ca0	-0.049938798
223	0x3d1b131b	0.037860017
224	0x3daf8191	0.08569635
225	0xbc010cd4	-0.007876594
226	0x3cca8442	0.024721269
227	0x3cbb190d	0.022839094
228	0x3d0ca01e	0.034332387
229	0x3c62a695	0.013833662
230	0x3d64a461	0.055820826
231	0x3d45b181	0.048264984
232	0x3d210520	0.03931153
233	0x3cf487b4	0.029849865
234	0x3d221f48	0.039580613
235	0x3d54a12f	0.05191153
236	0xbd93aaf2	-0.072103396
237	0x3d702630	0.05863017
238	0x3cd73b4c	0.026273392
239	0x3ccec0a4	0.025238343
240	0x3e4dbbf8	0.20091236
241	0x3e06bc33	0.1315773
242	0xbd7bed83	-0.061505806
243	0x3c56b1fa	0.013103956
244	0xbe333e9e	-0.17504355
245	0x3d5d4bde	0.05402743
246	0xbba15c43	-0.0049243285
247	0xbe02dcca	-0.12779537
248	0xbd219fa2	-0.03945888
249	0x3cd29378	0.025705084
250	0x3d6b5658	0.05745539
251	0xbda644ec	-0.081186146
252	0xbe191542	-0.14949515
253	0x3c5ee3bb	0.0136041
254	0xbbee4a10	-0.0072720125
255	0xbd817d59	-0.06322736
