artifacts/model_cnn_fold_0.pth (torch, 141777 bytes, 17 tensors)

features.0.weight f4 [32, 8, 5]
000000 80 f2 9c 3e ed fe 9b be 63 2b 24 3e e3 11 7d 3e
       0.30653763 -0.3046793 0.16032176 0.24713854
000010 54 d3 65 be 5e ee c8 bd fe d5 33 3e be fc 1f be
       -0.22443897 -0.0981109 0.175621 -0.15623757
000020 34 b1 c4 bc cb 80 8c 3d dd e9 c4 bd 14 c8 25 3e
       -0.024010278 0.06860503 -0.096149184 0.16189605
000030 e8 06 7b bd dc 0c ad 3c 6e 7b 41 3d bb 93 a9 3c
       -0.061285883 0.021124296 0.047236852 0.020700326
000040 0c 70 c5 bd 13 da 31 3d aa 25 e4 bc ef bc bb 3c
       -0.09640512 0.043420862 -0.02784999 0.022917239
000050 22 3e d9 bd 76 8b cf 3c 7a 8a ca bd e8 83 a9 bd
       -0.10607554 0.025335055 -0.098896936 -0.08277112
000060 2e a1 81 bc 85 51 1b 3d 3c c4 fd 3d f0 04 21 3d
       -0.015823927 0.03791954 0.12390944 0.03931135
000070 08 d3 7a 3d 00 bb 2a 3d 90 22 8f bc eb 0a bd bd
       0.06123641 0.041682243 -0.017472535 -0.09230598
000080 3c ca fb 3b b5 99 17 be 80 9d aa bb b5 7d 55 bc
       0.0076840203 -0.14804728 -0.0052067637 -0.013030459
000090 73 45 01 bc a4 60 81 3d fd c9 ae bd 9b 85 a1 3d
       -0.007890093 0.06317261 -0.0853462 0.07886811
0000a0 39 7d 33 be f9 5a 0d be b4 5b 44 be a1 63 4d be
       -0.17528237 -0.13804235 -0.19175607 -0.20057537
0000b0 5f c7 c9 bd ed f8 c5 ba 60 25 94 bd 11 37 42 be
       -0.0985248 -0.0015104093 -0.07233691 -0.18966319
0000c0 12 bc 94 bd 31 d4 0f be 4e 89 ba bd 15 67 1f be
       -0.07262434 -0.14045788 -0.0910822 -0.15566666
0000d0 0f e7 c0 bd 6e a3 5e bc 11 24 bc bd 7b 3c 4a bd
       -0.09419071 -0.013588769 -0.091865666 -0.049374085
0000e0 95 27 16 3e fa fd 88 3e 80 e8 24 3e 67 47 cc bb
       0.14663537 0.2675627 0.16104317 -0.0062340978
0000f0 71 e1 26 3e 5b e2 b9 3d b8 c9 73 be 25 a9 36 be
       0.16296937 0.09076377 -0.23807418 -0.17837961
000100 65 e5 7a 3d 76 e7 05 3d 2b 0f 5f bd d8 4f 42 3e
       0.061253924 0.03269144 -0.054457825 0.1897577
000110 95 67 a2 3c 34 d8 54 3d df 3e c7 bd 4c 3e d0 bd
       0.019824782 0.051964 -0.097287886 -0.10168132
000120 1c 9d bb 3d a1 3f dc 3c 0c 54 af 3b ed 1f 67 3e
       0.091608256 0.02688581 0.0053505953 0.22570772
000130 bd 73 1e 3e fa a3 2d bd 0d 7d 20 3e 72 36 c1 3d
       0.15473838 -0.04239271 0.15672703 0.09434213
000140 82 c2 97 bd 13 2a 38 bd 3f b8 bd bd a8 ac bf bd
       -0.07410146 -0.044962 -0.09263658 -0.093591034
000150 68 89 0f 3d b2 0f 09 3e 3c 80 bd 3d 6f 35 32 3e
       0.03504315 0.13384894 0.092529744 0.17403196
000160 df 89 0f 3d 6f 98 a6 3d 05 7b 95 3d fc 13 34 3e
       0.035043593 0.08134543 0.07298855 0.17585748
000170 b5 74 71 3e 4f ce 7a 3e 2e 93 5c 3e ca a3 1e 3d
       0.23579676 0.24492763 0.2154052 0.03873042
000180 32 6d f9 3d 8b df 79 3e ab 2a 49 3e 45 6d ac 3e
       0.121790305 0.24401681 0.19645183 0.33677116
000190 8a c2 0d 3d d2 6c fd bc 17 27 26 3d 95 68 3e 3d
       0.034609355 -0.030935679 0.040564623 0.046486456
0001a0 67 4d 9b bd 73 ef ac bd bf 0a 2c bd 14 4b 07 be
       -0.07583123 -0.08444109 -0.042002436 -0.13212234
0001b0 f1 6a d6 bd 99 f8 a4 bd 74 41 1a bd 2a e0 8d bc
       -0.10469616 -0.08055229 -0.037660077 -0.017318804
0001c0 54 ec 2f 3d ac 0e 4c 3c bd 69 4f 3d 5e d6 28 bd
       0.04294999 0.01245467 0.05063795 -0.04122006
0001d0 bb 68 e3 bd fd fa 51 be 70 3e dd bd cc 27 5e be
       -0.1110396 -0.205059 -0.10802925 -0.21694869
0001e0 fa 51 3f 3e 22 e9 54 3c a4 84 42 be b1 a2 0a 3e
       0.18683615 0.012995036 -0.18995911 0.13538624
0001f0 7b ec 45 3e 16 1b ce bc 4e fe ad bd 6c 22 e5 3c
       0.19328491 -0.0251594 -0.084957704 0.027970515
000200 25 8d cf 3d 97 84 63 bd 86 5b 62 3c 12 24 74 3e
       0.10134343 -0.05554637 0.013815766 0.23841885
000210 7d 75 24 3d 1c a6 8c bd 08 f5 8a 3d 63 66 37 be
       0.040151108 -0.0686762 0.06785017 -0.17910151
000220 7a 1e b1 be 88 02 3a be 4b b7 89 3d 17 56 42 bd
       -0.34593564 -0.18165028 0.067244135 -0.047445383
000230 50 48 28 3e e1 8d 27 3c 25 de f0 3c ca 98 b8 bc
       0.16433835 0.010226698 0.029402802 -0.022533793
000240 96 10 3e 3d 59 d3 f7 bd 75 de 7e 3b 92 7e ba 3e
       0.046402536 -0.12100858 0.003888992 0.3642469
000250 49 bb 82 bc 81 7b 59 be 03 71 19 bc 17 fc 07 be
       -0.015958445 -0.21238519 -0.009365323 -0.13279758
000260 34 43 d0 3d 89 6b c1 bd 93 4e 46 be a9 8c 0c be
       0.10169068 -0.09444339 -0.19365911 -0.13725533
000270 6b e8 2e 3d 1b 2e 3d 3d 28 54 bc 3c 35 7f 8e 3d
       0.04270212 0.046186548 0.022989348 0.069578566
000280 7d 68 9a 3d 85 f0 42 3e 33 cb 8b 3e 2e 37 7f 3e
       0.07539461 0.19037063 0.27303466 0.24923393
000290 e0 17 c7 3d 70 24 e6 ba 42 f4 10 be ee eb 33 be
       0.09721351 -0.0017558467 -0.14155677 -0.17570469
0002a0 8f c7 3a be 12 04 a7 3c 2d 10 b5 3c 7d 3d d1 3c
       -0.18240188 0.020387683 0.02210244 0.025542015
0002b0 11 dc e5 bd 64 f9 d2 bd 98 02 5d be ba c4 39 be
       -0.11223615 -0.10301474 -0.2158302 -0.18141451
0002c0 42 6e 2d be 2d 9a 11 3c d3 7a 38 3e 53 8a 7c 3e
       -0.16936591 0.008886856 0.18015604 0.24662142
0002d0 3b e8 bb 3c 69 e1 e3 3d 15 58 2b 3e ec ec b1 3d
       0.022937885 0.11126978 0.1673282 0.086877674
0002e0 34 0e 0d 3c c1 c6 77 bc 76 47 84 bd 95 f5 bb bc
       0.008609343 -0.01512307 -0.064589426 -0.022944251
0002f0 ce d2 65 3c 5a ea 38 3c 5f e8 2d 3d 6e fb bd bd
       0.014027311 0.0112863425 0.042457934 -0.09276472
000300 e9 88 b9 bd 76 9a 9b bd 92 62 aa 3d f5 9c 0e 3d
       -0.09059317 -0.075978205 0.08319582 0.034817655
000310 91 67 3a 3e ff 8f 3d 3e 58 77 ac 3c aa fc 4a bd
       0.1820357 0.18511961 0.021053001 -0.049557365
000320 a5 41 fc bc 0a 3b e5 bd 7e 3b 4e 3d c9 a5 29 3e
       -0.03079302 -0.111929014 0.050349705 0.16567148
000330 ca d4 f4 3c 02 c3 f5 3c f3 63 6f 3c 2f fc b0 bd
       0.029886622 0.030000214 0.014611232 -0.0864185
000340 79 90 13 be 85 c8 cb 3c 88 3f 56 3d f4 29 a9 3c
       -0.1441058 0.024875889 0.052306682 0.020649888
000350 08 62 5e 3d db e2 7e 3d ca 68 83 bd b1 9c 7b bd
       0.05429271 0.062228065 -0.06416471 -0.06142873
000360 ec 96 64 bc c7 da 27 3e 7a 20 63 3e 87 0a 52 3e
       -0.013951998 0.1639205 0.22180358 0.20511828
000370 73 f9 80 bc af af fa bd 02 73 81 be 31 ba 6a be
       -0.015743947 -0.1224054 -0.25283056 -0.22922589
000380 1a 84 ee bd 5e 92 84 3d e3 8d b6 3e fa 99 44 3e
       -0.1164629 0.0647323 0.35655126 0.19199362
000390 9e d3 23 bc 9c 30 20 bd 21 25 ba 3c b6 c4 88 bc
       -0.009999184 -0.039108858 0.022722783 -0.016695362
0003a0 1d df d1 3c 3f 01 10 be 2e 98 d0 bd 4e 47 fc 3b
       0.025619084 -0.14062975 -0.10185276 0.00769893
0003b0 f1 77 46 bd 66 28 d0 bd d6 3d e4 bd 8d 3c bb bd
       -0.04845423 -0.101639554 -0.11144607 -0.091424085
0003c0 e6 1a 07 3e 35 cf 14 3d 7d c4 e2 3d 75 66 68 3e
       0.13193855 0.03633042 0.110726334 0.22695334
0003d0 dc 1c 50 bd c7 57 ea 3d b3 32 42 3c 2b 92 82 bd
       -0.050808772 0.114425234 0.011852908 -0.063755356
0003e0 15 8b 4f 3e e6 bf 8a bd af 06 c3 3b e2 99 52 bd
       0.202679 -0.06774883 0.0059517245 -0.051416285
0003f0 15 e4 01 3e 9b 08 97 bd 87 f8 63 3d 82 94 b1 be
       0.12684663 -0.07374688 0.055656936 -0.34683615

features.1.weight f4 [32]
000000 8c e0 7e 3f 55 fb 78 3f 09 bc 87 3f 0d de 7c 3f
       0.9956138 0.972585 1.0604259 0.9877632
000010 2d 41 7b 3f 0f 96 74 3f e1 4c 77 3f e6 fd 6d 3f
       0.98146325 0.9554147 0.9660168 0.92965543
000020 f3 87 73 3f 80 f6 80 3f c2 9d 88 3f a8 24 67 3f
       0.9512932 1.0075226 1.0673144 0.9029031
000030 9d 3e 82 3f 1b 48 86 3f 0d 93 73 3f 2d df 70 3f
       1.0175358 1.0490755 0.95146257 0.9409054
000040 dd 5e 69 3f f9 ef 7a 3f 1c 99 6a 3f 3a 65 70 3f
       0.91160375 0.9802242 0.91639876 0.9390446
000050 3b e7 64 3f af 5f 6a 3f c2 ed 80 3f 0a 4f 89 3f
       0.8941533 0.9155225 1.0072558 1.0727246
000060 26 34 84 3f 8d 3b 80 3f 53 08 80 3f 03 1d 84 3f
       1.0328414 1.0018173 1.000254 1.0321354
000070 b7 bb 72 3f 5e 52 7b 3f 00 df 6f 3f d5 24 6b 3f
       0.9481768 0.9817256 0.93699646 0.91853076

features.1.bias f4 [32]
000000 0d a6 2c be bf 4a 3c be 85 95 83 bd e3 67 01 be
       -0.16860218 -0.18387888 -0.06425003 -0.12637286
000010 da 11 0d be 2b ea 52 be 24 ca de bd e6 c7 a5 be
       -0.13776341 -0.2059714 -0.10878399 -0.32379073
000020 77 73 2d be ba 55 89 be 77 0d 06 be d9 21 33 be
       -0.16938578 -0.26823217 -0.13091074 -0.1749338
000030 fa fa 56 be 90 51 05 be 0e 1f 32 be 3d bc fa bd
       -0.20994177 -0.13019395 -0.17394659 -0.12242935
000040 92 f6 5b be 8f 23 9e be e4 44 84 bd 2a 04 1d be
       -0.21480778 -0.30886504 -0.06458452 -0.1533362
000050 cc af 4c be ca 94 a3 be 36 ea 2b be c0 58 5a bd
       -0.19988936 -0.31949455 -0.16788563 -0.053307295
000060 35 d5 00 be dd 53 24 be 99 5b 85 bd 78 51 92 bd
       -0.12581332 -0.16047616 -0.065116115 -0.07144445
000070 94 7d 77 be f2 79 55 be 1e bd 12 be cc fe 3b be
       -0.24168998 -0.208473 -0.14329955 -0.18358916

features.1.running_mean f4 [32]
000000 88 1c a8 39 3a ca 79 3c db 90 f8 bc cf ff b2 3b
       0.00032064714 0.0152459685 -0.03034251 0.0054626237
000010 33 24 a6 bc 45 66 67 3b 43 0e 8f 3a 93 24 dc bc
       -0.020280933 0.003530876 0.0010914285 -0.026872909
000020 1c 87 55 ba 89 56 de ba a4 23 c7 bb ee b8 ba bc
       -0.0008145438 -0.0016963045 -0.0060772467 -0.02279326
000030 ba a4 10 bb 70 2c 70 ba 77 ce 1e 3a 14 2b 9b bb
       -0.002207084 -0.0009161895 0.00060579873 -0.00473536
000040 10 03 6b 3c b2 ad 18 bb 33 53 b0 3b 02 d0 2c 3b
       0.014343992 -0.002329689 0.005381012 0.00263691
000050 08 73 d9 3a bf 65 a2 38 07 da 8b ba 84 45 ac 3a
       0.0016590068 7.743714e-05 -0.0010669836 0.0013143276
000060 c1 0e c0 b7 70 60 12 bb fa cc 7f b9 46 92 25 bb
       -2.2895054e-05 -0.0022335313 -0.00024395055 -0.0025264188
000070 3e e3 6a ba cc 5c 74 ba 40 5b 0e bb 27 9e 14 3d
       -0.00089602533 -0.0009321689 -0.002172187 0.03628364

features.1.running_var f4 [32]
000000 4b 56 ad 3d 57 05 9a 3e d4 9b 7e 3f 1c 94 de 3e
       0.08463725 0.300822 0.99456525 0.43472373
000010 d7 39 f6 3e 2a be af 3e fe ab 6e 3e f2 63 01 3f
       0.48091003 0.3432477 0.23307797 0.5054313
000020 f7 b4 4a 3e 83 5e 69 3e 36 2b 4b 3e 2b ef e5 3e
       0.19795595 0.2278996 0.19840702 0.44909033
000030 0d 0d 00 3e 4a 01 98 3e 37 26 d4 3d ea 31 d8 3e
       0.12504978 0.29688483 0.103588514 0.4222558
000040 8d 79 97 3e ad e8 e9 3d ee 44 3b 3e 52 bd 48 3e
       0.29584923 0.114213325 0.18288013 0.1960347
000050 95 3d 86 3e 1c b2 80 3e 9f 8e d2 3d af 4a b3 3e
       0.26218858 0.25135887 0.10281109 0.35017917
000060 78 38 44 3e a9 01 05 3e 26 b8 33 3e db 1c 4a 3f
       0.19162166 0.12988915 0.17550716 0.7895028
000070 14 95 32 3f cf e0 5e 3e 26 f1 01 3e 76 58 a0 3f
       0.69758725 0.21765445 0.12689647 1.2526996

features.5.weight f4 [64, 32, 3]
000000 71 51 6f 3d 35 92 3d 3b be d8 ec bd e3 41 aa 3d
       0.058427278 0.0028926258 -0.11564778 0.08313348
000010 a5 19 38 bd 5d 63 35 be 3a 9a 10 bd a1 6b 3d 3d
       -0.04494633 -0.17713685 -0.035303332 0.04624522
000020 11 3a 5d 3d 01 e9 f2 3d 0c c3 59 bd f9 9e 8e bd
       0.054010455 0.11860848 -0.053164527 -0.069639154
000030 93 0b 4b 3d fa c0 cb 3d 9d 4f b9 3d 23 c5 cc 3c
       0.049571585 0.09948917 0.09048388 0.024996346
000040 67 64 04 3d e4 0a a4 3d be 1b 6d 3d d6 29 d2 bd
       0.032322314 0.0800989 0.057887785 -0.10261886
000050 a7 60 aa bd cc 65 b7 3d 82 99 ef 3b dd ec e0 3c
       -0.08319216 0.08954963 0.0073120007 0.027456695
000060 06 53 22 be 2c 6e 2f be 9a de a1 bd 24 86 41 3d
       -0.15851983 -0.17131871 -0.07903786 0.047247067
000070 60 c8 98 3d a0 e2 cd 3d 64 c8 69 be ec a8 b4 3c
       0.074600935 0.10052991 -0.22830349 0.022053204
000080 48 c4 3c 3e 6a b6 db bd 75 16 82 bc 87 c8 d2 bd
       0.1843425 -0.10728152 -0.015879849 -0.10292154
000090 15 5e 04 3e dc 02 b6 3d f3 13 1c 3c 58 0d e6 bc
       0.12926514 0.08887264 0.009526241 -0.028082535
0000a0 23 c1 cc bd e3 6a 60 bd f3 ec ac bc 70 6b 0f 3c
       -0.099977754 -0.054789435 -0.02110908 0.008753642
0000b0 cf da d4 3b 87 3d 32 3e 11 ae 8f bd 4d 16 47 be
       0.0064958106 0.17406283 -0.070156224 -0.19442101
0000c0 f7 1a 40 3d 7c 7c 8b 3c 80 14 1b bd 40 c8 6e 3d
       0.046900716 0.017027132 -0.037861347 0.058296442
0000d0 2e e4 d8 3d e5 b6 3c 3b 99 2c 6a 3d 6f 3b f1 bd
       0.10590397 0.0028795537 0.057171438 -0.11778914
0000e0 41 15 84 be 57 17 1b bd ed 6a c5 bd 6e 59 f8 bd
       -0.25797465 -0.037864055 -0.09639535 -0.12126432
0000f0 c7 ef 7c 3d 02 b2 59 bd 9a 90 af 3d 01 b0 29 b9
       0.061752107 -0.053148277 0.085725024 -0.00016182663
000100 20 56 1d be 64 d9 ca bd 31 94 97 3d 3e 4e c0 3d
       -0.15364885 -0.09904745 0.07401312 0.093899235
000110 a1 df b4 3d f1 d7 96 3b 48 51 d3 bd 71 68 25 be
       0.08831716 0.004603379 -0.103182375 -0.16153122
000120 8a 01 8c 3b e8 e0 a2 3d e0 98 92 bc fa 41 78 3c
       0.0042726444 0.07953054 -0.017895162 0.015152449
000130 47 4a e9 bd af 8e c8 bd 6b 09 22 bd 47 74 6f 3d
       -0.113911204 -0.0979284 -0.039559763 0.0584605
000140 2b 29 43 3d 1e db 6f be 8a da 0e bd c2 b5 10 bb
       0.047646683 -0.2342343 -0.034876384 -0.0022080992
000150 88 28 1c bc 46 bd a3 3d 68 73 f9 bb 30 b0 42 3e
       -0.009531148 0.079950854 -0.0076126345 0.19012523
000160 de ae 21 3e 8f 3f e7 bd a1 12 df bd ab 41 d7 bd
       0.15789363 -0.1129142 -0.10892225 -0.10510572
000170 05 51 36 be 95 1f 64 3d 17 39 5c bd 19 30 d4 3d
       -0.17804344 0.05569418 -0.053765383 0.103607364
000180 24 bb 9c 3d 07 bf cb 3a 7d 6e 98 3d ca 2b 48 be
       0.07652882 0.0015544601 0.07442949 -0.19547954
000190 9f da d7 bd 0c e8 59 bc 19 54 5c 3d 35 d9 77 3d
       -0.105397455 -0.013299953 0.05379114 0.06050988
0001a0 72 62 b0 bd 71 74 e9 3d 00 26 80 bb c7 ab e8 3d
       -0.08612527 0.113991626 -0.00391078 0.11360889
0001b0 89 e2 89 bd e7 16 85 bd aa 65 50 3d 40 8b 81 3d
       -0.06732661 -0.06498509 0.050878204 0.06325388
0001c0 e2 76 bd bc 77 44 7d 3d 0d 4d 1f be 6e 7c 81 bd
       -0.023127977 0.06183287 -0.15556736 -0.06322561
0001d0 f8 d1 a7 bd 9f 4c 66 3d 48 a2 e1 3c 0c af 33 bd
       -0.08194345 0.056225415 0.027543202 -0.04386811
0001e0 e3 d5 22 bd 28 b4 cc bb e1 67 81 3d df dc 00 3e
       -0.03975476 -0.0062470622 0.063186415 0.12584256
0001f0 ec a7 0e 3e 93 5a 08 3e 2c c1 1e 3d 65 15 06 3d
       0.13931245 0.13315801 0.03875844 0.032735247
000200 28 db 66 3d b2 48 b8 bc 8f 52 98 3d af 5c 40 bc
       0.056361347 -0.022495601 0.07437622 -0.0117408475
000210 97 97 5c be 71 3c a9 bd c2 c6 5b be 31 ee dc bd
       -0.21542202 -0.082634814 -0.21462539 -0.10787619
000220 fb 2a 0e be 9a ba cb bd 20 6a a5 bd 12 26 1a be
       -0.13883583 -0.09947701 -0.08076882 -0.15053585
000230 92 fe 86 3d 3b 8c 62 bd 0b 06 82 3d 9c e6 7a bc
       0.06591524 -0.055309515 0.06348809 -0.015313771
000240 d6 61 aa 3d 22 31 d6 bc 33 3a 61 3c bc 8f 0e be
       0.08319442 -0.026146475 0.013746786 -0.13922018
000250 ee 1c c5 bd 3c 9d 2c 3c 27 14 cb bd a0 7e c7 3b
       -0.096246585 0.0105355345 -0.09915953 0.006088093
000260 a5 ea 0b 3d d5 68 80 bd 1a 90 8a 3d 91 e9 09 bd
       0.03415932 -0.06269995 0.067657664 -0.033670012
000270 5b 00 43 3d 52 2f e6 bc c7 f4 b2 3d 81 87 d3 3d
       0.04760776 -0.028098736 0.08738094 0.1032858
000280 b7 bb a3 3d 18 40 30 3d 7c 93 e2 bd 05 9a af 3d
       0.07994788 0.043029875 -0.11063287 0.08574299
000290 bb 1c 76 3d 07 79 1d be d9 a5 f6 bd f5 20 d6 bd
       0.060085993 -0.153782 -0.12043352 -0.10455505
0002a0 34 c8 2a 3d 7f d2 e5 bd c3 73 5a 3d a8 a1 2c bd
       0.041694835 -0.112217896 0.053333055 -0.042146355
0002b0 e8 7d 05 3d a7 4d 3b bd c5 05 75 be 86 c6 b6 be
       0.032590777 -0.045728352 -0.23927982 -0.35698336
0002c0 66 4d 82 be 85 bb 91 3d 4f 0c 73 3d c2 98 d2 3c
       -0.25449675 0.07115845 0.05933791 0.025707606
0002d0 a5 eb 6a 3d 78 12 d3 3d e3 fe 4b 3e 46 1f f8 bd
       0.057353634 0.10306257 0.1992145 -0.1211534
0002e0 fe 85 e2 bd b9 a7 b7 bd a0 50 b1 bd 6d 43 1a be
       -0.11060713 -0.089675374 -0.08657956 -0.15064783
0002f0 56 80 60 3d ff db fd bc 02 bc 7b bd 9c f9 03 3d
       0.05480989 -0.030988691 -0.061458595 0.032220468
000300 72 f0 7d 3d 8d dc 11 3d 54 ff 6f 3b 34 ea 13 3e
       0.061996885 0.035610724 0.0036620693 0.1444481
000310 56 26 0b 3e a8 95 29 3e 5a e0 0e 3e 6d 45 09 3e
       0.13588843 0.16560996 0.13952771 0.1340539
000320 19 be 53 3e 12 48 3d 3d 9a 78 86 3d b6 5e b1 bc
       0.20677985 0.04621131 0.06565972 -0.021651607
000330 aa 68 35 3d 61 83 0e 3d f4 09 64 3d d2 61 f7 bd
       0.04428927 0.03479326 0.055673555 -0.120792046
000340 28 84 0d be e4 d9 6e bd 6e 2c 03 3e 70 56 00 3e
       -0.13819945 -0.058313265 0.12809917 0.12532973
000350 e6 27 1c 3e 2e c9 08 be b5 c5 42 be 43 94 37 be
       0.15249595 -0.13357994 -0.19020732 -0.17927651
000360 53 71 b2 bd bf cf 90 bd 23 09 7d bd 7b 53 d3 bd
       -0.08713021 -0.070708744 -0.06177629 -0.10318657
000370 e2 e9 07 be 60 7a 21 be 1e 43 8a bd e1 b2 95 bd
       -0.13272813 -0.15769339 -0.06751083 -0.07309509
000380 aa d7 9f bc e2 4e d3 3d 91 af 05 3e 38 31 92 3c
       -0.019512016 0.1031778 0.13055255 0.017845735
000390 61 0f a8 3c aa 2b 2e 3c 68 53 00 bd a0 8b a3 3d
       0.020515146 0.0106305275 -0.031329542 0.07985616
0003a0 6b e6 87 3d 86 27 3c 3d 1d be 75 3c 16 71 e5 3c
       0.066357456 0.04593613 0.01499894 0.028008025
0003b0 e1 67 36 3d f1 35 92 bd e0 95 c1 bd 35 03 65 bd
       0.04453266 -0.07139195 -0.094524145 -0.05591126
0003c0 b5 54 1a be 84 bc 3f be c1 48 1f be 90 39 91 bd
       -0.15071376 -0.18724257 -0.15555097 -0.07091057
0003d0 5d b7 7c bd fe a5 c0 bd c5 e9 0d 3e d4 62 19 3e
       -0.061698306 -0.094066605 0.13858707 0.14979106
0003e0 8c bf 0d 3e 5b fa 87 bd 3f 39 18 be 4a d7 8e bd
       0.138426 -0.066395484 -0.14865588 -0.06974657
0003f0 ed 73 77 bd 06 0b f6 bd 51 e3 bb bd d4 83 00 3d
       -0.06041329 -0.12013821 -0.091742165 0.03137572

features.6.weight f4 [64]
000000 ba 48 63 3f 20 bf 6e 3f 47 22 75 3f fe 03 79 3f
       0.88782847 0.93260384 0.9575543 0.97271717
000010 12 af 5a 3f bd 5e 68 3f 15 5b 82 3f 1f 58 76 3f
       0.85423386 0.9076956 1.0184046 0.9622821
000020 59 ee 7e 3f 7d 55 72 3f 4f a1 6e 3f 82 28 5f 3f
       0.9958244 0.94661695 0.9321489 0.87171185
000030 f3 39 5f 3f 52 b5 7c 3f e4 44 6e 3f 61 33 70 3f
       0.871978 0.9871417 0.9307387 0.938284
000040 28 3e 6c 3f 6b 47 73 3f 4a 9c 5b 3f 15 59 6b 3f
       0.9228234 0.9503085 0.85785353 0.91932803
000050 5c 7a 6f 3f 36 be 88 3f b8 6f 5d 3f f6 ae 6d 3f
       0.9354608 1.0683048 0.86498594 0.92845094
000060 4a 93 88 3f 67 6c 7b 3f 98 61 73 3f b1 07 7a 3f
       1.0669949 0.98212284 0.9507079 0.97667986
000070 26 c3 72 3f a7 44 64 3f 33 5c 6b 3f af bf 82 3f
       0.9482902 0.89167255 0.9193756 1.0214747
000080 a9 cb 66 3f 55 1a 58 3f 13 e6 70 3f 22 59 7e 3f
       0.9015451 0.8441518 0.94101065 0.99354756
000090 a7 fb 5b 3f 62 72 77 3f f2 fe 7a 3f e1 da 75 3f
       0.85930866 0.9665891 0.98045266 0.9603711
0000a0 82 7c 73 3f 22 49 5a 3f 80 b9 80 3f 52 3c 77 3f
       0.9511186 0.8526784 1.005661 0.96576416
0000b0 81 cf 49 3f 1d b5 84 3f 41 b3 89 3f 38 9b 62 3f
       0.7883225 1.0367771 1.0757829 0.88518095
0000c0 14 91 70 3f da 18 6a 3f 1a 89 68 3f 77 9a 7d 3f
       0.9397137 0.9144417 0.908342 0.9906382
0000d0 9b 4d 5f 3f d0 1e 6f 3f e5 98 7c 3f c9 b9 74 3f
       0.8722779 0.9340639 0.986708 0.95595986
0000e0 ac f0 66 3f ff a5 82 3f 9a 5b 82 3f 3f 5b 81 3f
       0.90210986 1.0206908 1.0184205 1.0105971
0000f0 0c c4 74 3f c3 f0 6b 3f 62 37 81 3f 4d 57 7c 3f
       0.95611644 0.9216425 1.0095026 0.9857071

features.6.bias f4 [64]
000000 28 fe 3a be 3b 76 37 be 09 61 8d be b6 9a ad be
       -0.18261015 -0.17916195 -0.27613094 -0.33907098
000010 ea aa a5 be 8b 03 47 be 42 21 ab be c7 6c 60 be
       -0.3235696 -0.19434945 -0.3342381 -0.21916495
000020 ce 87 25 be 69 3f 60 be 20 dd 03 be d3 a2 b2 be
       -0.16165087 -0.21899189 -0.12877321 -0.3488985
000030 8f 01 81 be 26 e2 48 be 59 f9 b9 be 18 0d 45 be
       -0.25196502 -0.19617519 -0.3632305 -0.19243276
000040 2f 7e 3c bd cc 4f 35 be d6 75 be be 7c 53 a6 be
       -0.046018776 -0.17706221 -0.37199277 -0.3248557
000050 2d 46 89 be b8 3d 5c be 16 82 ab be 06 f2 96 be
       -0.26811352 -0.21507919 -0.33497685 -0.29481524
000060 ee 87 90 be 76 f2 af be 1b 95 90 be da c2 b2 be
       -0.28228706 -0.3436467 -0.28238758 -0.34914285
000070 59 08 b1 be 0e 37 93 be 31 ab 4e be 95 af 46 be
       -0.3457668 -0.2875294 -0.20182492 -0.19402917
000080 fc fa b0 be 07 89 a9 be 22 50 d2 bd 9e d9 54 be
       -0.34566486 -0.33112356 -0.1026919 -0.2078614
000090 c9 95 5c be fd f3 8d be 1e 52 c3 be b2 75 31 be
       -0.21541514 -0.2772521 -0.38148588 -0.17330053
0000a0 fd 8d b1 be bf d8 9b be c8 5a 95 be 83 4c bc be
       -0.3467864 -0.30438802 -0.29170823 -0.36777124
0000b0 d9 d7 c8 be 39 9a ef bd 14 09 ab be ab 93 1d be
       -0.3922718 -0.116993375 -0.33405364 -0.15388362
0000c0 8b cb 3d be 09 72 62 be 39 33 65 be 00 da 85 be
       -0.18534677 -0.22113813 -0.22382821 -0.26142883
0000d0 ef 5b 82 be ab 5d a8 be 07 fb c5 bd a8 c1 72 be
       -0.25460765 -0.32883963 -0.0966702 -0.23706686
0000e0 fc 67 20 be a9 e8 bd bd df 08 aa bd 14 13 8f be
       -0.15664667 -0.09272892 -0.08302473 -0.27944243
0000f0 a5 4a 63 be 8e c0 7d be a4 8e 34 be 2b d3 16 be
       -0.22196443 -0.24780485 -0.17632538 -0.14728992

features.6.running_mean f4 [64]
000000 cd 5e 0a bf b4 10 54 bf d6 ab 5c 3e a9 e1 7b bf
       -0.54050905 -0.82837987 0.21549925 -0.98391205
000010 76 e3 43 bf 15 2d fc be ec 97 4e bf 2e e3 2e bf
       -0.7651895 -0.49253145 -0.80700564 -0.683154
000020 44 29 6c bf c3 1b 7c bf 9e 15 fb be 0b d6 70 bf
       -0.92250466 -0.9847986 -0.4903993 -0.94076604
000030 71 74 17 bf a5 6f 5f bf 3d 56 9d bf 4c d3 af bc
       -0.5916205 -0.8727973 -1.2291943 -0.021463059
000040 f3 09 15 bf 92 1f 3e bf 8e b4 29 bf 6a bc 37 bf
       -0.58218306 -0.7426692 -0.6629113 -0.7177187
000050 d5 6a f2 be c7 15 1b bf c2 28 37 bf b6 f6 3c bf
       -0.4734713 -0.60580105 -0.71546566 -0.7381395
000060 23 0d 34 bf be 0d 98 bf e7 ef 80 bf 88 8a 4a bf
       -0.70332545 -1.1879194 -1.0073212 -0.7911763
000070 76 21 83 bf ed 1f 2f bf f2 6d d2 be 7d 1e 85 bf
       -1.0244586 -0.6840809 -0.41099507 -1.0399929
000080 10 6a 29 bf 23 7d 29 bf 1b 49 b0 bf bd 9f 38 bf
       -0.66177464 -0.6620657 -1.377231 -0.7211874
000090 ec 80 40 bf 18 9d 30 bf 13 55 b1 bf 32 c6 34 bf
       -0.7519672 -0.68989706 -1.3854088 -0.7061492
0000a0 50 89 80 bf 4d 19 1e bf e4 a8 25 bf 31 a1 6c bf
       -1.0041904 -0.61757356 -0.6471083 -0.9243346
0000b0 b3 65 74 bf cb d6 1f bf 26 dc 5a bf dc c2 3e bf
       -0.9546768 -0.62437123 -0.8549217 -0.7451608
0000c0 a7 0e 10 bf 0f be c7 be 6f d4 56 bf dd ec 62 bf
       -0.5627236 -0.3901219 -0.839179 -0.88642675
0000d0 0c e6 cb be f4 59 2a bf ef c8 33 3d 26 52 b0 bf
       -0.3982395 -0.6654351 0.043892797 -1.377507
0000e0 5c df 37 bf c0 5d 01 bf 93 42 17 bf 49 39 54 bf
       -0.71825194 -0.50533676 -0.5908596 -0.8289991
0000f0 69 39 65 bf 87 c7 0d c0 ef 03 63 bf ae 54 22 bf
       -0.89540726 -2.2153032 -0.8867788 -0.6341046

features.6.running_var f4 [64]
000000 99 1d a5 3f 1c f3 bb 3f 5d 56 84 3f a3 fd 92 3f
       1.2899657 1.4683566 1.0338856 1.1483654
000010 d6 83 89 3f 15 b5 66 3f 11 25 de 3f 28 32 a1 3f
       1.0743358 0.9012006 1.7355062 1.2593431
000020 e7 47 c3 3f a2 51 c9 3f 95 98 90 3f b6 0c 9c 3f
       1.5256318 1.5728037 1.1296564 1.2191379
000030 c2 57 8a 3f 56 c5 b4 3f 32 b8 e4 3f 6f aa 63 3f
       1.0808032 1.4122722 1.7868712 0.88931936
000040 af 25 85 3f 76 aa 85 3f 6a 3a 98 3f 70 75 85 3f
       1.0402125 1.0442646 1.1892827 1.0426464
000050 c3 5f 7f 3f f8 37 64 3f bf e1 82 3f 5d 1a 74 3f
       0.99755496 0.891479 1.0225142 0.9535273
000060 a9 70 92 3f 59 ee ed 3f 72 22 af 3f c0 7b 78 3f
       1.1440631 1.8588363 1.3682387 0.9706383
000070 2f d9 b0 3f 63 7a 8a 3f 36 53 3b 3f a6 af cf 3f
       1.3816279 1.08186 0.73173845 1.6225479
000080 db 8f 91 3f 31 7a a4 3f 36 84 fc 3f c8 b7 a8 3f
       1.1372026 1.284979 1.9727848 1.3181086
000090 d9 05 9d 3f ef 3e 54 3f 48 37 19 40 e1 2e 8f 3f
       1.226741 0.8290853 2.393999 1.1186181
0000a0 ff 4d b0 3f c6 3c 8f 3f 36 6c 93 3f 00 ce c0 3f
       1.3773803 1.1190422 1.1517398 1.5062866
0000b0 e4 5b a8 3f 11 66 b8 3f 95 6c d8 3f bb ac 50 3f
       1.3153043 1.4406148 1.6908137 0.81513566
0000c0 5c 7c 93 3f 35 61 8e 3f dc ab 87 3f fb 66 e7 3f
       1.1522326 1.1123415 1.0599322 1.8078302
0000d0 e7 47 63 3f ab 5f 7b 3f a9 e2 60 3f 15 bd db 3f
       0.8878159 0.9819285 0.87845856 1.7167078
0000e0 61 97 90 3f f2 da ac 3f 75 5b 98 3f 79 10 d3 3f
       1.1296197 1.3504317 1.190291 1.6489402
0000f0 30 4e a3 3f be 10 76 40 5e f1 ab 3f 04 c0 92 3f
       1.2758236 3.8447719 1.3433034 1.1464849

features.10.weight f4 [128, 64, 3]
000000 14 7d f4 bd e2 4a 02 bd 2c 5a d0 bd ec 06 b3 3c
       -0.11937919 -0.031809695 -0.10173449 0.021853887
000010 b1 d7 42 bd 1e 87 df bc f9 18 bf ba 07 38 01 bc
       -0.04756898 -0.027286109 -0.0014579586 -0.007886893
000020 52 49 23 bd 15 b9 e4 bc 99 ea 2f bc 36 11 99 bd
       -0.039864846 -0.027920285 -0.010737085 -0.07473986
000030 ad d1 88 bc 02 74 5f 3d ba 1b 3a 3d 6a 1d 14 be
       -0.016701544 0.054553993 0.0454366 -0.14464346
000040 2a 60 be bd e1 e1 be bd 8b 99 8e bc f1 6b 0a be
       -0.092956856 -0.09320427 -0.0174072 -0.13517739
000050 50 19 7d bd 25 9c 6b 3d fb 80 0b 3c 90 ad 90 bb
       -0.061791718 0.057521958 0.008514638 -0.0044152215
000060 f9 4b a6 3d ac 81 9a 3d f2 84 45 3d 0a 05 33 3d
       0.081199594 0.07544264 0.04822249 0.043705977
000070 1e d7 ce bc 0e 8d 12 bb 9e e0 27 bc 1d 43 0a bd
       -0.02524906 -0.0022361907 -0.010246424 -0.03375541
000080 1e 39 a4 bd e4 5c 91 bd 26 66 9d bd 9d aa a5 bd
       -0.08018707 -0.070977956 -0.07685499 -0.080891825
000090 3c 69 b2 3d 7c 92 ac bb 5d 43 89 3d 65 0a ab bd
       0.08711478 -0.0052664857 0.06702302 -0.08351592
0000a0 5a 94 a6 bd fa af b8 bd c8 7e ff 3d bc 1c 6e bc
       -0.081337646 -0.0901794 0.124753535 -0.014533218
0000b0 df 3d d7 3d cb 46 50 be ff 7d a3 be a2 b3 53 be
       0.10509848 -0.20339505 -0.31932065 -0.20673993
0000c0 bb 9b 8b bd 9d a2 da bd 09 20 7f bd 45 5e 2f bd
       -0.068168126 -0.10675547 -0.06228641 -0.04281451
0000d0 a4 94 9b bc 86 4c c2 bc 95 e9 de 3c ef 7e 8c 3c
       -0.018991776 -0.02371813 0.02721099 0.01715037
0000e0 91 6b ae 3c 37 87 f7 3c 7c 40 61 3d 25 8e 7d bb
       0.021291526 0.030215843 0.054993138 -0.003868946
0000f0 b9 3d b4 bc 2a 66 a9 bd fc 6c 4c bd 03 88 9e bd
       -0.022002088 -0.082714394 -0.049908623 -0.07740786
000100 da 9e 5b bc 90 af 25 bd 73 44 74 bd bf 75 cb bd
       -0.013404572 -0.040450633 -0.05963559 -0.09934568
000110 fe fb fc bd 0c 74 37 be 1e 5e 01 be 6b 44 d6 bd
       -0.12352751 -0.17915362 -0.12633559 -0.104622684
000120 e1 55 3d be 41 fc 25 be 66 e2 57 be de f2 bb 3d
       -0.18489791 -0.16209508 -0.21082458 0.091771826
000130 b9 eb 26 3d 1f 74 60 3d b4 a8 91 3d 70 7d a1 3d
       0.040752146 0.05479824 0.07112256 0.078852534
000140 ce 87 a7 3d 38 83 0f bc 51 c9 c9 3b 23 88 88 3b
       0.081801996 -0.008759312 0.006158032 0.0041666194
000150 12 d2 9b 3c ca 2e c5 3d ac aa e2 bb 22 29 82 bd
       0.019021068 0.09628065 -0.0069173183 -0.06355502
000160 59 75 c3 bd 28 20 b7 bd 53 72 95 bd 2f 22 c2 bd
       -0.09543867 -0.0894168 -0.07297196 -0.09479176
000170 a2 3e d9 bd 73 86 33 3d 30 62 29 3d c1 8b 8b 3d
       -0.106076494 0.043829393 0.041353405 0.06813765
000180 55 5e fb bd b7 20 09 bd 16 c3 e7 bc 58 66 1c bd
       -0.12273852 -0.033478465 -0.028291266 -0.03818354
000190 6f b0 ce bd b1 15 ba bd e6 7f b7 bc 8b c3 e0 3c
       -0.10092246 -0.090861686 -0.022399854 0.027436992
0001a0 01 9b 22 bc 3b 0d c7 bd 74 75 39 bd 8b 7a 51 bd
       -0.009924651 -0.097193204 -0.045278028 -0.051142257
0001b0 aa 95 a0 bd ac 66 c3 bd f2 e3 16 be 18 ce fd bd
       -0.07841046 -0.095410675 -0.14735392 -0.12392825
0001c0 4c 35 9c bd 3d 3a 9e bc a5 b4 56 3d e9 04 42 bb
       -0.07627353 -0.01931488 0.05241837 -0.0029604977
0001d0 1c db 2b 3d e4 40 be bd 1a cf f2 bb af a8 4d bd
       0.041957006 -0.09289721 -0.0074099423 -0.050209697
0001e0 5c df 50 bd e0 4b 55 bd 32 00 a5 bd ce 70 75 3c
       -0.050994262 -0.052074313 -0.08056678 0.014980508
0001f0 38 f3 19 bd 1c ba 02 3d b4 2a db bd 14 b3 16 be
       -0.037585467 0.03191577 -0.10701504 -0.1471675
000200 af 42 50 be fb 4e 7f 3d 8a a0 24 bd 01 d4 ba 3c
       -0.20337938 0.06233118 -0.040192164 0.02280617
000210 6c 9f f9 3c af ef 61 bd c5 db 8c 3d 7a bc bf 3d
       0.030471526 -0.05516022 0.06877855 0.09362121
000220 52 fe d7 bc e7 19 96 bd 52 3f 5f be da 30 a5 bd
       -0.026366387 -0.07329159 -0.21801499 -0.08065958
000230 05 8b 2e be 91 ae 99 3c 9c 09 53 bc 63 45 a6 3d
       -0.17045219 0.018759998 -0.012880709 0.08118703
000240 a7 72 40 be 2b bd 0f be c5 24 cc bd 1d d6 4a be
       -0.18793736 -0.14037006 -0.09967951 -0.1980824
000250 ef 03 ad bd 42 f8 e5 bd 25 55 c3 3c 75 5c 87 3d
       -0.08448016 -0.11228992 0.023844311 0.06609432
000260 48 77 8e bc 03 fc 52 bd 2b 2c 57 bd b6 7d 49 bd
       -0.017390862 -0.05150987 -0.052532356 -0.049192153
000270 f3 b8 2a 3d 1e 4a 0c 3d f1 b3 bf bc 60 ae ab bd
       0.041680288 0.03425037 -0.023401232 -0.08382869
000280 3b f3 15 be 10 a0 43 bd f9 a6 15 bd 2c 63 33 bd
       -0.14643566 -0.04776007 -0.03653619 -0.04379575
000290 9a 2e dc bc 10 f7 d4 bd fe 3f 2e bd 83 45 80 bd
       -0.02687769 -0.10398686 -0.042541496 -0.06263258
0002a0 d7 f7 02 3d 5f 27 f0 bc 0a fc d9 bc f4 3c 1b 3e
       0.03197464 -0.029315649 -0.02660944 0.1515997
0002b0 6a 54 9b 3c 93 f4 d1 ba 56 72 96 bd 7d 6c f4 bd
       0.01896115 -0.0016018323 -0.073460266 -0.11934755
0002c0 29 08 39 be 27 fb e1 bd fd 55 dc bc 27 3c 06 be
       -0.18069519 -0.11034232 -0.026896471 -0.13108884
0002d0 88 85 3b bd 35 95 37 bd 43 df 7c bd 3b 74 95 3d
       -0.045781642 -0.04482003 -0.061736356 0.0729756
0002e0 57 29 70 bb 25 4b ca b9 42 bf d1 3d eb 9e 03 3d
       -0.0036645734 -0.0003858443 0.10241558 0.032133978
0002f0 e9 66 32 3d 35 0d 75 3d 44 1b 25 bd a1 fd 9f bc
       0.043555174 0.05982705 -0.040309206 -0.01953012
000300 9f 61 ca bd 1b 79 70 bd 0c 4f 97 bc 6f 0a c5 3d
       -0.09881901 -0.058709245 -0.01847031 0.09621131
000310 48 57 5b 3d 63 1f fa 3c 19 7d 40 bd 28 44 52 3c
       0.053550035 0.030532544 -0.046994302 0.0128336325
000320 66 c3 b5 3b a6 7d 0d bd 6b d2 2c be 12 c4 6f be
       0.005546975 -0.034543656 -0.16877143 -0.23414639
000330 12 69 89 bc 22 80 dd 3c ba 8d 09 bd 31 29 b8 bc
       -0.016773734 0.027038638 -0.033582427 -0.02248058
000340 b3 cb 3c bd 45 e1 68 bd bd 8c 91 bd 12 dc 9d bc
       -0.0460927 -0.05685546 -0.07106922 -0.019269977
000350 b5 1e 4a bb 1a 2e 11 bc 06 67 b8 3c 8a 7e 63 3c
       -0.0030841057 -0.008861089 0.022510063 0.01388515
000360 b3 ba 20 3d db 65 3b bd 69 0e 64 bd be 26 86 bd
       0.03924055 -0.045751434 -0.055677805 -0.06550358
000370 db 77 57 be 4a 8f da bd 87 c4 99 3d b8 d7 3b bd
       -0.21041815 -0.106718615 0.07508188 -0.045860022
000380 f4 88 11 3d 31 37 6b 3e 07 75 47 3d 85 6a bf 3d
       0.035531 0.22970273 0.04869559 0.09346489
000390 e1 6b 1c bc 1b 3e 04 3d 01 4d 14 bd fb 12 43 3d
       -0.009547205 0.03228579 -0.03620625 0.047625523
0003a0 9c f6 9f ba cb 27 f8 3c dd 6c c1 3d dc 75 68 3d
       -0.0012204233 0.030292412 0.09444592 0.056753024
0003b0 f2 43 09 bc 46 6d 7e be b0 81 57 be 5b 19 57 be
       -0.008378016 -0.24846372 -0.21045566 -0.21005766
0003c0 f0 87 0e bd 80 4d 18 3d c2 43 2b bd b5 56 07 bd
       -0.03479761 0.037183285 -0.041812666 -0.033041675
0003d0 52 4a d5 bd 5f db 7a bd 3a c8 9d 3c 5a 71 85 bc
       -0.10414566 -0.061244365 0.019260515 -0.016289402
0003e0 bb 95 59 3d 7e 54 59 bd c2 6c b5 bd 84 01 84 bd
       0.05312131 -0.053059094 -0.088586345 -0.064456016
0003f0 e7 a6 8a 3c 38 70 39 bd 9c 0d 53 bc 71 15 ff bc
       0.016925288 -0.045273036 -0.012881663 -0.031138154

features.11.weight f4 [128]
000000 7d 03 87 3f ba fe 8e 3f be 46 8c 3f cf 9e 89 3f
       1.054794 1.1171486 1.0959089 1.075159
000010 28 4b 84 3f 45 db 83 3f 3e 87 87 3f 37 d3 86 3f
       1.0335436 1.0301291 1.0588148 1.0533208
000020 0c 83 84 3f a4 f6 85 3f 2d 58 92 3f 6e 3f 88 3f
       1.0352492 1.0465894 1.1433159 1.0644357
000030 57 ed 83 3f 9e b4 8e 3f 38 03 84 3f bd ca 85 3f
       1.0306805 1.114887 1.0313482 1.0452496
000040 43 f0 87 3f 31 69 8c 3f 9e b6 8a 3f f8 e1 85 3f
       1.0620197 1.0969602 1.083698 1.0459585
000050 d1 ef 8f 3f e0 3c 8c 3f 00 e8 85 3f aa 03 89 3f
       1.1245061 1.0956078 1.0461426 1.0704243
000060 71 87 87 3f 2e 67 8a 3f f6 c4 80 3f 9a 00 8e 3f
       1.0588208 1.0812738 1.0060108 1.1093934
000070 8c f2 8e 3f 29 b4 94 3f c7 d7 84 3f 28 19 88 3f
       1.116777 1.161748 1.037835 1.0632677
000080 24 57 90 3f 12 27 87 3f 9a 7f 85 3f 16 90 88 3f
       1.1276593 1.0558798 1.0429566 1.0668972
000090 02 bd 8b 3f 84 d4 8f 3f 00 fd 8a 3f 89 d2 8d 3f
       1.0917056 1.123673 1.085846 1.1079875
0000a0 9d e3 8d 3f 25 8c 8b 3f 2d e2 8c 3f 09 7c 86 3f
       1.1085087 1.0902144 1.1006523 1.0506603
0000b0 8d 55 86 3f a3 b4 8c 3f 3c fe 8d 3f ad 9a 8e 3f
       1.0494858 1.0992626 1.1093211 1.1140953
0000c0 e0 63 88 3f c9 f0 83 3f 4d 2c 86 3f 24 0c 82 3f
       1.065548 1.0307857 1.048227 1.0159955
0000d0 32 24 84 3f 33 82 86 3f b9 3a 8e 3f 10 6d 87 3f
       1.0323546 1.0508484 1.1111671 1.0580158
0000e0 e8 e8 89 3f dd 03 88 3f 7f 5f 86 3f ac 5d 81 3f
       1.0774202 1.0626179 1.0497893 1.0106711
0000f0 db 9b 88 3f 53 82 88 3f a6 9a 87 3f 13 ad 8a 3f
       1.0672563 1.0664772 1.059407 1.0834068
000100 2f ae 8f 3f 84 48 8d 3f bb 6f 85 3f 5c 2a 89 3f
       1.1225032 1.1037755 1.0424722 1.0716052
000110 4d a5 8b 3f f9 bd 84 3f ef 07 85 3f dd 43 8b 3f
       1.0909821 1.0370475 1.0393046 1.0880085
000120 68 f1 84 3f 1a f4 87 3f ad 87 8a 3f d2 72 88 3f
       1.0386171 1.0621369 1.0822655 1.066004
000130 e0 ac 85 3f 9e a2 8c 3f 5e f3 8b 3f 34 b6 82 3f
       1.0443382 1.0987127 1.0933645 1.0211854
000140 db 3d 82 3f 0e 5c 88 3f f7 6d 8d 3f cf 9a 8d 3f
       1.0175127 1.0653093 1.1049184 1.1062869
000150 31 7e 90 3f cc a4 90 3f 5d 6f 8b 3f c1 98 8b 3f
       1.128851 1.1300292 1.089336 1.0905992
000160 53 08 88 3f 75 79 87 3f 38 1c 88 3f 3f 43 87 3f
       1.062754 1.0583941 1.0633612 1.0567397
000170 7c 79 82 3f e0 05 88 3f 52 96 8c 3f 5a 79 8b 3f
       1.0193324 1.0626793 1.0983374 1.0896409
000180 bc 0c 83 3f 63 63 87 3f f8 9e 8d 3f 27 67 82 3f
       1.0238261 1.0577205 1.1064138 1.018773
000190 14 60 8b 3f 68 4b 8d 3f 85 9f 8e 3f 49 7f 8c 3f
       1.0888696 1.1038637 1.1142431 1.0976344
0001a0 77 35 8c 3f 06 0b 8a 3f a9 cc 85 3f b2 db 8b 3f
       1.0953816 1.0784614 1.0453082 1.0926421
0001b0 59 36 87 3f c6 0b 8a 3f 54 5a 85 3f 9c 0e 86 3f
       1.056346 1.0784843 1.0418191 1.0473208
0001c0 4b 16 8a 3f c5 43 8d 3f 67 e4 87 3f b3 d8 8c 3f
       1.0788053 1.1036307 1.0616578 1.1003631
0001d0 3e 44 88 3f b0 13 8f 3f 3c 5a 8a 3f 8b e8 81 3f
       1.0645826 1.1177883 1.0808787 1.0149091
0001e0 ec f7 84 3f 78 06 89 3f 17 fd 84 3f f0 96 91 3f
       1.038816 1.0705099 1.0389737 1.1374187
0001f0 80 d2 89 3f fb 71 84 3f 48 0b 85 3f 73 63 84 3f
       1.0767365 1.0347284 1.0394068 1.034285

features.11.bias f4 [128]
000000 f8 ca 62 bd fe ad 15 be ea a6 93 3d a7 9b a6 bd
       -0.055369347 -0.14617154 0.07209571 -0.08135157
000010 a8 49 4c bd 27 99 8d bd cb fd bc bd 76 22 97 bd
       -0.04987493 -0.06913977 -0.09228095 -0.0737962
000020 1b 9e f7 bd dc 63 5b bd 1b 4f cd bc 34 00 0c be
       -0.12090703 -0.05356203 -0.025062134 -0.13671952
000030 1f d1 4e bd c0 a6 29 bd 05 63 b5 bd 6c 11 74 bd
       -0.050492402 -0.04141879 -0.08856777 -0.059586927
000040 18 db b9 bd 93 00 14 be c4 14 12 3d b8 c5 57 bd
       -0.09074992 -0.14453344 0.035664335 -0.052678794
000050 ea 3e d2 bd b4 e7 1b be c8 c2 f4 bc a5 c9 0c 3d
       -0.10265906 -0.15225106 -0.029878035 0.03437199
000060 11 04 b0 bd 4a 81 69 bd 41 78 6b bd 51 1b 63 3d
       -0.085945256 -0.057008065 -0.05748773 0.055445973
000070 8c a2 ac bd 00 66 d1 bc c6 b6 24 bc 5b d5 a2 bd
       -0.08429441 -0.025561333 -0.010053342 -0.079508506
000080 4c 6f 7c bd db 0d 8b bd 19 67 4a be d1 33 f7 bc
       -0.06162958 -0.06789752 -0.19765891 -0.030176075
000090 60 68 43 bb 3f d0 74 bc cd 6d b5 bd 83 a0 92 bd
       -0.002981685 -0.014942228 -0.088588335 -0.071595214
0000a0 0a db b8 bd 63 e7 0c 3d 4a 15 cc bd 80 a4 06 be
       -0.090261534 0.034400355 -0.09964998 -0.1314869
0000b0 02 18 0a be 60 aa 11 be 47 96 8b bd 52 7b 95 3d
       -0.13485721 -0.14225149 -0.068157725 0.07298912
0000c0 3c e0 c2 bd ef 82 2b bd 62 a8 b2 bc 80 a7 40 bd
       -0.095154256 -0.041872915 -0.021808807 -0.04703474
0000d0 e2 8d b1 bd a7 98 00 3d f3 53 bb bd c2 ad ea bd
       -0.0866964 0.03139558 -0.091468714 -0.11458923
0000e0 dc cd 90 bd 83 9f d2 bd 11 d1 98 bd f1 fb 10 bd
       -0.070705146 -0.10284331 -0.07461751 -0.03539652
0000f0 e8 c0 99 3c fd da 9a bd 6b 17 57 bd 18 34 24 be
       0.018768743 -0.075613 -0.052512567 -0.16035497
000100 56 16 04 3d 30 b9 fb bd e3 b6 73 bd 05 78 b9 bd
       0.032247864 -0.12291181 -0.059500586 -0.09056095
000110 41 2f b4 bd d1 29 7c bd c9 0a 61 bd 08 b8 70 bd
       -0.087980755 -0.061563317 -0.054941926 -0.058769256
000120 d9 7e 0d bd e5 3c 6f 3c 79 10 85 bd ca b3 86 bb
       -0.0345448 0.014601921 -0.064972825 -0.004110788
000130 50 50 86 bd 12 c2 8b 3c 9f f0 59 bd 94 12 d7 bd
       -0.06558287 0.017060313 -0.05320799 -0.1050159
000140 4c 0c b6 bd 13 80 3d bc e5 89 de bc 07 47 58 bd
       -0.08889064 -0.01156618 -0.027165363 -0.052802112
000150 08 f7 40 3b 11 4d be bd e2 ec 20 bd d1 21 63 3d
       0.0029444117 -0.09292043 -0.03928841 0.05545217
000160 91 8e b0 bd 3d cd bb bd 44 cb 74 bd 2b 07 cf bc
       -0.086209424 -0.091700055 -0.05976416 -0.025271973
000170 44 8a a7 bd dd 24 fc bd 70 1b 23 3d 8e 06 af bc
       -0.08180669 -0.123117186 0.03982109 -0.02136543
000180 05 b0 8e bd 71 80 4d bd 35 8b 04 bd 88 26 84 bc
       -0.06967167 -0.05017132 -0.03235932 -0.016131654
000190 9d 8d 90 3c 5a 79 55 bd d4 8e 20 be f6 4a b9 bc
       0.017645651 -0.052117683 -0.15679485 -0.022618752
0001a0 73 57 e1 bd 43 df ff bc 29 a0 14 bd 3d 43 df bd
       -0.11003008 -0.03123439 -0.036285553 -0.109014966
0001b0 cb 1b a3 bd 7f 85 e0 bc 8d f7 9c bd ed 95 2f bd
       -0.079642855 -0.027407406 -0.07664404 -0.04286759
0001c0 11 2f 87 3d 60 1e 59 bd 99 c3 d6 3c 72 3e 4c bd
       0.06600774 -0.053007483 0.026216315 -0.04986424
0001d0 7c 68 a8 3c 15 c3 c8 bd 6c 98 a5 bc ff 53 ca bd
       0.020557635 -0.09802834 -0.020214282 -0.09879302
0001e0 28 7f 75 bd 38 7b d5 bd 99 9d 99 bd 64 e8 e7 bc
       -0.05993572 -0.10423893 -0.075007625 -0.028309055
0001f0 0d 99 62 bd 25 cd e1 bd 52 a2 3c bd d5 f2 bd bc
       -0.05532174 -0.11025456 -0.04605324 -0.02318708

features.11.running_mean f4 [128]
000000 0b fc 0e c0 d2 d2 aa bf 2a ba 77 bf 13 c6 99 bf
       -2.2341335 -1.3345587 -0.9676844 -1.2013572
000010 36 97 2b bf 49 24 68 bf 64 4f be 3e 2f d7 c4 bf
       -0.67027605 -0.90680367 0.37169945 -1.5378169
000020 ab f3 fb bf d6 e8 e3 bf 10 58 93 be 2b ab 90 bf
       -1.9683737 -1.7805431 -0.28778124 -1.1302236
000030 55 7a 48 bf eb cf c5 bf 3a b9 e5 bf 25 03 ac bf
       -0.78311664 -1.5454077 -1.7947152 -1.343846
000040 90 d8 6d bf f7 cd d5 be 24 8c 5a bf 50 eb 86 bf
       -0.92908573 -0.417587 -0.8537009 -1.0540562
000050 c2 5c d2 bf aa 81 8a 3f 9a 57 e0 3e 78 26 c1 bf
       -1.6434557 1.082082 0.43816835 -1.5089865
000060 21 cd 91 bf 38 83 16 be eb df 05 bf 61 ad fd bf
       -1.1390725 -0.14698493 -0.52294797 -1.9818536
000070 f4 62 74 be 68 fb 92 3e 17 cf c7 bf e8 31 29 be
       -0.23865873 0.28707433 -1.5610074 -0.16522944
000080 de e8 01 c0 ca 84 65 bf 5e 56 0e 3f db 2c b2 bf
       -2.029838 -0.89655745 0.55600536 -1.3919939
000090 2f db ec bf c0 55 85 3e cb cc f1 bf 5e 74 a9 bf
       -1.850439 0.26041985 -1.8890623 -1.3238637
0000a0 d5 bd d6 bf f8 6f ac bf 29 a7 4e bf 52 65 70 3f
       -1.6776682 -1.347167 -0.80723816 0.939046
0000b0 ca 56 dc be de b3 6f bf 50 55 b5 bf 0e 92 75 bf
       -0.43034965 -0.9363383 -1.416666 -0.95925987
0000c0 b1 a7 af bf cc 96 06 c0 2b a0 26 bf 03 17 8e be
       -1.372305 -2.102954 -0.65088147 -0.27751932
0000d0 20 e3 ea be c7 44 b2 bf 92 5b 6f bf 71 ed af bf
       -0.45876408 -1.3927239 -0.934991 -1.3744336
0000e0 fc 9a b7 bc 69 3a ce 3d 31 25 2c bf bf bb 9d bf
       -0.02241277 0.100697346 -0.6724425 -1.232292
0000f0 74 87 bc bf 44 49 bb bf e0 9e 54 bf 98 6a e3 bf
       -1.4728837 -1.4631734 -0.83054924 -1.7766905
000100 63 35 e4 bf 77 40 b6 bf 0c 76 d1 bf 90 9e e8 bf
       -1.7828792 -1.4238423 -1.636415 -1.817339
000110 3d 1b df bf 54 9f 90 bf 5f 88 bc bf b9 b0 cc bf
       -1.7430187 -1.1298623 -1.4729117 -1.5991431
000120 ef 45 7a 3e fa 47 ba bf 45 1c 15 c0 e3 ac 3e bf
       0.2444074 -1.4553216 -2.3298504 -0.74482554
000130 06 b7 a8 bf fc cb d0 bf 8d 1b f1 bf 6a b5 b1 bf
       -1.3180854 -1.6312251 -1.8836533 -1.3883488
000140 30 59 ce bf a1 0d b0 bf 7b b6 c7 bf 7c 43 47 3f
       -1.6120968 -1.3754159 -1.5602564 0.7783735
000150 e8 81 99 bf d2 83 d9 bf 85 5e d1 bf d5 55 2e be
       -1.1992769 -1.6993353 -1.635697 -0.1702493
000160 d1 e5 c5 bf 8d 50 d4 be b3 40 55 3f 57 8f 1e bf
       -1.5460759 -0.41467705 0.8330185 -0.6193747
000170 20 ce 47 bf d9 bb a0 be 19 bc 4a bf 1b 50 c5 bf
       -0.78048897 -0.31393316 -0.79193264 -1.5415071
000180 ce 59 88 bf 0d 7d a0 bf 32 21 e8 bf b2 39 da bf
       -1.0652406 -1.2538162 -1.813513 -1.7048857
000190 d5 38 cd bf 26 09 a6 bf 0a 85 e0 be f8 ba e5 bf
       -1.6032969 -1.2971542 -0.438515 -1.7947683
0001a0 8a 4f 0f 3e b6 04 e2 bf b4 9c e0 bf e6 ea f0 bf
       0.13995185 -1.7657688 -1.7547822 -1.8821685
0001b0 1e 46 74 be 42 df d9 bf e1 c2 6e bf 07 92 94 bf
       -0.23854873 -1.7021258 -0.9326611 -1.1607064
0001c0 05 e9 b0 bf 6c c9 e4 be fc a4 bf bf 7f 20 a8 bf
       -1.3821112 -0.44684923 -1.4972224 -1.3134917
0001d0 07 7f 37 bf 59 11 93 bf b0 72 e9 bf 19 34 89 be
       -0.71678203 -1.1489669 -1.8238125 -0.2679756
0001e0 bc 6a a1 bf e1 d7 c0 bf 9c 40 4e bf d1 06 76 3f
       -1.2610698 -1.5065881 -0.80567336 0.9610415
0001f0 52 3e bf bf db 5e 0b 3f fe ba b6 3d 5a 8b b2 bf
       -1.4940894 0.5444161 0.08922385 -1.3948777

features.11.running_var f4 [128]
000000 f7 37 a6 3f 8a d8 5c 3f c8 2b c5 3f 41 b4 5b 3f
       1.2985829 0.8626791 1.5403986 0.8582192
000010 dc d0 5c 3f d4 a3 89 3f a7 71 37 3f 8e 83 87 3f
       0.86256194 1.0753121 0.71657795 1.0587022
000020 84 a6 4e 3f c8 b8 57 3f 9f 71 3d 3f 1f c7 47 3f
       0.8072283 0.8426633 0.740015 0.7803821
000030 7c 25 b0 3f 01 4b 4f 3f ca 3f 4c 3f 62 6d 78 3f
       1.3761439 0.8097382 0.79784834 0.97041905
000040 4a 62 40 3f 28 3a 63 3f bd 69 8e 3f 79 1f a8 3f
       0.7514998 0.88760614 1.1126019 1.3134605
000050 87 68 93 3f ab 25 40 3f 60 20 1c 3f 8e f6 a2 3f
       1.1516274 0.75057477 0.609869 1.2731493
000060 8e 81 24 3f 15 30 4b 3f 45 66 5c 3f 0a 05 90 3f
       0.64260185 0.7937024 0.8609355 1.1251538
000070 b0 1b 95 3f 34 b5 3e 3f c5 ed 71 3f ba 07 03 3f
       1.1649075 0.74495244 0.9450343 0.51183665
000080 71 01 6d 3f e6 64 74 3f d5 ef 38 3f 51 f9 5a 3f
       0.92580324 0.9546646 0.72240955 0.85536677
000090 0d 65 91 3f 36 bf 5c 3f e3 8b 3a 3f 96 d4 25 3f
       1.1358963 0.86229265 0.728697 0.64777505
0000a0 ec 3d 38 3f 92 b0 d4 3f c3 05 3d 3f 29 06 4c 3f
       0.71969485 1.6616385 0.73836917 0.796969
0000b0 c3 fc 8d 3f f6 21 5b 3f ae fd 41 3f 48 ea 7c 3f
       1.1092762 0.85598695 0.7577771 0.98794985
0000c0 a5 e6 8d 3f 1e 8c 88 3f 1b 1a 2a 3f 22 cd 3b 3f
       1.1086012 1.066776 0.66446084 0.7335988
0000d0 64 39 36 3f 70 e6 aa 3f 3a 91 1d 3f a0 16 44 3f
       0.7118132 1.3351574 0.61549723 0.76597023
0000e0 a0 30 3d 3f 08 14 94 3f c3 5b 4f 3f 0a 6f 6d 3f
       0.7390232 1.1568613 0.8099939 0.9274756
0000f0 a6 e6 ba 3f f2 0d 37 3f fb d1 29 3f a2 3f 4b 3f
       1.4601638 0.71505654 0.6633603 0.7939397
000100 a9 ab 70 3f 68 80 96 3f 44 2f 8a 3f 14 6d 90 3f
       0.9401193 1.1757936 1.0795674 1.1283288
000110 69 9d 32 3f 14 38 7d 3f ed 7e cd 3f e2 a6 2e 3f
       0.6977144 0.98913693 1.605436 0.6822339
000120 64 f3 45 3f a2 1c 4f 3f 19 25 99 3f db 6c af 3f
       0.7732451 0.80903065 1.1964446 1.3705095
000130 26 c0 34 3f a8 2c 5a 3f 2c e4 87 3f f9 02 66 3f
       0.70605695 0.8522439 1.0616508 0.89848286
000140 88 24 7b 3f 04 ed 86 3f 59 19 40 3f ac ab 46 3f
       0.9810262 1.0541081 0.7503868 0.776057
000150 8d 5e 2d 3f 16 3d 4e 3f b0 1f 82 3f 3d 17 89 3f
       0.677224 0.8056196 1.016592 1.0710217
000160 fe 4e 87 3f bc 93 58 3f 38 8e 56 3f 8e cd 7a 3f
       1.0570982 0.84600425 0.8381076 0.979699
000170 dc 5a 51 3f 40 8c 34 3f 37 57 aa 3f 3b 8d 9e 3f
       0.81779265 0.70526505 1.3307866 1.238685
000180 93 97 66 3f f7 8a 6a 3f 6b ac 87 3f 57 9b 91 3f
       0.90075034 0.91618294 1.0599493 1.1375531
000190 2d 2c 8f 3f 7b 69 ba 3f 18 38 40 3f 87 76 67 3f
       1.1185356 1.456344 0.7508559 0.90415233
0001a0 9b 93 46 3f b2 7e 5e 3f 5a 1e 64 3f 82 04 8b 3f
       0.7756898 0.8691207 0.8910881 1.0860751
0001b0 f4 7c 9b 3f 53 69 a4 3f c1 2f b5 3f f0 c8 80 3f
       1.2147508 1.2844642 1.4155198 1.0061321
0001c0 1c cf d6 3f 55 d1 b9 3f 2b 6a b1 3f 9d 7e 50 3f
       1.6781955 1.4517008 1.3860525 0.81443197
0001d0 da 0c 98 3f d5 53 75 3f f3 b9 ac 3f db a4 7d 3f
       1.1878922 0.9583104 1.3494247 0.99079674
0001e0 53 9f b4 3f 84 7f c3 3f 6d 02 60 3f 2a 85 3d 3f
       1.4111122 1.527329 0.875037 0.7403132
0001f0 f3 e1 25 3f 4a 0a 4a 3f 87 dc 6b 3f 80 9b 8f 3f
       0.64797896 0.7892195 0.92133373 1.121933
