artifacts/model_resnet_fold_3.pth (torch, 472227 bytes, 47 tensors)

stem.0.weight f4 [32, 8, 5]
0	0x3dd27510	0.10276234
1	0x3d7bb56a	0.061452307
2	0xbe34b13f	-0.17645739
3	0xbdd44219	-0.103641696
4	0x3d49df3b	0.049285155
5	0x3d509aba	0.05092881
6	0xbd6005d0	-0.054693043
7	0xbde8e068	-0.11370927
8	0x3b09afb1	0.0021009261
9	0x3dd8b2eb	0.10581001
10	0xbe59cd95	-0.2126983
11	0x3d3da259	0.046297405
12	0x3e1e42da	0.1545519
13	0x3da89374	0.082312495
14	0xbdd9eeeb	-0.10641273
15	0x3dd0c605	0.10194019
16	0xbde8c8de	-0.113664374
17	0x3de889c8	0.11354405
18	0x3ccfd8c9	0.025371926
19	0xbc8dacf8	-0.017294392
20	0x3daa36f2	0.08311261
21	0xbe047509	-0.1293527
22	0x3dc07c9c	0.09398767
23	0xbd5e0262	-0.05420149
24	0xbd0106c9	-0.03150061
25	0x3e141292	0.14460209
26	0xbc6025ce	-0.013680888
27	0xbcd7b7f1	-0.026332827
28	0x3ddac010	0.10681164
29	0x3d5871ee	0.052843027
30	0xbd5cc7cc	-0.05390148
31	0xbe202a95	-0.15641244
32	0x3e39a8e6	0.18130836
33	0x3e18720d	0.14887257
34	0xbe18e726	-0.14931926
35	0xbd837e86	-0.06420617
36	0x3e515989	0.20444311
37	0xbe3b1da6	-0.18273029
38	0xbe295e75	-0.16539939
39	0x3e239213	0.15973692
40	0xbd71e367	-0.05905476
41	0xbdc1a962	-0.09456135
42	0xbdcd73bd	-0.10031841
43	0x3d2d85d1	0.042363945
44	0xbcbf8ce1	-0.023382606
45	0xbcbd77a0	-0.02312833
46	0x3c21fe9e	0.009887366
47	0xbdc715ab	-0.0972093
48	0xbdcf6674	-0.10126963
49	0xbca10058	-0.019653484
50	0x3da188a0	0.07887387
51	0x3cfa145c	0.030527286
52	0xbc3592e1	-0.011082382
53	0xbe081b3f	-0.13291644
54	0xbd6c6094	-0.05770929
55	0xbdc63952	-0.09678902
56	0xbd364e18	-0.04450807
57	0x3da4231f	0.08014511
58	0x3dd67b63	0.10472753
59	0x3c2cf990	0.010557547
60	0x3e187832	0.14889601
61	0xbcb6b42b	-0.022302708
62	0x3d32889f	0.043587323
63	0x3da48eba	0.080350354
64	0xbdd17c2a	-0.102287605
65	0xbe25f566	-0.16206893
66	0xbe5e148d	-0.21687527
67	0xbea33f18	-0.31884074
68	0xbe538659	-0.20656718
69	0x3d36a670	0.04459232
70	0x3db7b22f	0.08969533
71	0x3de404df	0.111337416
72	0x3cd9f264	0.026604839
73	0x3e14d8d3	0.14535837
74	0xbd8e8a5f	-0.06959986
75	0x3d072b37	0.033000197
76	0x3d27fd70	0.04101318
77	0x3e7aa858	0.2447828
78	0x3d4bd528	0.04976383
79	0x3ddbe2a2	0.10736586
80	0x3ce74303	0.028230196
81	0x3d462a00	0.048379898
82	0x3d8ef224	0.069797784
83	0xbe34d5ce	-0.17659685
84	0xbccdb7ea	-0.025112111
85	0x3d35b77c	0.044364437
86	0x3c2f6e10	0.010707393
87	0x3dd35fb7	0.103209905
88	0xbe022cf0	-0.12712455
89	0xbd2a4995	-0.04157408
90	0x3cb9d3ff	0.022684095
91	0xbba56c2e	-0.0050482964
92	0xbd2711ae	-0.040788345
93	0xbd98b6be	-0.0745673
94	0xbc1231fc	-0.00892305
95	0x3cd0a034	0.025467016
96	0x3db9197e	0.090380654
97	0x3ddbd33b	0.107336484
98	0x3e59d256	0.21271643
99	0xbc1e3b39	-0.0096576745
100	0x3aa8596f	0.0012844036
101	0xbe2b0252	-0.16700104
102	0xbe413643	-0.18868355
103	0x3eae67e4	0.34063637
104	0x3e86d2e1	0.26332763
105	0x3be16f84	0.006879749
106	0x3d8678dc	0.06566021
107	0xbe0f3302	-0.13984302
108	0xbd1ed0ff	-0.038773533
109	0xbd35f9b8	-0.044427603
110	0xbcc4983d	-0.023998374
111	0x3d6dbefc	0.058043465
112	0x3ce1eb80	0.027578115
113	0x3d82aa1f	0.06380104
114	0xbe1576ec	-0.14596146
115	0xbdb551c7	-0.088534884
116	0xbda81a9f	-0.082082026
117	0x3d211c0d	0.039333392
118	0xbe184737	-0.14870916
119	0x3d0612a3	0.032732617
120	0xbe5066b0	-0.20351672
121	0xbdcdf08a	-0.10055645
122	0xbdc52414	-0.09626022
123	0x3dbdee8f	0.09274017
124	0x3dee60e0	0.11639571
125	0x3d1be8ee	0.038063936
126	0x3c54e509	0.012994059
127	0x3e1a7f48	0.15087616
128	0x3dd9a005	0.106262244
129	0xbd08b185	-0.03337242
130	0x3dcf25a4	0.10114601
131	0x3d76c144	0.060242906
132	0xbe8cce8d	-0.27501336
133	0x3e190be0	0.14945936
134	0x3c327892	0.010893004
135	0x3e1d16d5	0.15340741
136	0x3ccf6be2	0.025319997
137	0xbd9dfcca	-0.07714231
138	0xbdb370f6	-0.0876178
139	0xbe515f47	-0.20446502
140	0xbc710a8f	-0.01471199
141	0xbe2c19a9	-0.16806664
142	0x3df69c8a	0.12041576
143	0xbe01756b	-0.12642448
144	0xbdad781f	-0.08470177
145	0xbd75abb8	-0.059978217
146	0x3d78371d	0.060599435
147	0x3db86605	0.09003834
148	0xbe36c021	-0.17846729
149	0x3d368cba	0.0445678
150	0x3dd03442	0.101662174
151	0xbdf5e0ec	-0.12005791
152	0xbe1bf98a	-0.1523191
153	0x3ddfcbcb	0.10927542
154	0xbddd6f10	-0.10812199
155	0x3b685833	0.0035452961
156	0xbb128a79	-0.0022360368
157	0x3e239ef6	0.15978608
158	0x3d93f6c5	0.07224802
159	0x3d9d81f5	0.07690803
160	0xbd96b303	-0.073583625
161	0xbdb1234d	-0.08649311
162	0xbcec63f4	-0.028856255
163	0x3e1899b7	0.14902388
164	0xbd969a08	-0.07353598
165	0xbd0ff4da	-0.035145618
166	0xb93ccb80	-0.00018004887
167	0xbd4001ae	-0.046876602
168	0xbb98b8ec	-0.0046607163
169	0xbcff8935	-0.031193355
170	0x3d4ed231	0.050493423
171	0xbb65dc5c	-0.0035073971
172	0xbc853dbb	-0.016264787
173	0x3e41003e	0.18847749
174	0xbe4f6616	-0.20253786
175	0x3dba7a60	0.091053724
176	0xbdd4ea3e	-0.10396241
177	0x3e692a3f	0.22770022
178	0x3b4209da	0.0029607923
179	0x3d9917e7	0.07475262
180	0xbd5d5c5a	-0.05404315
181	0x39bf26a5	0.0003645915
182	0x3dd551c6	0.10415988
183	0xbd020d68	-0.031751066
184	0x3dfd667f	0.12373065
185	0xbe4f2245	-0.20227917
186	0xbdc06a89	-0.0939532
187	0x3bffb6f9	0.0078037945
188	0x3e218e69	0.15776981
189	0xbd11bf2e	-0.035582714
190	0x3e41e061	0.1893325
191	0x3e49b57e	0.1969814
192	0xbe671b6e	-0.22569057
193	0xbe379d49	-0.17931093
194	0x3d9a7521	0.07541872
195	0xbcab7e6a	-0.020934302
196	0x3b2d36cb	0.0026430364
197	0xbd9d601e	-0.076843485
198	0xbd232d75	-0.039838273
199	0x3d9ff67e	0.078106865
200	0x3dfe4433	0.12415352
201	0xbe62d4f0	-0.22151542
202	0x3e003782	0.12521175
203	0xbd4ea78f	-0.050452765
204	0xbd91d5b7	-0.07120841
205	0xbe172515	-0.1476024
206	0xbce795be	-0.028269645
207	0x3d09b868	0.03362313
208	0x3d8a2822	0.06745936
209	0x3e15ecab	0.14641063
210	0x3daedb83	0.08537962
211	0x3c0f9f10	0.008765951
212	0x3e09f2c6	0.13471517
213	0x3e01ad26	0.12663707
214	0x3dc4c134	0.09607163
215	0xbcfe351c	-0.031031184
216	0xbd9dbaac	-0.077016205
217	0x3d5b995c	0.05361305
218	0x3d82dec7	0.06390148
219	0xbda250a5	-0.07925538
220	0x3c93d870	0.018047541
221	0xb78b92f5	-1.6638523e-05
222	0xbe257d43	-0.16161065
223	0xbdf7f6cb	-0.12107619
224	0x3e128cf2	0.14311579
225	0x3de01b5e	0.1094272
226	0x3d443ac4	0.047907606
227	0x3cd0231e	0.02540737
228	0xbd9fea54	-0.078083664
229	0xbddbe051	-0.10736144
230	0xbd98bb68	-0.0745762
231	0x3e420024	0.18945366
232	0xbd888379	-0.066657014
233	0xbbb87a4c	-0.0056298133
234	0x3d8be77e	0.06831263
235	0xbd3a5717	-0.04549321
236	0x3d2b195a	0.041772224
237	0xbe41a178	-0.18909252
238	0xbe0e06a6	-0.13869724
239	0xbd65d3ea	-0.0561103
240	0xbe0650a5	-0.13116701
241	0x3e063dd8	0.13109529
242	0xbe07e26b	-0.13269965
243	0x3db43b30	0.088003516
244	0xbcdd9b76	-0.027051669
245	0xbdbc8161	-0.092043646
246	0x3cb02279	0.021500813
247	0xbd920884	-0.071305305
248	0xbd183de1	-0.037168387
249	0xbc1e8033	-0.00967412
250	0xbd4e65de	-0.050390117
251	0xbe10a5aa	-0.14125696
252	0xbd947d2a	-0.07250436
253	0xbd4d6911	-0.050149027
254	0xbe4032cf	-0.18769382
255	0x3d311108	0.043229133

stem.1.weight f4 [32]
0	0x3f7ac71c	0.97960067
1	0x3f7b8ed7	0.9826483
2	0x3f894e69	1.0727054
3	0x3f742845	0.95373946
4	0x3f768c9c	0.963083
5	0x3f817e3d	1.011665
6	0x3f7f7999	0.9979492
7	0x3f8239a1	1.0173837
8	0x3f7508c3	0.95716494
9	0x3f835b7e	1.0262296
10	0x3f76096a	0.96108115
11	0x3f880b53	1.0628456
12	0x3f82c95a	1.0217698
13	0x3f83f256	1.030833
14	0x3f8370c2	1.0268786
15	0x3f8140ac	1.0097861
16	0x3f8b5387	1.0884866
17	0x3f84eb52	1.0384314
18	0x3f87165b	1.0553697
19	0x3f70fdf3	0.94137496
20	0x3f73793a	0.9510685
21	0x3f824107	1.0176095
22	0x3f83dba8	1.0301409
23	0x3f824ee1	1.0180322
24	0x3f81239c	1.0088992
25	0x3f8065b0	1.0031033
26	0x3f827610	1.019228
27	0x3f7abd48	0.9794507
28	0x3f833403	1.0250248
29	0x3f895d04	1.0731511
30	0x3f80e935	1.0071169
31	0x3f8084b3	1.0040497

stem.1.bias f4 [32]
0	0xbbc1afac	-0.0059108343
1	0xbd954b1c	-0.072897166
2	0x3ba7519e	0.005106165
3	0x3deaf5b5	0.11472646
4	0x3cbb2d70	0.022848815
5	0x3d3f103a	0.046646334
6	0x3d47d71a	0.04878912
7	0x3d7b3b4f	0.061335858
8	0x3d10f087	0.035385635
9	0xbe01c799	-0.12673797
10	0x3cc2d054	0.02378098
11	0xbe07d78c	-0.13265818
12	0x3df06b4d	0.11739216
13	0xbd95865b	-0.07301017
14	0x3cb829ab	0.022480806
15	0xbd0c1c0a	-0.034206428
16	0x3cf2491a	0.029575873
17	0xbe335aad	-0.17515059
18	0x3e224f66	0.158506
19	0x3e020572	0.1269739
20	0x3de557fd	0.11198423
21	0x3cfd99af	0.030957071
22	0x3d506949	0.050881658
23	0x3dab4ca2	0.08364226
24	0xbc94f4aa	-0.018183071
25	0x3cf804e8	0.030275777
26	0xbd9e0e60	-0.077175856
27	0xbc8e30ff	-0.017357348
28	0xbb3be890	-0.0028672554
29	0xbc375026	-0.0111885425
30	0x3dc723ac	0.09723601
31	0xba877f96	-0.0010337706

stem.1.running_mean f4 [32]
0	0xbb9f7e7c	-0.004867373
1	0x3c4fff72	0.01269518
2	0xbacb0410	-0.0015488882
3	0x3c005d2a	0.007834712
4	0xbb0052e8	-0.0019580666
5	0x3abfe0e8	0.0014639171
6	0x3d23b5a4	0.039968148
7	0x3c221837	0.009893469
8	0xbb3264b1	-0.0027220661
9	0xbc830eb7	-0.015998228
10	0x3c718e4e	0.014743401
11	0x3ba77f29	0.005111594
12	0xbc3d1716	-0.011541149
13	0xbb7bb5e3	-0.0038407973
14	0xba59aad6	-0.00083033496
15	0xbaaf0965	-0.001335424
16	0x38a22370	7.731363e-05
17	0x3b1ada36	0.00236286
18	0x3aea793a	0.0017888912
19	0xbc9c2728	-0.01906164
20	0x3b8b3dad	0.0042492957
21	0xbb2f5e15	-0.0026758958
22	0xbb204bfb	-0.002445935
23	0xb8e153be	-0.00010744434
24	0x3ba9f64e	0.0051868325
25	0xbd40de54	-0.04708703
26	0xbb1be4c3	-0.0023787476
27	0x3beab878	0.0071631037
28	0x3bc42252	0.0059855366
29	0x3c18cb54	0.009325821
30	0xba729117	-0.00092531875
31	0x3bc5b07e	0.0060330024

stem.1.running_var f4 [32]
0	0x3e039886	0.12851152
1	0x3e22f470	0.15913558
2	0x3e67e5ad	0.22646208
3	0x3e5fdfa8	0.21862662
4	0x3e62fa3c	0.2216577
5	0x3e4fdc3c	0.20298856
6	0x3f42b49b	0.7605683
7	0x3ec90284	0.39259732
8	0x3ea87e09	0.32908657
9	0x3eabd10f	0.33557937
10	0x3eccb598	0.39982295
11	0x3e42098c	0.18948954
12	0x3ea5f2fa	0.3241194
13	0x3d9e9b30	0.077444434
14	0x3e8124dd	0.25223437
15	0x3deabf7a	0.114623025
16	0x3e29c5a4	0.165793
17	0x3e56e82e	0.20987007
18	0x3d8f9394	0.0701057
19	0x3e89254e	0.26786274
20	0x3edbdb7e	0.42940897
21	0x3e6bcd0b	0.23027436
22	0x3e073af8	0.13206089
23	0x3eb3eaa7	0.35139963
24	0x3ed60af3	0.4180523
25	0x3f854c3e	1.0413892
26	0x3e7da396	0.24769434
27	0x3e4e1118	0.20123708
28	0x3dd9f099	0.106415935
29	0x3e60824a	0.21924701
30	0x3dd36f15	0.103239216
31	0x3ecd6793	0.40118083

layer1.conv1.weight f4 [32, 32, 3]
0	0x3e11a953	0.14224748
1	0x3db15058	0.086579025
2	0x3d6db1b6	0.058030806
3	0xbbf69166	-0.007524657
4	0x3d5ddca6	0.054165505
5	0xbb50fa4f	-0.0031887477
6	0x3ceac6da	0.028659273
7	0xbc7def33	-0.015498924
8	0x3c005b7c	0.007834312
9	0xbdd85096	-0.105622455
10	0xbdaf097a	-0.085467294
11	0xbd5f4364	-0.054507628
12	0x3d9a4769	0.07533152
13	0x3d862945	0.0655084
14	0xba06ecb2	-0.00051469647
15	0xbe1ff2f7	-0.15620027
16	0xbdae3ef8	-0.08508104
17	0xbd8c7e41	-0.068600185
18	0xbde3ffb9	-0.111327596
19	0xbcf7a9e9	-0.030232387
20	0x3c8b04ff	0.016970156
21	0x3d36c450	0.044620812
22	0x3e25b02d	0.16180487
23	0x3e2a6025	0.16638239
24	0xbd3b2356	-0.045687996
25	0x3d078378	0.033084363
26	0xbd2063e3	-0.03915776
27	0x3e031c22	0.128037
28	0x3d8211ff	0.06351089
29	0x3d88a6d5	0.06672446
30	0x3c9f2f33	0.019431686
31	0x3c9b54ba	0.0189613
32	0x3a6f60a0	0.0009131525
33	0xbe114e6d	-0.14190073
34	0xbe01ccaf	-0.12675737
35	0xbdd23478	-0.10263914
36	0x3d1395b4	0.03603144
37	0xbd472f4a	-0.048629083
38	0xbda70812	-0.08155836
39	0x3c254a54	0.010088522
40	0x3cf632cf	0.030053524
41	0x3d87c67d	0.066296555
42	0x3cdda37f	0.0270555
43	0x3d9df969	0.07713587
44	0xbd3cff54	-0.046141937
45	0xbe229a47	-0.15879165
46	0xbe1c3c48	-0.1525737
47	0x3c4d22c0	0.012520492
48	0x3da4827f	0.08032703
49	0x3b8fd8a3	0.004389839
50	0x3d0ad4d9	0.033894394
51	0xbd47a145	-0.048737783
52	0x3d234791	0.039863173
53	0x3d93494b	0.07191714
54	0xbc8eec59	-0.017446684
55	0xbdb36437	-0.08759349
56	0xbe15f1e5	-0.14643057
57	0xbd2301c2	-0.0397966
58	0xbb3b791a	-0.0028606118
59	0xbd5d4428	-0.054020077
60	0x3d8fa245	0.07013372
61	0xbdbbed0e	-0.09176074
62	0xbdbe4121	-0.09289766
63	0x3debb210	0.11508572
64	0x3dd45a51	0.10368789
65	0xbd26bc88	-0.04070714
66	0xbdd65b09	-0.10466582
67	0xbdac8560	-0.08423877
68	0xbe09dcbd	-0.13463111
69	0x3dcbdf41	0.09954692
70	0xbdd6a226	-0.10480146
71	0xbe4b5137	-0.198552
72	0x3d1978b9	0.037468646
73	0xbce69fc2	-0.02815235
74	0x39c2dd38	0.00037167384
75	0x3d395655	0.04524835
76	0xbd7f6b31	-0.062358085
77	0x3dc54a21	0.096332796
78	0x3e0a0fb2	0.1348255
79	0x3dfa30a6	0.1221631
80	0x3ceb42c0	0.028718352
81	0xbd272347	-0.040805127
82	0x3ccdf27b	0.025140038
83	0x3d7e7470	0.062122762
84	0x3d53570a	0.05159668
85	0xbda8d617	-0.082439594
86	0xbdded362	-0.10880162
87	0xbd8adc84	-0.06780341
88	0xbd0238da	-0.0317925
89	0x3bea06a0	0.007141903
90	0x3d14fe32	0.036375232
91	0xbaa0564b	-0.0012232749
92	0x3da558e0	0.08073592
93	0xbcb21098	-0.021736428
94	0xbd844bac	-0.06459746
95	0xbddff019	-0.10934467
96	0x3d7600e5	0.060059447
97	0x3950363a	0.00019856627
98	0xbd8f3d15	-0.06994072
99	0x3d0621fd	0.032747258
100	0xbdd70db8	-0.105006635
101	0xbdb774d9	-0.08957834
102	0x3dfab5a7	0.12241679
103	0x3ca2bc67	0.019865228
104	0xbdf0800b	-0.11743172
105	0xbbd00021	-0.0063476716
106	0x3dad4c2b	0.084617935
107	0xbb10ad88	-0.002207609
108	0xbd7c5487	-0.06160405
109	0xbe15879a	-0.14602509
110	0xbe10aee3	-0.14129214
111	0xb9e3f5d1	-0.00043479961
112	0xbb6bdadb	-0.0035988602
113	0xbdce2415	-0.10065476
114	0xbd56fdd3	-0.05248816
115	0x3df756ba	0.12077089
116	0x3c89400f	0.016754178
117	0xbcb94c01	-0.02261925
118	0x3d6c0b88	0.057628185
119	0x3cfd7790	0.0309408
120	0x3d2104b0	0.03931111
121	0x3d7bc940	0.061471224
122	0xbd151eaa	-0.036406197
123	0x3bb69114	0.005571494
124	0x3d3aa603	0.045568477
125	0x3ddb6ac0	0.1071372
126	0xbaf1ffac	-0.0018463037
127	0x3d8dfeeb	0.06933387
128	0xbd8fe648	-0.070263445
129	0x3e01e5a1	0.12685253
130	0x3c6f5a5d	0.014608947
131	0xbda740bd	-0.08166645
132	0x3d18f6a4	0.03734459
133	0xbe289b2e	-0.16465446
134	0xbccc2261	-0.024918737
135	0xbc54507d	-0.012958643
136	0x3d07a155	0.033112843
137	0x3c8921cb	0.016739747
138	0xbc997350	-0.018731743
139	0xbc059939	-0.008154207
140	0xbe0cc370	-0.13746428
141	0xbd555be5	-0.05208959
142	0x3a273d61	0.00063796906
143	0x3dc9ac7c	0.09847352
144	0x3c910bb4	0.017705776
145	0x3e36982e	0.1783149
146	0x3c4bbc2c	0.012435
147	0xbd1622f7	-0.03665444
148	0x3e33815d	0.17529817
149	0xbcc46589	-0.023974197
150	0xbe1acdd4	-0.1511758
151	0xbe366e43	-0.17815499
152	0xbd822444	-0.06354573
153	0xbc01b72e	-0.007917209
154	0x3dad9f52	0.084776536
155	0x3c6f3e0b	0.014602195
156	0x3c967240	0.018365026
157	0xbe05b596	-0.13057551
158	0x3d61ce9b	0.055128675
159	0xbcaa0eba	-0.020758975
160	0xbdb657ee	-0.0890349
161	0xbde004d1	-0.10938419
162	0xbd86443d	-0.06555984
163	0x3d68d324	0.056841984
164	0xbde7ddf7	-0.11321633
165	0xbdfcf019	-0.123504825
166	0xbd1a97d0	-0.037742436
167	0x3da30f1a	0.07961865
168	0xbce3647d	-0.027757877
169	0x3d86a829	0.06575043
170	0xbdac10d2	-0.08401646
171	0xbdd45b9b	-0.10369035
172	0xbd40b623	-0.0470487
173	0xbd9b49e2	-0.075824514
174	0x3d19fba9	0.037593517
175	0xbd148097	-0.036255445
176	0x3dc18828	0.09449798
177	0xbde85d52	-0.113459244
178	0x3c19a054	0.009376604
179	0xbd29d83e	-0.04146599
180	0xbe08e23c	-0.13367552
181	0xbdb3cd33	-0.08779373
182	0xbcf7ca18	-0.030247733
183	0x3dd12ded	0.10213838
184	0xbdf6b994	-0.12047115
185	0xbd37c39d	-0.044864286
186	0x3d523099	0.051315878
187	0x3dccc8bc	0.099992245
188	0x3d759d2c	0.059964344
189	0x3c29f8ec	0.010374289
190	0xbc77acec	-0.015116911
191	0xbde7ae79	-0.11312575
192	0x3dbf3da8	0.09337932
193	0xbd7652e5	-0.060137648
194	0xbd0a8419	-0.033817384
195	0xbd068067	-0.032837298
196	0x3d7b9c21	0.061428193
197	0xbd3697fd	-0.04457854
198	0xbe09a0e1	-0.13440277
199	0xbdca4386	-0.0987616
200	0x3c22f1b5	0.009945323
201	0x3d978ae9	0.07399542
202	0x3cad8e3c	0.021185987
203	0xbd70ddef	-0.058805402
204	0xbc1eec69	-0.009699919
205	0x3cf28688	0.029605165
206	0x3ce6e696	0.028186124
207	0x3d6e3ddc	0.058164462
208	0x3ddbbfe3	0.10729959
209	0xbbf61ffe	-0.007511138
210	0xbded513c	-0.1158776
211	0x3c1b83d5	0.00949188
212	0x3d4ef2c2	0.05052448
213	0xbdf7aee1	-0.120939024
214	0x3dc18d92	0.094508305
215	0x3db8278b	0.08991917
216	0xbd856779	-0.065138765
217	0xbd896f2d	-0.06710658
218	0x3bbbf94c	0.0057365056
219	0xbb61a859	-0.0034432618
220	0xbd1f8318	-0.03894338
221	0xbc848484	-0.01617647
222	0xbd66066a	-0.05615846
223	0xbd9ce240	-0.07660341
224	0xbd3d3563	-0.04619349
225	0x3dd08063	0.10180738
226	0xb9f77438	-0.000471981
227	0xbca38b43	-0.019963866
228	0xbd0565f5	-0.032567937
229	0xbe390b87	-0.18070804
230	0xbe06bd11	-0.1315806
231	0xbdf63954	-0.12022653
232	0xbe120779	-0.14260663
233	0xbd105819	-0.035240266
234	0x3c768ff8	0.015048973
235	0xbd49efea	-0.049301066
236	0x3dc91881	0.09819127
237	0x3c164652	0.009172039
238	0x3e093a7b	0.13401215
239	0x3cf1667b	0.029467812
240	0xbe027ffd	-0.12744136
241	0xbd6a09c4	-0.05713822
242	0x3d0acdfc	0.03388785
243	0x3cfcb106	0.03084613
244	0xbd30a0f6	-0.043122254
245	0xba751bfe	-0.00093501795
246	0xbcf8d0e9	-0.030373054
247	0xbd8c4d3b	-0.06850668
248	0xbd93dd96	-0.072199985
249	0xbcac41fe	-0.021027561
250	0xba095e67	-0.00052402023
251	0xbddc97e4	-0.10771158
252	0xbc5482bc	-0.012970623
253	0xbd9217a3	-0.071334146
254	0x3d1d0352	0.038333245
255	0x3deec957	0.11659496

layer1.bn1.weight f4 [32]
0	0x3f7e5efd	0.9936369
1	0x3f82a537	1.020667
2	0x3f6e4f04	0.9308932
3	0x3f720de3	0.9455244
4	0x3f83dd2c	1.0301871
5	0x3f81b45c	1.0133166
6	0x3f7770de	0.96656597
7	0x3f7f0480	0.9961624
8	0x3f70277c	0.9381025
9	0x3f84d560	1.0377617
10	0x3f7b810b	0.9824378
11	0x3f7f55e7	0.9974045
12	0x3f7c2b7b	0.98503846
13	0x3f8041c4	1.002007
14	0x3f85bd4c	1.0448394
15	0x3f63803d	0.8886755
16	0x3f6ba0f6	0.9204248
17	0x3f7f1064	0.99634385
18	0x3f79e6a6	0.97617567
19	0x3f6b41a0	0.9189701
20	0x3f84f383	1.0386814
21	0x3f820437	1.0157536
22	0x3f83b536	1.0289676
23	0x3f6fa774	0.9361489
24	0x3f830f6d	1.0239083
25	0x3f7958e1	0.97401243
26	0x3f86facb	1.0545286
27	0x3f77edb3	0.96847075
28	0x3f7a0a10	0.97671604
29	0x3f857f99	1.0429565
30	0x3f7eeeb4	0.9958298
31	0x3f7a2456	0.97711694

layer1.bn1.bias f4 [32]
0	0xbdca2ba3	-0.09871604
1	0xbe3782a1	-0.17920925
2	0xbdac8af5	-0.084249415
3	0xbdda42c0	-0.10657263
4	0xbdcd7faa	-0.100341156
5	0xbddd998e	-0.10820304
6	0xbd70d011	-0.058792178
7	0x3cbac2e4	0.02279801
8	0xbd9a9812	-0.07548536
9	0xbbdf2197	-0.006809424
10	0xbd87e478	-0.06635374
11	0xbdabac05	-0.083824195
12	0xbe407588	-0.18794835
13	0xbd9d3523	-0.07676151
14	0xbd9615b0	-0.07328355
15	0xbe29fb6a	-0.16599813
16	0xbdb0cf3b	-0.08633276
17	0xbe018b19	-0.12650718
18	0xbda5aed7	-0.08089989
19	0xbdc9dc7e	-0.09856509
20	0xbd244cf5	-0.040112454
21	0xbdefd4e9	-0.11710531
22	0xbc69d667	-0.014272309
23	0xbdcf3e4b	-0.10119303
24	0xbdbea2c6	-0.0930839
25	0xbd564659	-0.052313183
26	0xbcf97711	-0.030452283
27	0xbd4dfb28	-0.05028835
28	0xbe02332b	-0.12714832
29	0xbd1782f7	-0.036990132
30	0xbd3f1c3d	-0.04665779
31	0xbe007f92	-0.12548664

layer1.bn1.running_mean f4 [32]
0	0xbf092d98	-0.53585196
1	0xbf52bfaf	-0.82323736
2	0xbee2f20a	-0.44325286
3	0xbf17fca5	-0.5936988
4	0x3dc6972e	0.09696804
5	0xbe92df09	-0.28685787
6	0xbdc839cc	-0.09776649
7	0xbe799f35	-0.24377139
8	0xbf01eb34	-0.50749516
9	0x3f27ef5e	0.6559962
10	0x3e551fc2	0.20812896
11	0xbe94949d	-0.29019633
12	0xbf2e5891	-0.6810389
13	0xbebf82a2	-0.37404352
14	0xbe95950c	-0.29215276
15	0xbf158d01	-0.5841828
16	0xbe674982	-0.22586635
17	0xbe9c4498	-0.30521083
18	0xbec330bd	-0.38123122
19	0xbe3ebb5a	-0.18626156
20	0xbe30f6a1	-0.17281581
21	0xbef7f14a	-0.48426276
22	0xbedb7b5c	-0.42867553
23	0xbe96057a	-0.29301053
24	0xbe9e4903	-0.3091508
25	0xbecce207	-0.40016195
26	0x3e8e237a	0.2776144
27	0xbda3e9a0	-0.08003545
28	0xbf0be80a	-0.5465094
29	0x3f5d8163	0.86525553
30	0xbd6108df	-0.0549401
31	0xbeb432dd	-0.35195056

layer1.bn1.running_var f4 [32]
0	0x3ed5f7f6	0.41790742
1	0x3f2c20a9	0.67237335
2	0x3eb711d9	0.35755804
3	0x3f172ff9	0.59057575
4	0x3ead14a0	0.33804798
5	0x3eb7c08a	0.35889083
6	0x3ea06b97	0.31332085
7	0x3ed79137	0.42102978
8	0x3efbcbcb	0.4917892
9	0x3f0c1ca2	0.5473119
10	0x3e9480db	0.2900456
11	0x3ec952e3	0.3932105
12	0x3edebca6	0.43503302
13	0x3ec33555	0.38126627
14	0x3e9e87bc	0.30962932
15	0x3edf5ad2	0.43623978
16	0x3e794310	0.24341989
17	0x3ed2c355	0.41164652
18	0x3ecfa33a	0.4055422
19	0x3e890e4b	0.26768717
20	0x3ecf2ce9	0.4046395
21	0x3eef22dd	0.46706286
22	0x3eeee561	0.46659377
23	0x3ec393bc	0.3819865
24	0x3e9617cb	0.29315028
25	0x3ec15edd	0.37767687
26	0x3e7ab59d	0.24483342
27	0x3ee2d727	0.44304773
28	0x3e9e2a00	0.30891418
29	0x3f15b546	0.58479726
30	0x3e89e0a9	0.26929215
31	0x3ea41267	0.3204529

layer1.conv2.weight f4 [32, 32, 3]
0	0xbc08703e	-0.008327542
1	0x3daa0048	0.08300835
2	0x3cab0880	0.020878077
3	0xbdbe61b8	-0.09295982
4	0xbd93a923	-0.07209995
5	0xbd2e49d1	-0.042550866
6	0x3df2b12e	0.118502006
7	0xbd626d33	-0.05527992
8	0xbd841e57	-0.06451099
9	0xbd947e1d	-0.07250617
10	0xbdb000bc	-0.0859389
11	0x3d3b72e1	0.045763854
12	0xbd19e8da	-0.03757558
13	0x3bb2ead7	0.005460124
14	0x3c659aea	0.014013985
15	0x3b9e4c40	0.004830867
16	0xbd91d47a	-0.07120605
17	0xbb836a43	-0.00401047
18	0x3c825943	0.015911704
19	0x3caf3b9c	0.021390729
20	0x3d6c66a2	0.057715066
21	0xbdf04b6a	-0.11733134
22	0xbdc02d0a	-0.093835905
23	0xbdb0513b	-0.086092435
24	0xbdb5c3f9	-0.088752694
25	0xbca6bdfd	-0.020354265
26	0xbcaa5158	-0.02079074
27	0xbe102496	-0.14076456
28	0xbe341171	-0.17584778
29	0xb980c0ec	-0.000245578
30	0xbd00a438	-0.03140661
31	0xbc345479	-0.011006468
32	0xbd1299ee	-0.03579133
33	0x3d3091ad	0.043107677
34	0x3caea999	0.021321105
35	0x3e030cc2	0.12797835
36	0x3dad469c	0.08460733
37	0xbd617800	-0.05504608
38	0x3db51705	0.08842281
39	0x3d7b35e6	0.0613307
40	0xbdf8af10	-0.121427655
41	0xbe1881c4	-0.14893252
42	0xbd478a06	-0.048715614
43	0xbd60e8d9	-0.05490956
44	0x3ccdf6c4	0.025142081
45	0x3b26fb11	0.0025479237
46	0xbd41050d	-0.047123957
47	0x3db304c4	0.08741143
48	0x3d724ddc	0.059156284
49	0x3d19ebdc	0.03757845
50	0x3d836b6a	0.06416972
51	0x3de6b7e7	0.11265545
52	0xbd435fc3	-0.047698747
53	0x3da00473	0.078133486
54	0x3d47e94d	0.048806477
55	0x3db44450	0.08802092
56	0x3d2b808c	0.04187064
57	0xbd61e36c	-0.055148527
58	0xbde938f9	-0.1138782
59	0x3d16a4a4	0.036778107
60	0xbd94e457	-0.07270115
61	0xbdae4c08	-0.085105956
62	0xbe1275af	-0.14302705
63	0xbdd2c607	-0.10291677
64	0xbe53c362	-0.20680001
65	0xbe222552	-0.15834549
66	0xb9adb1b6	-0.00033129536
67	0xbd5c27b2	-0.053748794
68	0xbc8b199b	-0.016979983
69	0x3c73f15b	0.014889087
70	0x3d609d62	0.054837592
71	0x3bc5bf82	0.0060347924
72	0xbcd8bc02	-0.026456837
73	0x3d969879	0.073533006
74	0x3ddb78d2	0.10716404
75	0xbe302415	-0.17201264
76	0xbda45eca	-0.08025892
77	0xbce9918e	-0.028511789
78	0xbdfad25f	-0.12247156
79	0xbd9c81e3	-0.076419614
80	0xbd8b1bf3	-0.0679244
81	0xbc05e745	-0.008172815
82	0xbd80676d	-0.06269727
83	0xbd2f6a2e	-0.04282587
84	0x3de1b362	0.11020543
85	0x3d9b9384	0.07596496
86	0xbd367f48	-0.04455498
87	0xbd977a73	-0.07396402
88	0xbde94a1c	-0.11391088
89	0xbe04f280	-0.12983131
90	0x3d9be174	0.07611361
91	0xbd3635cc	-0.0444849
92	0xbdfe2244	-0.124088794
93	0x3dbaeedf	0.09127592
94	0xbd740620	-0.059576154
95	0xbe0e14c7	-0.13875113
96	0x3dcfd58e	0.10148154
97	0x3d845ff8	0.06463617
98	0x3dc87b5d	0.09789155
99	0xbda6068a	-0.08106716
100	0xbc845746	-0.016154896
101	0xbc38fb49	-0.01129038
102	0x3d38b92c	0.04509847
103	0x3bdbaaa1	0.00670369
104	0x3cf440a4	0.02981598
105	0xbccbf080	-0.024894953
106	0x3cb76dd0	0.02239123
107	0x3d620eca	0.055189885
108	0xbcb0e269	-0.021592336
109	0xbde1d647	-0.11027198
110	0xbdf152c9	-0.11783368
111	0xbd7e980b	-0.06215672
112	0xbe0b56d9	-0.13607349
113	0xbc96f399	-0.018426703
114	0x3df1bbf8	0.1180343
115	0xbddcd85d	-0.107834555
116	0xbd9a515e	-0.07535051
117	0x3cbbfe5e	0.02294844
118	0x3da95b00	0.0826931
119	0x3d82f1ba	0.06393762
120	0x3dafe9c3	0.085895084
121	0x3caa2620	0.020770133
122	0xbd98dffa	-0.07464595
123	0xbe306c40	-0.17228794
124	0xbdd1dff1	-0.102477916
125	0xbcbc0481	-0.022951366
126	0xbd890eff	-0.066923134
127	0x3d331357	0.043719616
128	0x3d3f7d7b	0.046750527
129	0xbe08123f	-0.1328821
130	0x3cb939e6	0.022610616
131	0xbcd32673	-0.02577517
132	0x3d910b5f	0.07082247
133	0xbd8553e1	-0.06510139
134	0xbcdc0185	-0.026856193
135	0x3dec7099	0.11544914
136	0x3d40aa7b	0.047037583
137	0x3da7ec6d	0.081993915
138	0x3d87660e	0.06611262
139	0xbe19d9a2	-0.15024427
140	0xbe2288f3	-0.15872554
141	0x3d6384e1	0.055546645
142	0xbd0488cc	-0.032357022
143	0x3d4517a5	0.048118252
144	0xbe1024aa	-0.14076486
145	0xbbc3f53a	-0.005980161
146	0xbdf151e5	-0.11783198
147	0xbdf3aff3	-0.11898794
148	0x3d24664b	0.040136617
149	0xbd396446	-0.045261644
150	0x3d9842fd	0.07434652
151	0x3d9dbd76	0.077021524
152	0x3d0b0d32	0.03394813
153	0x3bcd5abf	0.0062669213
154	0xbdd37d07	-0.103265814
155	0xbcd828df	-0.026386676
156	0x3e149a95	0.14512093
157	0x3ad77cc7	0.0016440385
158	0xbd3395f0	-0.043844163
159	0x3d9af6f3	0.07566633
160	0xbd9b564c	-0.07584819
161	0xbc0a053a	-0.008424098
162	0xbd955032	-0.07290687
163	0x3d571b05	0.052516002
164	0x3d50fedf	0.051024314
165	0x3da95e24	0.08269909
166	0x3d377669	0.04479066
167	0xbdaed590	-0.085368276
168	0xbc755f1e	-0.014976291
169	0xbc081ff7	-0.008308402
170	0x3db22a82	0.08699514
171	0xbce6fe14	-0.028197326
172	0xbcd3ce07	-0.025855077
173	0xbd3a0cc1	-0.04542232
174	0xbdabdb16	-0.08391397
175	0x3b8369b2	0.0040104026
176	0xbdaedc85	-0.085381545
177	0x3d72c501	0.05926991
178	0xbdde369b	-0.10850259
179	0xbe28859a	-0.16457215
180	0xbd839f99	-0.06426925
181	0x3d8ad5c9	0.067790575
182	0x39e77d4b	0.00044153104
183	0xbdf5ac2a	-0.11995728
184	0xbdd7110b	-0.105012976
185	0xbe2852ee	-0.16437885
186	0xbd2222f7	-0.039584126
187	0x3d642ff6	0.0557098
188	0x3cfbe84a	0.030750412
189	0x3d990cd4	0.0747315
190	0x3cb06f7d	0.021537537
191	0xbc2c0eb8	-0.010501556
192	0x3dce91e1	0.10086418
193	0x3d59f6d5	0.053213913
194	0xbce895ae	-0.028391685
195	0xbd93c13f	-0.07214593
196	0xbd0db2ed	-0.034594465
197	0x3dd36949	0.10322816
198	0xbd66bfb8	-0.05633518
199	0xbd46b02d	-0.048507858
200	0x3cc1c557	0.02365367
201	0xbd6cc955	-0.057809193
202	0x3e28cb05	0.16483696
203	0x3c764e60	0.0150333345
204	0xbe33d9ec	-0.175636
205	0xbdd291ca	-0.10281713
206	0xbd3ff4ec	-0.046864435
207	0xbd2df4a6	-0.042469643
208	0xbd42198d	-0.04738765
209	0x3cd9d2da	0.0265898
210	0x3cea0cab	0.028570494
211	0x3d9f179f	0.07768177
212	0xbdfd836c	-0.12378582
213	0xbdc06cde	-0.09395765
214	0x3da52b3c	0.08064887
215	0xbd96ae8a	-0.073575094
216	0x3dc98667	0.09840088
217	0x3dcf483d	0.101212
218	0x3db6b381	0.089209564
219	0xbdbcdea3	-0.09222152
220	0xb9d56026	-0.00040698162
221	0x3d8dfeaa	0.06933339
222	0xbd1668b6	-0.036720954
223	0xbd7de721	-0.061988
224	0xbdbf9dbf	-0.093562596
225	0xbd4834c3	-0.048878442
226	0xbd7b6d3a	-0.061383463
227	0xbccd4235	-0.025055984
228	0x3e3470f0	0.17621207
229	0x3da20c67	0.07912522
230	0x3dacb5af	0.08433091
231	0x3ca3cc08	0.01999475
232	0xbdd19009	-0.10232551
233	0xbdc96bb1	-0.09834994
234	0x3de7064d	0.11280499
235	0x3c1dd280	0.009632707
236	0x3d724323	0.059146058
237	0xbd683ee9	-0.05670062
238	0x3cc538be	0.024074908
239	0x3e12c4c1	0.14332868
240	0x3d12dfb0	0.035857856
241	0x3d2df8bc	0.04247354
242	0x3c2d5a92	0.010580676
243	0xbdf59ee7	-0.11993199
244	0xbe432d93	-0.19060354
245	0x3cabb6ee	0.020961251
246	0x3d582031	0.052765075
247	0x3cd93e0a	0.02651884
248	0x3aaaa697	0.0013019618
249	0x3d0e4965	0.034737963
250	0xbd7bba9b	-0.061457258
251	0x3c995258	0.018716022
252	0x3d9bcbcc	0.076072305
253	0xbd56c183	-0.05243064
254	0x3cd4c361	0.02597207
255	0xbb89a03c	-0.0042000096

layer1.bn2.weight f4 [32]
0	0x3f7b0fa2	0.9807073
1	0x3f74d8f3	0.9564354
2	0x3f76bfd6	0.9638647
3	0x3f616c81	0.8805619
4	0x3f5559b7	0.8334002
5	0x3f6ec57a	0.93270075
6	0x3f60c045	0.8779338
7	0x3f6a2f68	0.91478586
8	0x3f57e9bd	0.8434103
9	0x3f79b3ec	0.97540164
10	0x3f63395c	0.887594
11	0x3f55983a	0.83435404
12	0x3f5b387a	0.8563305
13	0x3f5eb0d5	0.86988574
14	0x3f74e16e	0.9565648
15	0x3f74a730	0.9556761
16	0x3f725ff8	0.94677687
17	0x3f538061	0.82617766
18	0x3f55eab8	0.8356128
19	0x3f5fb83f	0.8739051
20	0x3f75982e	0.9593533
21	0x3f5bd7bd	0.85876065
22	0x3f60bbcb	0.8778655
23	0x3f6bb0a5	0.92066413
24	0x3f70d057	0.940679
25	0x3f7c11b1	0.98464495
26	0x3f50fb66	0.81633604
27	0x3f5a13be	0.85186374
28	0x3f731f81	0.94969946
29	0x3f6e35f0	0.9305105
30	0x3f816200	1.0108032
31	0x3f607f28	0.87694025

layer1.bn2.bias f4 [32]
0	0xbb9cbc38	-0.0047831796
1	0xbdca8317	-0.09888285
2	0xbdb61d64	-0.088923246
3	0x3cf78b72	0.03021786
4	0xbe34c4c4	-0.17653185
5	0x3d52acc1	0.051434282
6	0x3caab0de	0.02083629
7	0xbdc87b4c	-0.09789142
8	0xbde43374	-0.111426264
9	0xbe484aff	-0.19559859
10	0xbd5e1d3e	-0.054227106
11	0xbd80684d	-0.06269894
12	0x3db71856	0.089401886
13	0xbd596190	-0.05307156
14	0xbde2ff9f	-0.11083912
15	0x3dd28550	0.102793336
16	0xbdbea3b0	-0.09308565
17	0xbe2e4abf	-0.17020701
18	0x3bd86f73	0.0066050827
19	0xbd1a7bc8	-0.037715703
20	0xbd6c4f66	-0.057692908
21	0xbd7a1b0f	-0.06106096
22	0xbd20209a	-0.03909359
23	0x3bff1cde	0.0077854237
24	0xbddd3cba	-0.10802598
25	0xbcd0dd4d	-0.02549615
26	0xbd2371f5	-0.0399036
27	0x3d6f5925	0.058434624
28	0xbce89a6b	-0.028393945
29	0xbdd03f8f	-0.10168373
30	0xbcea4f95	-0.0286024
31	0x3c0fbef5	0.008773555

layer1.bn2.running_mean f4 [32]
0	0xbf3b934f	-0.7327165
1	0xbecc6cb4	-0.39926684
2	0xbe852cf6	-0.26010865
3	0x3e88fbb9	0.2675455
4	0x3dd9ebc6	0.10640673
5	0xbdaa6337	-0.08319705
6	0xbf149108	-0.580338
7	0xbe925afe	-0.28585047
8	0xbf430776	-0.7618326
9	0xbeda3501	-0.42618564
10	0xbe751beb	-0.23936431
11	0xbf147673	-0.5799324
12	0xbf74b6a5	-0.95591193
13	0x3e3b8e1d	0.1831593
14	0xbedbeaff	-0.42952725
15	0xbf0fd22e	-0.56180084
16	0xbf2addd7	-0.6674475
17	0xbb51a4e1	-0.0031989145
18	0x3ef938aa	0.48676044
19	0x3e9451a0	0.28968525
20	0x3e41b6b6	0.18917355
21	0xbf05ffe1	-0.52343565
22	0xbf057f9c	-0.5214784
23	0x3e1bb83e	0.15207002
24	0xbec4306a	-0.38318187
25	0xbeed7fa0	-0.46386433
26	0xbf4d1be0	-0.8012066
27	0xbef68863	-0.4815093
28	0xbf13a0d9	-0.5766731
29	0xbeb485d8	-0.35258365
30	0xbf573e1e	-0.8407916
31	0xbf196297	-0.5991606

layer1.bn2.running_var f4 [32]
0	0x3f1d83ab	0.61529034
1	0x3f36d050	0.7141161
2	0x3f2fba29	0.6864343
3	0x3e9e0112	0.30860192
4	0x3e9833a0	0.29726887
5	0x3eb86a26	0.36018485
6	0x3eccd231	0.40004113
7	0x3ed2248b	0.41043505
8	0x3f0f824a	0.5605818
9	0x3f071e87	0.52780956
10	0x3ed1e8c8	0.4099791
11	0x3f057c78	0.5214305
12	0x3f1376cb	0.5760314
13	0x3ea88d6a	0.3292039
14	0x3f1c2eb3	0.6100876
15	0x3f1881b8	0.59572935
16	0x3f3a87be	0.72863376
17	0x3eb2637c	0.34841526
18	0x3eccc47a	0.3999365
19	0x3eb4a4e5	0.35282055
20	0x3e93a5de	0.28837484
21	0x3f03ddc0	0.5151024
22	0x3f1e71d4	0.6189244
23	0x3eada3ba	0.33913976
24	0x3f4868a1	0.7828465
25	0x3f1eaa28	0.6197839
26	0x3f073009	0.5280767
27	0x3ef80cef	0.48447368
28	0x3f044869	0.5167299
29	0x3ea56c59	0.32309225
30	0x3f2a73db	0.6658303
31	0x3f006d37	0.5016665

layer2.conv1.weight f4 [64, 32, 3]
0	0x3da6b3e9	0.08139784
1	0x3d8bf206	0.06833272
2	0x3c3b5433	0.011433649
3	0x3ac2da84	0.0014866148
4	0x3ced7124	0.028984614
5	0x3d5b88b0	0.053597152
6	0x3e09d864	0.13461453
7	0x3da1a475	0.07892696
8	0xbe057d85	-0.13036163
9	0xbe033d6a	-0.12816396
10	0xbd59228b	-0.05301146
11	0xbe64e449	-0.22352709
12	0x3c9fbe97	0.01950006
13	0x3d8f5a96	0.069997
14	0x3cae58a7	0.021282507
15	0xbdf24ed8	-0.118314445
16	0x3c11e0d8	0.008903705
17	0xbd37c61d	-0.04486667
18	0x3dfc853b	0.12330099
19	0x3c359418	0.011082672
20	0x3cf7cd89	0.030249374
21	0x3c7ac7f9	0.015306466
22	0x3e176fb9	0.14788713
23	0x3da43ca1	0.080193765
24	0xbd7ab8da	-0.061211444
25	0xbd784d27	-0.060620453
26	0x3d1aa65a	0.0377563
27	0x3dfe1557	0.12406414
28	0x3d7295a9	0.05922476
29	0x3dfcd5b2	0.12345447
30	0x3d38d37a	0.045123555
31	0x3d1e32c3	0.03862263
32	0x3e04c8e7	0.12967263
33	0xbea1f4a1	-0.3163195
34	0xbe0c3070	-0.13690352
35	0xbe41fb42	-0.18943503
36	0x3e02a6ac	0.12758893
37	0x3c8290b1	0.015938135
38	0x3db1a635	0.086742796
39	0x3cff0c33	0.031133747
40	0xbd06bf6f	-0.03289741
41	0xbc85679a	-0.016284753
42	0x3d90a20e	0.070621595
43	0x3d1db7e6	0.038505457
44	0x3c50146b	0.0127001805
45	0x3d8b5f67	0.06805306
46	0xbd1da580	-0.03848791
47	0x3daf67d0	0.085647225
48	0x3d99d833	0.0751194
49	0x3cd6d436	0.026224237
50	0x3c7317ae	0.014837189
51	0xbdfd0c36	-0.12355845
52	0xbd615271	-0.055010263
53	0xbd39fbd5	-0.04540618
54	0xbd07e49b	-0.033177
55	0x3d9dc1f7	0.077030115
56	0xbdcafa5e	-0.09911035
57	0xbcd39de3	-0.025832122
58	0xbda5f1cc	-0.0810276
59	0xbd09d9ff	-0.033655163
60	0xbe028a67	-0.12748109
61	0x3d117b4c	0.035517976
62	0x3d9e6d3e	0.0773568
63	0xbd348838	-0.04407522
64	0xbd4fc4a7	-0.05072465
65	0x3cafb089	0.021446483
66	0x3cec10fa	0.028816689
67	0xbd1d9b28	-0.038478047
68	0xbdc0747d	-0.093972184
69	0xbd96f8a4	-0.07371643
70	0xbd0ea528	-0.034825474
71	0x3d8b8a27	0.0681346
72	0xbd12f221	-0.035875443
73	0xbdc02f70	-0.09384048
74	0xbd690de5	-0.056898016
75	0xbd9cebbb	-0.076621495
76	0x3d0f864e	0.035040192
77	0x3c39b9f4	0.011335839
78	0xbd6264fe	-0.055272095
79	0xbe219e86	-0.15783128
80	0xbde57ac3	-0.112050556
81	0x3cd4f659	0.025996374
82	0x3ddd388f	0.10801803
83	0x3db1b819	0.08677692
84	0x3dead8e9	0.114671536
85	0xbd66815f	-0.05627572
86	0xbb80a1fb	-0.0039255596
87	0x3d30ddc9	0.04318026
88	0x3e270a3f	0.16312502
89	0x3b6fa1c5	0.0036564928
90	0xbcaca124	-0.021072932
91	0x3dbad9fe	0.0912361
92	0x3c811443	0.015756732
93	0x3d3ef334	0.046618655
94	0xbd1d0a5f	-0.03833997
95	0x3d43b722	0.04778207
96	0xbdde2bd2	-0.10848202
97	0xbcc7a89a	-0.024372388
98	0xbc73579d	-0.014852432
99	0x3d210df3	0.039319944
100	0x3da59627	0.0808528
101	0xbcc5725c	-0.024102382
102	0xbe1da333	-0.15394287
103	0xbde25b39	-0.110525556
104	0xbd70013b	-0.058594923
105	0xbd9512d2	-0.0727898
106	0x3e211639	0.15731134
107	0xbd40a048	-0.047027856
108	0x3d79d6c5	0.060995836
109	0xbb95d03a	-0.0045719417
110	0xbaff6778	-0.0019485792
111	0xbcc8a29c	-0.0244916
112	0x3c9abf8d	0.018890167
113	0xbdaae510	-0.083444715
114	0x3d51bc04	0.051204696
115	0x3dc2b2b5	0.09506742
116	0x3dfa32da	0.122167304
117	0xbd254072	-0.040344663
118	0xbe1fe4ab	-0.15614574
119	0xba61ccc6	-0.00086135825
120	0xbba73fcc	-0.0051040407
121	0xbdc60b4d	-0.09670124
122	0xbd4df118	-0.050278753
123	0xba3a534a	-0.0007107748
124	0x3d7720a4	0.060333863
125	0x3d6abc22	0.057308324
126	0x3cf31d2e	0.029677
127	0xbd8c80a8	-0.06860477
128	0xbde1d93d	-0.11027763
129	0x3d4b926a	0.04970018
130	0x3e0774c2	0.13228133
131	0x3e19328f	0.14960693
132	0x3d529a8d	0.051416922
133	0xba991a0f	-0.001168074
134	0xbd5db2ee	-0.05412572
135	0xbd582aff	-0.05277538
136	0xbcde4fa8	-0.027137592
137	0xbe1310b2	-0.14361838
138	0x3d9d2547	0.07673126
139	0xbdc6e51b	-0.09711667
140	0xbdae406e	-0.08508383
141	0x3e115837	0.14193808
142	0xbc82d0d5	-0.01596872
143	0x3dab36e9	0.08360083
144	0xbe06b511	-0.13155009
145	0xbd61c567	-0.0551199
146	0xbda34265	-0.07971648
147	0xbd2603e3	-0.04053105
148	0x3cf5bc7b	0.029997101
149	0x3c3d5a2d	0.011557144
150	0x3e04e441	0.12977697
151	0x3d645582	0.05574561
152	0x3da52b03	0.080648445
153	0xbdaefae3	-0.085439466
154	0x3d4d4d39	0.050122473
155	0xbe0560ff	-0.13025282
156	0xbdb73dfe	-0.08947371
157	0xbdae249f	-0.08503079
158	0xbd05294e	-0.032510094
159	0x3df08066	0.1174324
160	0xbdad556c	-0.084635586
161	0x3d6b6243	0.057466757
162	0xbcfbc004	-0.030731209
163	0x3d27e676	0.04099127
164	0x3cf191d7	0.029488487
165	0xbd466379	-0.04843471
166	0xbd1be8aa	-0.038063683
167	0x3d0d7b29	0.034541283
168	0x3ba3702a	0.004987736
169	0xbde32c04	-0.1109238
170	0x3b9a6998	0.004712295
171	0x3d548803	0.051887523
172	0x3cc6eae5	0.024281928
173	0xbc2b9d36	-0.010474494
174	0xbd1fda7a	-0.039026715
175	0xbd20415d	-0.039124835
176	0x3cb3bc7d	0.021940464
177	0x3e0567f5	0.13027938
178	0x3df8a96d	0.121416904
179	0x3d872c70	0.06600273
180	0x3e069b59	0.13145198
181	0xbdbd86aa	-0.09254201
182	0x3d609e8d	0.054838706
183	0xbe068bdf	-0.13139294
184	0xbda5c96f	-0.08095061
185	0xbdfe831c	-0.12427351
186	0x3cf563e6	0.029954862
187	0xbda8a713	-0.08234992
188	0xbe1926cb	-0.14956205
189	0xbcaca8b6	-0.021076541
190	0x3d97b547	0.07407623
191	0x3cc6479d	0.02420407
192	0x3be1ab8e	0.006886906
193	0x3d0c99e2	0.03432644
194	0x3c3cfcd5	0.011534889
195	0xbe0b38d2	-0.13595894
196	0xbd8d1803	-0.068893455
197	0x3d13c8f0	0.0360803
198	0x3d22f069	0.039780054
199	0xbd31cd9b	-0.04340897
200	0x3c497427	0.012295759
201	0x3d05aa80	0.032633305
202	0x3d3aa98e	0.045571856
203	0x3d97defc	0.07415578
204	0x3da841c5	0.082156695
205	0x3d98bc45	0.074577846
206	0xbdbd4d2f	-0.09243237
207	0x3cd6b1ff	0.026207922
208	0x3d2c83d1	0.042117897
209	0x3d08182b	0.033226173
210	0xbcfc70f9	-0.030815588
211	0xbd066f78	-0.03282115
212	0x3e0f2265	0.13977964
213	0xbd08c184	-0.033387676
214	0x3d7f78f7	0.06237122
215	0xbcf52933	-0.029926872
216	0x3d7d38f5	0.061821897
217	0xbd90d488	-0.07071787
218	0x3dff6b0f	0.12471592
219	0xbdbccc29	-0.09218628
220	0xbdcf8f4b	-0.10134753
221	0xbd70b95e	-0.05877053
222	0xbd9b4f49	-0.07583482
223	0xbc37ff51	-0.011230306
224	0x3d57d089	0.05268911
225	0x3dbe8b11	0.093038686
226	0x3abcec9e	0.0014413779
227	0x3d9a64f7	0.07538789
228	0x3dee245b	0.11628028
229	0x3dd7baed	0.105337
230	0x3dcf30a9	0.10116703
231	0x3da30484	0.07959846
232	0xbc88df00	-0.016707897
233	0xbd4fe160	-0.050752044
234	0xbdf17802	-0.11790468
235	0x3c7dc437	0.015488676
236	0x3c80cc49	0.01572241
237	0x3e48a2ec	0.195934
238	0x3d0cc9a2	0.03437198
239	0xbdbee705	-0.09321407
240	0x3dc7a065	0.0974739
241	0x3cb40ac8	0.021977797
242	0x3db36bb3	0.08760776
243	0x3dce0ba9	0.10060818
244	0x3d27f148	0.041001588
245	0xbd9964f7	-0.07489961
246	0xbd52dfad	-0.051482845
247	0xbdd9fc08	-0.10643774
248	0xbdf5a82e	-0.11994968
249	0x3de573f5	0.11203758
250	0x3db86f46	0.09005599
251	0x3d9b1974	0.07573214
252	0xbd8b2ee5	-0.06796054
253	0xbb9ed1fe	-0.0048468104
254	0x3bc4f14e	0.006010211
255	0x3c699f7e	0.014259217

layer2.bn1.weight f4 [64]
0	0x3f879bf9	1.0594474
1	0x3f74226b	0.9536502
2	0x3f81a02e	1.0127008
3	0x3f7d64c1	0.98981863
4	0x3f7d147a	0.9885937
5	0x3f7ad33b	0.9797856
6	0x3f7ceb95	0.9879697
7	0x3f856e3b	1.0424265
8	0x3f808821	1.0041543
9	0x3f6856df	0.90757555
10	0x3f83f014	1.0307641
11	0x3f7ba431	0.9829741
12	0x3f7bc475	0.98346645
13	0x3f7a0407	0.97662395
14	0x3f873ec7	1.0566033
15	0x3f80fe95	1.0077692
16	0x3f776f7b	0.9665448
17	0x3f834385	1.025498
18	0x3f6af7cd	0.91784364
19	0x3f812e85	1.0092322
20	0x3f86ab25	1.0520979
21	0x3f8093e9	1.0045139
22	0x3f7421ca	0.9536406
23	0x3f804d60	1.0023613
24	0x3f7a7d1a	0.9784714
25	0x3f81d08b	1.0141767
26	0x3f7b9183	0.9826891
27	0x3f79bb6b	0.975516
28	0x3f7fa57c	0.99861884
29	0x3f82bd36	1.0213993
30	0x3f77d330	0.9680662
31	0x3f6c0043	0.921879
32	0x3f76c504	0.9639437
33	0x3f80a410	1.0050068
34	0x3f73af29	0.9518915
35	0x3f76ab5d	0.9635523
36	0x3f81695a	1.0110276
37	0x3f8561df	1.0420493
38	0x3f7cd199	0.9875732
39	0x3f887e77	1.0663594
40	0x3f843b4e	1.0330598
41	0x3f7f513e	0.9973334
42	0x3f79239a	0.9731995
43	0x3f80ae8b	1.0053266
44	0x3f7888f9	0.97084004
45	0x3f84d615	1.0377833
46	0x3f8352c0	1.0259628
47	0x3f82ea5e	1.0227773
48	0x3f7b545f	0.98175615
49	0x3f80d4d9	1.0064956
50	0x3f898b25	1.0745589
51	0x3f73700b	0.9509284
52	0x3f8480e9	1.035184
53	0x3f7c3a6d	0.9852665
54	0x3f8230b8	1.0171118
55	0x3f8402c1	1.031334
56	0x3f7b90c6	0.9826778
57	0x3f7746ef	0.9659261
58	0x3f81f923	1.0154155
59	0x3f81c142	1.0137103
60	0x3f7edae5	0.99552757
61	0x3f735104	0.95045495
62	0x3f7ca84c	0.986943
63	0x3f79913d	0.9748724

layer2.bn1.bias f4 [64]
0	0xbc16205d	-0.009162989
1	0xbd942056	-0.0723273
2	0xbd9971e3	-0.07492425
3	0xbde2d9ff	-0.11076736
4	0xbd4726f7	-0.048621144
5	0xbdcca61b	-0.099926196
6	0xbdf0df41	-0.11761332
7	0xbd97a76e	-0.074049816
8	0xbd8f47ab	-0.069960915
9	0xbdfbddea	-0.12298186
10	0xbd6d3999	-0.057916258
11	0xbde5ff1a	-0.112302974
12	0xbd70ef84	-0.05882217
13	0xbdf4fad0	-0.11961901
14	0xbd87045d	-0.06592629
15	0xbdb608f2	-0.08888425
16	0xbdd533e5	-0.10410289
17	0xbe3dfad1	-0.1855271
18	0xbdd93399	-0.106055446
19	0xbd6d17bd	-0.057883967
20	0xbd5b0a3d	-0.05347656
21	0xbdc72244	-0.097233325
22	0xbd3dcc0d	-0.046337176
23	0xbdadc0a5	-0.0848401
24	0xbbe1dcfa	-0.0068927975
25	0xbddf489e	-0.109025225
26	0xbdd26916	-0.1027395
27	0xbdb4c563	-0.08826711
28	0xbcfd34a9	-0.0309089
29	0xbd8e8f7a	-0.0696096
30	0xbda11ef6	-0.078672335
31	0xbe0b90a5	-0.13629396
32	0xbda29977	-0.07939427
33	0x3d1926f8	0.03739068
34	0xbda7e407	-0.0819779
35	0xbe0791e7	-0.13239251
36	0xbddd3b1c	-0.1080229
37	0xbdff3e97	-0.1246311
38	0xbd61ec87	-0.05515721
39	0x3ce5889d	0.028019244
40	0xbe333a36	-0.17502674
41	0xbe2e773c	-0.17037672
42	0xbdf6006e	-0.12011801
43	0xbddb96c9	-0.10722119
44	0xbd9b1480	-0.075722694
45	0x3bd0f715	0.0063771107
46	0xbe1d772b	-0.1537749
47	0xbd1a91bb	-0.037736636
48	0xbd7735e5	-0.060354132
49	0xbdd5d28a	-0.10440548
50	0xbd1e3193	-0.038621496
51	0xbd7c6221	-0.06161702
52	0xbd4116a7	-0.047140744
53	0xbb0aa78c	-0.0021156995
54	0xbd221998	-0.03957519
55	0xbc439139	-0.011936479
56	0xbdf548e3	-0.11976793
57	0xbd81e2df	-0.063421
58	0xbd18165d	-0.037130702
59	0xbdd14a19	-0.10219211
60	0xbbac2032	-0.0052528614
61	0xbd8883b6	-0.06665747
62	0xbdc034f6	-0.093851015
63	0xbe25302d	-0.16131659

layer2.bn1.running_mean f4 [64]
0	0x3e0fc3e0	0.14039564
1	0xbf01f97e	-0.5077132
2	0x3fafdd96	1.3739498
3	0x3fdbc353	1.7168983
4	0xc007e3e8	-2.1232853
5	0xbee13385	-0.4398462
6	0xbf8380c9	-1.0273677
7	0x3f182257	0.594274
8	0xbf13d8e5	-0.5775283
9	0xbedb20f2	-0.42798573
10	0xbf812feb	-1.0092748
11	0xbfa0a9e3	-1.2551845
12	0xbfc92e2b	-1.5717214
13	0xbfb736c1	-1.4313585
14	0xc00c0d92	-2.1883283
15	0x3e5ecc98	0.21757734
16	0xbef59b12	-0.47969872
17	0x3ffdbd8b	1.9823469
18	0xbf544671	-0.82919985
19	0x3dcd84e4	0.100351125
20	0xbf04555a	-0.51692736
21	0xbfa3d44b	-1.2799162
22	0xbda62830	-0.08113134
23	0xc01a7a66	-2.4137206
24	0xbf4f886c	-0.8106754
25	0xc00662a7	-2.0997713
26	0xbf1e44d9	-0.61823803
27	0xbeba1ea4	-0.36351502
28	0xbf5fd4db	-0.87434167
29	0xbfefd947	-1.8738183
30	0xbfce24bd	-1.6104962
31	0xc0110d66	-2.2664428
32	0x3d8945d9	0.067027755
33	0x3ca6beb6	0.02035461
34	0x3ee27b6e	0.44234794
35	0xbf370b7f	-0.71501917
36	0xbea7f35e	-0.32802862
37	0xbf387489	-0.7205282
38	0xc009411c	-2.144599
39	0xbf34eb42	-0.70671475
40	0x3ec620c0	0.3869686
41	0x400cd8b0	2.2007256
42	0x3ef321dd	0.47486773
43	0xbf8d6011	-1.1044942
44	0x3e52f387	0.20600711
45	0x3e415037	0.18878256
46	0xc0321cf7	-2.7830179
47	0xbf8595b5	-1.0436312
48	0xbf6f360c	-0.93441844
49	0xbf56d7fa	-0.83923304
50	0xbfec9752	-1.8483679
51	0xbfe3fbd0	-1.7811222
52	0xbf15944f	-0.58429426
53	0xbf5a4002	-0.8525392
54	0x3e1037a0	0.14083719
55	0xbf31f2f5	-0.6951135
56	0xbfb6e2dd	-1.4287983
57	0xbf0a70d0	-0.5407839
58	0xbff7de5a	-1.9364731
59	0xbfd6cfb4	-1.6782136
60	0x3ee6179e	0.44939893
61	0xbe74b7e9	-0.23898281
62	0xbedb3828	-0.4281628
63	0x3f05a3fb	0.5220334

layer2.bn1.running_var f4 [64]
0	0x3f1a424f	0.6025743
1	0x3f49c59a	0.7881714
2	0x3f046cff	0.51728815
3	0x3f7bd26f	0.9836797
4	0x3f4bb9f2	0.79580605
5	0x3f7b2cd1	0.9811526
6	0x3f3c0104	0.7343905
7	0x3f4154e8	0.7552018
8	0x3f2bc90c	0.6710365
9	0x3f5bf87d	0.8592604
10	0x3f1b3316	0.60624826
11	0x3f5e1fe2	0.867674
12	0x3f776268	0.9663453
13	0x3f81b78f	1.0134143
14	0x3f930c06	1.1488044
15	0x3f878e62	1.0590327
16	0x3f1a202f	0.6020536
17	0x3f882963	1.063763
18	0x3f5226a5	0.82090217
19	0x3f153270	0.58280087
20	0x3f300539	0.6875797
21	0x3f3a64fe	0.7281035
22	0x3f5889c2	0.845852
23	0x3f828f76	1.0200031
24	0x3f73c0e5	0.9521621
25	0x3f4de693	0.80429953
26	0x3f75d898	0.9603362
27	0x3f5b1d1f	0.8559131
28	0x3f37ac1b	0.7174699
29	0x3f6ae6f8	0.9175868
30	0x3f5fcbba	0.8742024
31	0x3f84f6dc	1.0387836
32	0x3f8215e9	1.0162936
33	0x3f912fcb	1.134271
34	0x3f5074c6	0.8142818
35	0x3f1e6d13	0.61885184
36	0x3f2cc3bc	0.67486167
37	0x3f64712c	0.89235187
38	0x3f95d932	1.1706908
39	0x3f42d366	0.7610382
40	0x3f59c64d	0.8506821
41	0x3f657628	0.8963342
42	0x3f17ddac	0.5932262
43	0x3f05d1b3	0.522731
44	0x3f3321b3	0.69973296
45	0x3f303ed1	0.6884585
46	0x3fc0b305	1.5054632
47	0x3f41cd71	0.75704104
48	0x3f072617	0.52792495
49	0x3f8b78e6	1.089627
50	0x3f2162e1	0.630415
51	0x3f5287fd	0.8223875
52	0x3f4e7758	0.80650854
53	0x3f1b1da7	0.6059212
54	0x3f99e782	1.2023776
55	0x3f74611f	0.95460695
56	0x3f6d0978	0.92592573
57	0x3f532c88	0.82489824
58	0x3f4c07dc	0.7969949
59	0x3f7af5fc	0.9803159
60	0x3f4a398b	0.78994054
61	0x3f5f9632	0.87338555
62	0x3f1e534b	0.61845845
63	0x3f3295c7	0.6975979

layer2.conv2.weight f4 [64, 64, 3]
0	0xbdb43424	-0.087990075
1	0xbe1450f1	-0.14484002
2	0xbdca136e	-0.09866987
3	0xbddb9734	-0.10722199
4	0xbd2a4574	-0.041570142
5	0xbd460ebb	-0.04835389
6	0xbdd7f1ab	-0.105441414
7	0x3b6ad7cb	0.003583419
8	0xbdc50da8	-0.09621745
9	0x3dec5394	0.11539379
10	0x3db8d8b1	0.090257056
11	0x3cd49d23	0.025953835
12	0x3cdddd0a	0.027082939
13	0xbda1a4ff	-0.07892799
14	0xba3fc8dc	-0.0007316002
15	0xbe0a94a7	-0.13533269
16	0xbccd41d6	-0.025055807
17	0xbd93db9f	-0.07219624
18	0xbdc0be2f	-0.09411275
19	0xbd7f12c1	-0.062273744
20	0xbdac7a6a	-0.08421786
21	0x3dba12e4	0.09085634
22	0x3cdf4fa5	0.027259657
23	0x3daec00c	0.08532724
24	0xbd3f2dc1	-0.046674494
25	0xbcecc40b	-0.028902074
26	0x3d279865	0.04091682
27	0xbcc07396	-0.023492616
28	0x3d902826	0.07038908
29	0xbd205935	-0.039147574
30	0xbd5a5ecc	-0.05331306
31	0xbd781e0e	-0.060575537
32	0xbce4eacf	-0.027943997
33	0xbd3e5ea1	-0.046476964
34	0x3d3faa1e	0.046793096
35	0x3b256dac	0.0025242371
36	0x3d2f99b6	0.0428712
37	0xbccd7292	-0.025079045
38	0xbac5da04	-0.0015094881
39	0x3cc7affd	0.02437591
40	0xbc9682c8	-0.018372908
41	0x3d567c16	0.05236443
42	0xbd37c2f9	-0.044863675
43	0x3d9d70e6	0.07687549
44	0xbd6a0a80	-0.05713892
45	0x3ddc1473	0.10746088
46	0x3d0441c8	0.032289296
47	0x3dd38959	0.10328931
48	0xbd604167	-0.054749873
49	0xbcdd397d	-0.027004952
50	0x3ca868fc	0.020557873
51	0xbd83f4b8	-0.06443161
52	0xbdd43101	-0.10360909
53	0xbdb23b94	-0.0870277
54	0xbdbb0bd0	-0.091331124
55	0xbba2dc04	-0.0049700756
56	0xbdf2ec17	-0.11861437
57	0xbdecb0cf	-0.11557161
58	0x3c964aeb	0.01834627
59	0xbc8cf700	-0.017207623
60	0x3d78d9e3	0.060754668
61	0xbd0f893a	-0.03504298
62	0x3e00308c	0.12518519
63	0xbb8917f0	-0.004183762
64	0xbcaf5fc1	-0.021407964
65	0xbe32ae3f	-0.17449282
66	0xbd69143f	-0.056904074
67	0x3a73c5d5	0.00092991936
68	0xbcb882c0	-0.022523284
69	0xbd37d33b	-0.04487918
70	0x3d96f5ec	0.073711246
71	0xbd67f5f9	-0.056631062
72	0x3d666028	0.056244045
73	0x3c98fb16	0.018674415
74	0x3d0b4b25	0.03400721
75	0xbe09ef3c	-0.13470167
76	0xbde70f88	-0.11282259
77	0xbdb5edef	-0.08883273
78	0x3d292738	0.041297168
79	0x3d8d13bd	0.068885304
80	0x3d1d1508	0.038350135
81	0xbd3fca2e	-0.046823673
82	0x3d53fd78	0.0517554
83	0x3d11fa40	0.035639048
84	0xbd39b68a	-0.0453401
85	0x3c7619fc	0.015020844
86	0xbc816e9f	-0.015799819
87	0xbd762ead	-0.060103107
88	0x3d566a5f	0.052347537
89	0xbd89961a	-0.06718083
90	0xbe12ab3e	-0.14323136
91	0xbd5de9c3	-0.05417801
92	0xbc85f7a4	-0.016353436
93	0x3db528b6	0.088456556
94	0x3dabd94a	0.08391054
95	0xbd647315	-0.055773813
96	0x3cbe40f4	0.023224331
97	0xbc31e9c2	-0.010858955
98	0x3dfb5d5b	0.122736655
99	0x3c52310c	0.0128290765
100	0x3d79cbad	0.060985256
101	0x3d91798c	0.07103261
102	0x3dbdd821	0.09269739
103	0xb996757f	-0.0002869777
104	0x3da8ec3e	0.082481846
105	0xbc427d4a	-0.011870692
106	0xbde238bb	-0.11045977
107	0x3c503091	0.012706892
108	0x3ca390f6	0.019966584
109	0xbce91ca3	-0.028456038
110	0x3cc7ccbd	0.024389619
111	0x3cd7cacc	0.026341818
112	0xbde1885f	-0.11012339
113	0x3d231179	0.039811585
114	0xbdd2fb8b	-0.10301884
115	0xbce4d3a8	-0.027932957
116	0xbcee0e40	-0.02905953
117	0xbe5a7686	-0.21334276
118	0xbe12bfff	-0.14331053
119	0xbe2c51d5	-0.16828091
120	0xbb6587c5	-0.0035023552
121	0xbbfb6562	-0.007671998
122	0xbb99becf	-0.0046919356
123	0xbcd89036	-0.026435953
124	0xbd36c72f	-0.04462355
125	0x3c9c79a2	0.019100968
126	0xbdea01e4	-0.11426142
127	0xbda7d34c	-0.081945986
128	0xbe103080	-0.14081001
129	0x3c6b8574	0.014375079
130	0x3d91dbfe	0.07122038
131	0x3d8c7ca0	0.06859708
132	0xbd2b760a	-0.041860618
133	0xbcb06c7e	-0.021536108
134	0x3cfa1cf4	0.030531384
135	0x3d5c3395	0.05376013
136	0xbce3af3a	-0.027793515
137	0xbda29e78	-0.07940382
138	0x3c97ca61	0.018529119
139	0x3cd7c01b	0.02633672
140	0x3d566569	0.052342806
141	0x3dbbdd63	0.091730855
142	0x3cb3c365	0.021943757
143	0x3d8bdd47	0.06829315
144	0x3cc239f9	0.023709284
145	0xbce2417a	-0.027619112
146	0xbe0a634d	-0.13514443
147	0x3da92d3c	0.08260581
148	0x3cd2bd2d	0.025724972
149	0x3c8dbf8b	0.017303249
150	0xbdf893eb	-0.12137588
151	0xbd195b8b	-0.037440818
152	0xbcda9023	-0.026680058
153	0x3d71d81c	0.05904399
154	0x3cb91597	0.022593303
155	0xbd27b3c3	-0.04094292
156	0x3d68bc67	0.0568203
157	0xbd67d0fe	-0.056595795
158	0xbc1492b3	-0.009068179
159	0x3d3deb15	0.04636677
160	0xbd80b9c3	-0.06285431
161	0x3e2471a6	0.16058978
162	0x3d9699c4	0.07353547
163	0xbc5bb89b	-0.013410713
164	0xbc8d1c72	-0.017225478
165	0xbd8bb214	-0.06821075
166	0xbd05e70e	-0.032691054
167	0x3d515f1e	0.0511161
168	0xbcb4ea6c	-0.022084437
169	0xbd9d69c4	-0.07686189
170	0xbd1b7cd9	-0.03796086
171	0xbbe3ed31	-0.0069557657
172	0xbd867945	-0.06566099
173	0xbcf86317	-0.030320687
174	0x3ce64fb4	0.028114177
175	0xbcc7b7df	-0.024379669
176	0x3b7c34d6	0.003848364
177	0x3d16eba0	0.036845803
178	0x3c82880d	0.015934015
179	0x3d7b764d	0.061392117
180	0xbd959b96	-0.07305066
181	0xbd928dad	-0.07155929
182	0xbda14b43	-0.07875683
183	0xbd636e55	-0.055525143
184	0xbd48d03b	-0.04902671
185	0x393974b3	0.00017686449
186	0xbb9b717a	-0.004743752
187	0xbcd298d3	-0.025707638
188	0xbe095480	-0.1341114
189	0xbda4c337	-0.08045047
190	0xbd88c63d	-0.06678436
191	0xbd0f8577	-0.03503939
192	0x3dbdd933	0.09269943
193	0x3d6a32f7	0.05717751
194	0x3e196727	0.14980756
195	0xbd3c783c	-0.046013102
196	0xbdb1f6a0	-0.08689618
197	0xbd5dbd85	-0.054135818
198	0x3d8d655a	0.06904097
199	0x3de54d1e	0.111963496
200	0xbd39ffa7	-0.045409825
201	0xbd458381	-0.048221115
202	0xbd3ac0d5	-0.045594055
203	0x3d995770	0.074873805
204	0xbb96f778	-0.0046071373
205	0x3c705de2	0.014670821
206	0x3d9ae3fc	0.07563016
207	0x3ccb1432	0.024789903
208	0xbc60938c	-0.013707053
209	0xbd5958cc	-0.0530632
210	0xbbd2f290	-0.006437607
211	0x3c9b5196	0.018959802
212	0x3cfb6143	0.030686026
213	0xbd251e83	-0.0403123
214	0xbd39c358	-0.04535231
215	0x3cd82293	0.026383674
216	0xbd2fd68f	-0.04292923
217	0xbe20c1cc	-0.15698928
218	0x3e0e3fb0	0.13891482
219	0x3d992b27	0.07478934
220	0xbd48a246	-0.04898288
221	0x3c86911a	0.016426612
222	0x3d6d2252	0.05789406
223	0x3d795eb6	0.06088134
224	0xba978aa0	-0.0011561699
225	0x3debf251	0.115208276
226	0xbc042976	-0.008066526
227	0x3db4744a	0.08811243
228	0xbd85de17	-0.06536501
229	0xbc4c6124	-0.012474332
230	0xbd69d657	-0.057089176
231	0xbcfe4348	-0.031037942
232	0xbcc744a4	-0.024324723
233	0x3df6adbc	0.12044856
234	0xbdba9e7b	-0.09112259
235	0x3d0026c4	0.03128697
236	0x3d47d14e	0.048783593
237	0xbc6d2fd1	-0.014476732
238	0x3cd20265	0.025635907
239	0x3dc646dc	0.09681484
240	0xbdea1ca9	-0.11431248
241	0xbd64214c	-0.055695817
242	0x3c87e6ee	0.016589608
243	0x3dd14285	0.10217766
244	0x3dc2b389	0.095069
245	0xbd17cf67	-0.03706303
246	0x3d0fe5b0	0.035131156
247	0xbd29ade5	-0.041425604
248	0x3ce577ae	0.02801117
249	0xbd72a92c	-0.059243366
250	0x3d6683d0	0.05627805
251	0x3d218246	0.03943088
252	0xbd8cbb1d	-0.068716265
253	0x3d844396	0.064582035
254	0x3dbc43c6	0.09192614
255	0xbcbbc527	-0.022921158
